…
    mean_value: 103.939
    mean_value: 116.779
    mean_value: 123.68
    flow: false
  }
  image_data_param {
    source: "/local-scratch/xla193/cluster_video_/output/UCF-101/list_frm-labelvect-fix-veri-1ft-random.txt"
    batch_size: 50
    shuffle: false
    new_height: 240
    new_width: 320
    root_folder: "frames/"
  }
}
layer {
  name: "train_label"
  type: "HDF5Data"
  top: "train_label"
  include {
    phase: TRAIN
  }
  hdf5_data_param {
    source: "/local-scratch/xla193/cluster_video_/output/UCF-101/train_label_fix_1.txt"
    batch_size: 50
  }
}
layer {
  name: "conv1"
  type: "Convolution"
  bottom: "data"
  top: "conv1"
  param {
    lr_mult: 1
    decay_mult: 1
  }
  param {
    lr_mult: 2
    decay_mult: 0
  }
  convolution_param {
    num_output: 96
    kernel_size: 7
    stride: 2
    weight_filler {
      type: "gaussian"
      std: 0.01
    }
    bias_filler {
      type: "constant"
      value: 0.1
    }
  }
}
layer {
  name: "relu1"
  type: "ReLU"
  bottom: "conv1"
  top: "conv1"
}
layer {
  name: "pool1"
  type: "Pooling"
  bottom: "conv1"
  top: "pool1"
  pooling_param {
    pool: MAX
    kernel_size: 3
    stride: 2
  }
}
layer {
  name: "norm1"
  type: "LRN"
  bottom: "pool1"
  top: "norm1"
  lrn_param {
    local_size: 5
    alpha: 0.0001
    beta: 0.75
  }
}
layer {
  name: "conv2"
  type: "Convolution"
  bottom: "norm1"
  top: "conv2"
  param {
    lr_mult: 1
    decay_mult: 1
  }
  param {
    lr_mult: 2
    decay_mult: 0
  }
  convolution_param {
    num_output: 384
    kernel_size: 5
    group: 2
    stride: 2
    weight_filler {
      type: "gaussian"
      std: 0.01
    }
    bias_filler {
      type: "constant"
      value: 0.1
    }
  }
}
layer {
  name: "relu2"
  type: "ReLU"
  bottom: "conv2"
  top: "conv2"
}
layer {
  name: "pool2"
  type: "Pooling"
  bottom: "conv2"
  top: "pool2"
  pooling_param {
    pool: MAX
    kernel_size: 3
    stride: 2
  }
}
layer {
  name: "norm2"
  type: "LRN"
  bottom: "pool2"
  top: "norm2"
  lrn_param {
    local_size: 5
    alpha: 0.0001
    beta: 0.75
  }
}
layer {
  name: "conv3"
  type: "Convolution"
  bottom: "norm2"
  top: "conv3"
  param {
    lr_mult: 1
    decay_mult: 1
  }
  param {
    lr_mult: 2
    decay_mult: 0
  }
  convolution_param {
    num_output: 512
    pad: 1
    kernel_size: 3
    weight_filler {
      type: "gaussian"
      std: 0.01
    }
    bias_filler {
      type: "constant"
      value: 0.1
    }
  }
}
layer {
  name: "relu3"
  type: "ReLU"
  bottom: "conv3"
  top: "conv3"
}
layer {
  name: "conv4"
  type: "Convolution"
  bottom: "conv3"
  top: "conv4"
  param {
    lr_mult: 1
    decay_mult: 1
  }
  param {
    lr_mult: 2
    decay_mult: 0
  }
  convolution_param {
    num_output: 512
    pad: 1
    kernel_size: 3
    group: 2
    weight_filler {
      type: "gaussian"
      std: 0.01
    }
    bias_filler {
      type: "constant"
      value: 0.1
    }
  }
}
layer {
  name: "relu4"
  type: "ReLU"
  bottom: "conv4"
  top: "conv4"
}
layer {
  name: "conv5"
  type: "Convolution"
  bottom: "conv4"
  top: "conv5"
  param {
    lr_mult: 1
    decay_mult: 1
  }
  param {
    lr_mult: 2
    decay_mult: 0
  }
  convolution_param {
    num_output: 384
    pad: 1
    kernel_size: 3
    group: 2
    weight_filler {
      type: "gaussian"
      std: 0.01
    }
    bias_filler {
      type: "constant"
      value: 0.1
    }
  }
}
layer {
  name: "relu5"
  type: "ReLU"
  bottom: "conv5"
  top: "conv5"
}
layer {
  name: "pool5"
  type: "Pooling"
  bottom: "conv5"
  top: "pool5"
  pooling_param {
    pool: MAX
    kernel_size: 3
    stride: 2
  }
}
layer {
  name: "fc6"
  type: "InnerProduct"
  bottom: "pool5"
  top: "fc6"
  param {
    lr_mult: 1
    decay_mult: 1
  }
  param {
    lr_mult: 2
    decay_mult: 0
  }
  inner_product_param {
    num_output: 4096
    weight_filler {
      type: "gaussian"
      std: 0.01
    }
    bias_filler {
      type: "constant"
      value: 0.1
    }
  }
}
layer {
  name: "relu6"
  type: "ReLU"
  bottom: "fc6"
  top: "fc6"
}
layer {
  name: "drop6"
  type: "Dropout"
  bottom: "fc6"
  top: "fc6"
  dropout_param {
    dropout_ratio: 0.5
  }
}
layer {
  name: "fc7"
  type: "InnerProduct"
  bottom: "fc6"
  top: "fc7"
  param {
    lr_mult: 1
    decay_mult: 1
  }
  param {
    lr_mult: 2
    decay_mult: 0
  }
  inner_product_param {
    num_output: 4096
    weight_filler {
      type: "gaussian"
      std: 0.01
    }
    bias_filler {
      type: "constant"
      value: 0.1
    }
  }
}
layer {
  name: "relu7"
  type: "ReLU"
  bottom: "fc7"
  top: "fc7"
}
layer {
  name: "drop7"
  type: "Dropout"
  bottom: "fc7"
  top: "fc7"
  dropout_param {
    dropout_ratio: 0.5
  }
}
layer {
  name: "loss"
  type: "Python"
  bottom: "fc7"
  bottom: "train_label"
  bottom: "label"
  top: "loss"
  loss_weight: 1
  include {
    phase: TRAIN
  }
  python_param {
    module: "mylayers"
    layer: "HardTripletLossLayer"
  }
}
I1123 11:45:01.173923 14481 layer_factory.hpp:74] Creating layer data
I1123 11:45:01.173940 14481 net.cpp:84] Creating Layer data
I1123 11:45:01.173948 14481 net.cpp:339] data -> data
I1123 11:45:01.173972 14481 net.cpp:339] data -> label
I1123 11:45:01.173982 14481 net.cpp:113] Setting up data
I1123 11:45:01.173990 14481 image_data_layer.cpp:41] Opening file /local-scratch/xla193/cluster_video_/output/UCF-101/list_frm-labelvect-fix-veri-1ft-random.txt
I1123 11:45:01.187625 14481 image_data_layer.cpp:56] A total of 40535 images.
I1123 11:45:01.188650 14481 image_data_layer.cpp:86] output data size: 50,3,227,227
I1123 11:45:01.192309 14481 net.cpp:120] Top shape: 50 3 227 227 (7729350)
I1123 11:45:01.192318 14481 net.cpp:120] Top shape: 50 (50)
I1123 11:45:01.192327 14481 layer_factory.hpp:74] Creating layer train_label
I1123 11:45:01.192338 14481 net.cpp:84] Creating Layer train_label
I1123 11:45:01.192344 14481 net.cpp:339] train_label -> train_label
I1123 11:45:01.192366 14481 net.cpp:113] Setting up train_label
I1123 11:45:01.192373 14481 hdf5_data_layer.cpp:80] Loading list of HDF5 filenames from: /local-scratch/xla193/cluster_video_/output/UCF-101/train_label_fix_1.txt
I1123 11:45:01.192401 14481 hdf5_data_layer.cpp:94] Number of HDF5 files: 1
I1123 11:45:01.195807 14481 net.cpp:120] Top shape: 50 10 (500)
I1123 11:45:01.195821 14481 layer_factory.hpp:74] Creating layer conv1
I1123 11:45:01.195837 14481 net.cpp:84] Creating Layer conv1
I1123 11:45:01.195844 14481 net.cpp:381] conv1 <- data
I1123 11:45:01.195859 14481 net.cpp:339] conv1 -> conv1
I1123 11:45:01.195873 14481 net.cpp:113] Setting up conv1
I1123 11:45:01.196049 14481 net.cpp:120] Top shape: 50 96 111 111 (59140800)
I1123 11:45:01.196060 14481 layer_factory.hpp:74] Creating layer relu1
I1123 11:45:01.196066 14481 net.cpp:84] Creating Layer relu1
I1123 11:45:01.196070 14481 net.cpp:381] relu1 <- conv1
I1123 11:45:01.196074 14481 net.cpp:328] relu1 -> conv1 (in-place)
I1123 11:45:01.196079 14481 net.cpp:113] Setting up relu1
I1123 11:45:01.196085 14481 net.cpp:120] Top shape: 50 96 111 111 (59140800)
I1123 11:45:01.196089 14481 layer_factory.hpp:74] Creating layer pool1
I1123 11:45:01.196094 14481 net.cpp:84] Creating Layer pool1
I1123 11:45:01.196096 14481 net.cpp:381] pool1 <- conv1
I1123 11:45:01.196101 14481 net.cpp:339] pool1 -> pool1
I1123 11:45:01.196107 14481 net.cpp:113] Setting up pool1
I1123 11:45:01.196120 14481 net.cpp:120] Top shape: 50 96 55 55 (14520000)
I1123 11:45:01.196122 14481 layer_factory.hpp:74] Creating layer norm1
I1123 11:45:01.196128 14481 net.cpp:84] Creating Layer norm1
I1123 11:45:01.196132 14481 net.cpp:381] norm1 <- pool1
I1123 11:45:01.196136 14481 net.cpp:339] norm1 -> norm1
I1123 11:45:01.196143 14481 net.cpp:113] Setting up norm1
I1123 11:45:01.196151 14481 net.cpp:120] Top shape: 50 96 55 55 (14520000)
I1123 11:45:01.196153 14481 layer_factory.hpp:74] Creating layer conv2
I1123 11:45:01.196158 14481 net.cpp:84] Creating Layer conv2
I1123 11:45:01.196162 14481 net.cpp:381] conv2 <- norm1
I1123 11:45:01.196166 14481 net.cpp:339] conv2 -> conv2
I1123 11:45:01.196171 14481 net.cpp:113] Setting up conv2
I1123 11:45:01.200381 14481 net.cpp:120] Top shape: 50 384 26 26 (12979200)
I1123 11:45:01.200390 14481 layer_factory.hpp:74] Creating layer relu2
I1123 11:45:01.200397 14481 net.cpp:84] Creating Layer relu2
I1123 11:45:01.200399 14481 net.cpp:381] relu2 <- conv2
I1123 11:45:01.200403 14481 net.cpp:328] relu2 -> conv2 (in-place)
I1123 11:45:01.200408 14481 net.cpp:113] Setting up relu2
I1123 11:45:01.200412 14481 net.cpp:120] Top shape: 50 384 26 26 (12979200)
I1123 11:45:01.200415 14481 layer_factory.hpp:74] Creating layer pool2
I1123 11:45:01.200420 14481 net.cpp:84] Creating Layer pool2
I1123 11:45:01.200424 14481 net.cpp:381] pool2 <- conv2
I1123 11:45:01.200429 14481 net.cpp:339] pool2 -> pool2
I1123 11:45:01.200434 14481 net.cpp:113] Setting up pool2
I1123 11:45:01.200440 14481 net.cpp:120] Top shape: 50 384 13 13 (3244800)
I1123 11:45:01.200444 14481 layer_factory.hpp:74] Creating layer norm2
I1123 11:45:01.200448 14481 net.cpp:84] Creating Layer norm2
I1123 11:45:01.200451 14481 net.cpp:381] norm2 <- pool2
I1123 11:45:01.200455 14481 net.cpp:339] norm2 -> norm2
I1123 11:45:01.200460 14481 net.cpp:113] Setting up norm2
I1123 11:45:01.200466 14481 net.cpp:120] Top shape: 50 384 13 13 (3244800)
I1123 11:45:01.200469 14481 layer_factory.hpp:74] Creating layer conv3
I1123 11:45:01.200474 14481 net.cpp:84] Creating Layer conv3
I1123 11:45:01.200477 14481 net.cpp:381] conv3 <- norm2
I1123 11:45:01.200482 14481 net.cpp:339] conv3 -> conv3
I1123 11:45:01.200486 14481 net.cpp:113] Setting up conv3
I1123 11:45:01.215425 14481 net.cpp:120] Top shape: 50 512 13 13 (4326400)
I1123 11:45:01.215442 14481 layer_factory.hpp:74] Creating layer relu3
I1123 11:45:01.215451 14481 net.cpp:84] Creating Layer relu3
I1123 11:45:01.215456 14481 net.cpp:381] relu3 <- conv3
I1123 11:45:01.215461 14481 net.cpp:328] relu3 -> conv3 (in-place)
I1123 11:45:01.215466 14481 net.cpp:113] Setting up relu3
I1123 11:45:01.215471 14481 net.cpp:120] Top shape: 50 512 13 13 (4326400)
I1123 11:45:01.215474 14481 layer_factory.hpp:74] Creating layer conv4
I1123 11:45:01.215481 14481 net.cpp:84] Creating Layer conv4
I1123 11:45:01.215484 14481 net.cpp:381] conv4 <- conv3
I1123 11:45:01.215489 14481 net.cpp:339] conv4 -> conv4
I1123 11:45:01.215495 14481 net.cpp:113] Setting up conv4
I1123 11:45:01.225165 14481 net.cpp:120] Top shape: 50 512 13 13 (4326400)
I1123 11:45:01.225178 14481 layer_factory.hpp:74] Creating layer relu4
I1123 11:45:01.225186 14481 net.cpp:84] Creating Layer relu4
I1123 11:45:01.225189 14481 net.cpp:381] relu4 <- conv4
I1123 11:45:01.225194 14481 net.cpp:328] relu4 -> conv4 (in-place)
I1123 11:45:01.225200 14481 net.cpp:113] Setting up relu4
I1123 11:45:01.225204 14481 net.cpp:120] Top shape: 50 512 13 13 (4326400)
I1123 11:45:01.225208 14481 layer_factory.hpp:74] Creating layer conv5
I1123 11:45:01.225214 14481 net.cpp:84] Creating Layer conv5
I1123 11:45:01.225216 14481 net.cpp:381] conv5 <- conv4
I1123 11:45:01.225220 14481 net.cpp:339] conv5 -> conv5
I1123 11:45:01.225225 14481 net.cpp:113] Setting up conv5
I1123 11:45:01.233067 14481 net.cpp:120] Top shape: 50 384 13 13 (3244800)
I1123 11:45:01.233081 14481 layer_factory.hpp:74] Creating layer relu5
I1123 11:45:01.233088 14481 net.cpp:84] Creating Layer relu5
I1123 11:45:01.233093 14481 net.cpp:381] relu5 <- conv5
I1123 11:45:01.233096 14481 net.cpp:328] relu5 -> conv5 (in-place)
I1123 11:45:01.233103 14481 net.cpp:113] Setting up relu5
I1123 11:45:01.233108 14481 net.cpp:120] Top shape: 50 384 13 13 (3244800)
I1123 11:45:01.233110 14481 layer_factory.hpp:74] Creating layer pool5
I1123 11:45:01.233117 14481 net.cpp:84] Creating Layer pool5
I1123 11:45:01.233120 14481 net.cpp:381] pool5 <- conv5
I1123 11:45:01.233125 14481 net.cpp:339] pool5 -> pool5
I1123 11:45:01.233131 14481 net.cpp:113] Setting up pool5
I1123 11:45:01.233139 14481 net.cpp:120] Top shape: 50 384 6 6 (691200)
I1123 11:45:01.233142 14481 layer_factory.hpp:74] Creating layer fc6
I1123 11:45:01.233149 14481 net.cpp:84] Creating Layer fc6
I1123 11:45:01.233151 14481 net.cpp:381] fc6 <- pool5
I1123 11:45:01.233156 14481 net.cpp:339] fc6 -> fc6
I1123 11:45:01.233165 14481 net.cpp:113] Setting up fc6
I1123 11:45:01.673215 14481 net.cpp:120] Top shape: 50 4096 (204800)
I1123 11:45:01.673233 14481 layer_factory.hpp:74] Creating layer relu6
I1123 11:45:01.673240 14481 net.cpp:84] Creating Layer relu6
I1123 11:45:01.673244 14481 net.cpp:381] relu6 <- fc6
I1123 11:45:01.673249 14481 net.cpp:328] relu6 -> fc6 (in-place)
I1123 11:45:01.673255 14481 net.cpp:113] Setting up relu6
I1123 11:45:01.673260 14481 net.cpp:120] Top shape: 50 4096 (204800)
I1123 11:45:01.673264 14481 layer_factory.hpp:74] Creating layer drop6
I1123 11:45:01.673269 14481 net.cpp:84] Creating Layer drop6
I1123 11:45:01.673271 14481 net.cpp:381] drop6 <- fc6
I1123 11:45:01.673275 14481 net.cpp:328] drop6 -> fc6 (in-place)
I1123 11:45:01.673282 14481 net.cpp:113] Setting up drop6
I1123 11:45:01.673290 14481 net.cpp:120] Top shape: 50 4096 (204800)
I1123 11:45:01.673306 14481 layer_factory.hpp:74] Creating layer fc7
I1123 11:45:01.673321 14481 net.cpp:84] Creating Layer fc7
I1123 11:45:01.673331 14481 net.cpp:381] fc7 <- fc6
I1123 11:45:01.673344 14481 net.cpp:339] fc7 -> fc7
I1123 11:45:01.673360 14481 net.cpp:113] Setting up fc7
I1123 11:45:01.804086 14481 net.cpp:120] Top shape: 50 4096 (204800)
I1123 11:45:01.804103 14481 layer_factory.hpp:74] Creating layer relu7
I1123 11:45:01.804112 14481 net.cpp:84] Creating Layer relu7
I1123 11:45:01.804116 14481 net.cpp:381] relu7 <- fc7
I1123 11:45:01.804121 14481 net.cpp:328] relu7 -> fc7 (in-place)
I1123 11:45:01.804128 14481 net.cpp:113] Setting up relu7
I1123 11:45:01.804132 14481 net.cpp:120] Top shape: 50 4096 (204800)
I1123 11:45:01.804136 14481 layer_factory.hpp:74] Creating layer drop7
I1123 11:45:01.804141 14481 net.cpp:84] Creating Layer drop7
I1123 11:45:01.804155 14481 net.cpp:381] drop7 <- fc7
I1123 11:45:01.804168 14481 net.cpp:328] drop7 -> fc7 (in-place)
I1123 11:45:01.804181 14481 net.cpp:113] Setting up drop7
I1123 11:45:01.804195 14481 net.cpp:120] Top shape: 50 4096 (204800)
I1123 11:45:01.804206 14481 layer_factory.hpp:74] Creating layer loss
I1123 11:45:04.757664 14481 net.cpp:84] Creating Layer loss
I1123 11:45:04.757699 14481 net.cpp:381] loss <- fc7
I1123 11:45:04.757719 14481 net.cpp:381] loss <- train_label
I1123 11:45:04.757732 14481 net.cpp:381] loss <- label
I1123 11:45:04.757755 14481 net.cpp:339] loss -> loss
I1123 11:45:04.757778 14481 net.cpp:113] Setting up loss
I1123 11:45:04.757869 14481 net.cpp:120] Top shape: 1 (1)
I1123 11:45:04.757884 14481 net.cpp:122]     with loss weight 1
I1123 11:45:04.757936 14481 net.cpp:167] loss needs backward computation.
I1123 11:45:04.757951 14481 net.cpp:167] drop7 needs backward computation.
I1123 11:45:04.757961 14481 net.cpp:167] relu7 needs backward computation.
I1123 11:45:04.757972 14481 net.cpp:167] fc7 needs backward computation.
I1123 11:45:04.757982 14481 net.cpp:167] drop6 needs backward computation.
…
