…
    mean_value: 116.779
    mean_value: 123.68
    flow: false
  }
  image_data_param {
    source: "/local-scratch/xla193/cluster_video_/output/UCF-101/cross-valid-input/list_frm-veri-fix-train-shuffle-0-4.txt"
    batch_size: 50
    shuffle: false
    new_height: 240
    new_width: 320
    root_folder: "frames/"
  }
}
layer {
  name: "train_label"
  type: "HDF5Data"
  top: "train_label"
  include {
    phase: TRAIN
  }
  hdf5_data_param {
    source: "/local-scratch/xla193/cluster_video_/output/UCF-101/cross-valid-input/train_label_fix_0-4.txt"
    batch_size: 50
  }
}
layer {
  name: "conv1"
  type: "Convolution"
  bottom: "data"
  top: "conv1"
  param {
    lr_mult: 1
    decay_mult: 1
  }
  param {
    lr_mult: 2
    decay_mult: 0
  }
  convolution_param {
    num_output: 96
    kernel_size: 7
    stride: 2
    weight_filler {
      type: "gaussian"
      std: 0.01
    }
    bias_filler {
      type: "constant"
      value: 0.1
    }
  }
}
layer {
  name: "relu1"
  type: "ReLU"
  bottom: "conv1"
  top: "conv1"
}
layer {
  name: "pool1"
  type: "Pooling"
  bottom: "conv1"
  top: "pool1"
  pooling_param {
    pool: MAX
    kernel_size: 3
    stride: 2
  }
}
layer {
  name: "norm1"
  type: "LRN"
  bottom: "pool1"
  top: "norm1"
  lrn_param {
    local_size: 5
    alpha: 0.0001
    beta: 0.75
  }
}
layer {
  name: "conv2"
  type: "Convolution"
  bottom: "norm1"
  top: "conv2"
  param {
    lr_mult: 1
    decay_mult: 1
  }
  param {
    lr_mult: 2
    decay_mult: 0
  }
  convolution_param {
    num_output: 384
    kernel_size: 5
    group: 2
    stride: 2
    weight_filler {
      type: "gaussian"
      std: 0.01
    }
    bias_filler {
      type: "constant"
      value: 0.1
    }
  }
}
layer {
  name: "relu2"
  type: "ReLU"
  bottom: "conv2"
  top: "conv2"
}
layer {
  name: "pool2"
  type: "Pooling"
  bottom: "conv2"
  top: "pool2"
  pooling_param {
    pool: MAX
    kernel_size: 3
    stride: 2
  }
}
layer {
  name: "norm2"
  type: "LRN"
  bottom: "pool2"
  top: "norm2"
  lrn_param {
    local_size: 5
    alpha: 0.0001
    beta: 0.75
  }
}
layer {
  name: "conv3"
  type: "Convolution"
  bottom: "norm2"
  top: "conv3"
  param {
    lr_mult: 1
    decay_mult: 1
  }
  param {
    lr_mult: 2
    decay_mult: 0
  }
  convolution_param {
    num_output: 512
    pad: 1
    kernel_size: 3
    weight_filler {
      type: "gaussian"
      std: 0.01
    }
    bias_filler {
      type: "constant"
      value: 0.1
    }
  }
}
layer {
  name: "relu3"
  type: "ReLU"
  bottom: "conv3"
  top: "conv3"
}
layer {
  name: "conv4"
  type: "Convolution"
  bottom: "conv3"
  top: "conv4"
  param {
    lr_mult: 1
    decay_mult: 1
  }
  param {
    lr_mult: 2
    decay_mult: 0
  }
  convolution_param {
    num_output: 512
    pad: 1
    kernel_size: 3
    group: 2
    weight_filler {
      type: "gaussian"
      std: 0.01
    }
    bias_filler {
      type: "constant"
      value: 0.1
    }
  }
}
layer {
  name: "relu4"
  type: "ReLU"
  bottom: "conv4"
  top: "conv4"
}
layer {
  name: "conv5"
  type: "Convolution"
  bottom: "conv4"
  top: "conv5"
  param {
    lr_mult: 1
    decay_mult: 1
  }
  param {
    lr_mult: 2
    decay_mult: 0
  }
  convolution_param {
    num_output: 384
    pad: 1
    kernel_size: 3
    group: 2
    weight_filler {
      type: "gaussian"
      std: 0.01
    }
    bias_filler {
      type: "constant"
      value: 0.1
    }
  }
}
layer {
  name: "relu5"
  type: "ReLU"
  bottom: "conv5"
  top: "conv5"
}
layer {
  name: "pool5"
  type: "Pooling"
  bottom: "conv5"
  top: "pool5"
  pooling_param {
    pool: MAX
    kernel_size: 3
    stride: 2
  }
}
layer {
  name: "fc6"
  type: "InnerProduct"
  bottom: "pool5"
  top: "fc6"
  param {
    lr_mult: 1
    decay_mult: 1
  }
  param {
    lr_mult: 2
    decay_mult: 0
  }
  inner_product_param {
    num_output: 4096
    weight_filler {
      type: "gaussian"
      std: 0.01
    }
    bias_filler {
      type: "constant"
      value: 0.1
    }
  }
}
layer {
  name: "relu6"
  type: "ReLU"
  bottom: "fc6"
  top: "fc6"
}
layer {
  name: "drop6"
  type: "Dropout"
  bottom: "fc6"
  top: "fc6"
  dropout_param {
    dropout_ratio: 0.5
  }
}
layer {
  name: "fc7"
  type: "InnerProduct"
  bottom: "fc6"
  top: "fc7"
  param {
    lr_mult: 1
    decay_mult: 1
  }
  param {
    lr_mult: 2
    decay_mult: 0
  }
  inner_product_param {
    num_output: 4096
    weight_filler {
      type: "gaussian"
      std: 0.01
    }
    bias_filler {
      type: "constant"
      value: 0.1
    }
  }
}
layer {
  name: "relu7"
  type: "ReLU"
  bottom: "fc7"
  top: "fc7"
}
layer {
  name: "drop7"
  type: "Dropout"
  bottom: "fc7"
  top: "fc7"
  dropout_param {
    dropout_ratio: 0.5
  }
}
layer {
  name: "loss"
  type: "Python"
  bottom: "fc7"
  bottom: "train_label"
  bottom: "label"
  top: "loss"
  loss_weight: 1
  include {
    phase: TRAIN
  }
  python_param {
    module: "mylayers"
    layer: "HardTripletLossLayer"
  }
}
I1118 17:55:14.009129 11869 layer_factory.hpp:74] Creating layer data
I1118 17:55:14.009146 11869 net.cpp:84] Creating Layer data
I1118 17:55:14.009153 11869 net.cpp:339] data -> data
I1118 17:55:14.009178 11869 net.cpp:339] data -> label
I1118 17:55:14.009187 11869 net.cpp:113] Setting up data
I1118 17:55:14.009194 11869 image_data_layer.cpp:41] Opening file /local-scratch/xla193/cluster_video_/output/UCF-101/cross-valid-input/list_frm-veri-fix-train-shuffle-0-4.txt
I1118 17:55:14.017590 11869 image_data_layer.cpp:56] A total of 25956 images.
I1118 17:55:14.018543 11869 image_data_layer.cpp:86] output data size: 50,3,227,227
I1118 17:55:14.022565 11869 net.cpp:120] Top shape: 50 3 227 227 (7729350)
I1118 17:55:14.022613 11869 net.cpp:120] Top shape: 50 (50)
I1118 17:55:14.022647 11869 layer_factory.hpp:74] Creating layer train_label
I1118 17:55:14.022685 11869 net.cpp:84] Creating Layer train_label
I1118 17:55:14.022713 11869 net.cpp:339] train_label -> train_label
I1118 17:55:14.022747 11869 net.cpp:113] Setting up train_label
I1118 17:55:14.022775 11869 hdf5_data_layer.cpp:80] Loading list of HDF5 filenames from: /local-scratch/xla193/cluster_video_/output/UCF-101/cross-valid-input/train_label_fix_0-4.txt
I1118 17:55:14.022816 11869 hdf5_data_layer.cpp:94] Number of HDF5 files: 1
I1118 17:55:14.025326 11869 net.cpp:120] Top shape: 50 10 (500)
I1118 17:55:14.025338 11869 layer_factory.hpp:74] Creating layer conv1
I1118 17:55:14.025354 11869 net.cpp:84] Creating Layer conv1
I1118 17:55:14.025393 11869 net.cpp:381] conv1 <- data
I1118 17:55:14.025430 11869 net.cpp:339] conv1 -> conv1
I1118 17:55:14.025454 11869 net.cpp:113] Setting up conv1
I1118 17:55:14.025630 11869 net.cpp:120] Top shape: 50 96 111 111 (59140800)
I1118 17:55:14.025657 11869 layer_factory.hpp:74] Creating layer relu1
I1118 17:55:14.025665 11869 net.cpp:84] Creating Layer relu1
I1118 17:55:14.025667 11869 net.cpp:381] relu1 <- conv1
I1118 17:55:14.025672 11869 net.cpp:328] relu1 -> conv1 (in-place)
I1118 17:55:14.025694 11869 net.cpp:113] Setting up relu1
I1118 17:55:14.025714 11869 net.cpp:120] Top shape: 50 96 111 111 (59140800)
I1118 17:55:14.025719 11869 layer_factory.hpp:74] Creating layer pool1
I1118 17:55:14.025740 11869 net.cpp:84] Creating Layer pool1
I1118 17:55:14.025744 11869 net.cpp:381] pool1 <- conv1
I1118 17:55:14.025765 11869 net.cpp:339] pool1 -> pool1
I1118 17:55:14.025784 11869 net.cpp:113] Setting up pool1
I1118 17:55:14.025807 11869 net.cpp:120] Top shape: 50 96 55 55 (14520000)
I1118 17:55:14.025811 11869 layer_factory.hpp:74] Creating layer norm1
I1118 17:55:14.025830 11869 net.cpp:84] Creating Layer norm1
I1118 17:55:14.025833 11869 net.cpp:381] norm1 <- pool1
I1118 17:55:14.025849 11869 net.cpp:339] norm1 -> norm1
I1118 17:55:14.025867 11869 net.cpp:113] Setting up norm1
I1118 17:55:14.025887 11869 net.cpp:120] Top shape: 50 96 55 55 (14520000)
I1118 17:55:14.025890 11869 layer_factory.hpp:74] Creating layer conv2
I1118 17:55:14.025907 11869 net.cpp:84] Creating Layer conv2
I1118 17:55:14.025910 11869 net.cpp:381] conv2 <- norm1
I1118 17:55:14.025926 11869 net.cpp:339] conv2 -> conv2
I1118 17:55:14.025943 11869 net.cpp:113] Setting up conv2
I1118 17:55:14.030196 11869 net.cpp:120] Top shape: 50 384 26 26 (12979200)
I1118 17:55:14.030208 11869 layer_factory.hpp:74] Creating layer relu2
I1118 17:55:14.030215 11869 net.cpp:84] Creating Layer relu2
I1118 17:55:14.030218 11869 net.cpp:381] relu2 <- conv2
I1118 17:55:14.030223 11869 net.cpp:328] relu2 -> conv2 (in-place)
I1118 17:55:14.030228 11869 net.cpp:113] Setting up relu2
I1118 17:55:14.030233 11869 net.cpp:120] Top shape: 50 384 26 26 (12979200)
I1118 17:55:14.030246 11869 layer_factory.hpp:74] Creating layer pool2
I1118 17:55:14.030262 11869 net.cpp:84] Creating Layer pool2
I1118 17:55:14.030273 11869 net.cpp:381] pool2 <- conv2
I1118 17:55:14.030303 11869 net.cpp:339] pool2 -> pool2
I1118 17:55:14.030320 11869 net.cpp:113] Setting up pool2
I1118 17:55:14.030328 11869 net.cpp:120] Top shape: 50 384 13 13 (3244800)
I1118 17:55:14.030331 11869 layer_factory.hpp:74] Creating layer norm2
I1118 17:55:14.030336 11869 net.cpp:84] Creating Layer norm2
I1118 17:55:14.030349 11869 net.cpp:381] norm2 <- pool2
I1118 17:55:14.030361 11869 net.cpp:339] norm2 -> norm2
I1118 17:55:14.030369 11869 net.cpp:113] Setting up norm2
I1118 17:55:14.030385 11869 net.cpp:120] Top shape: 50 384 13 13 (3244800)
I1118 17:55:14.030395 11869 layer_factory.hpp:74] Creating layer conv3
I1118 17:55:14.030411 11869 net.cpp:84] Creating Layer conv3
I1118 17:55:14.030414 11869 net.cpp:381] conv3 <- norm2
I1118 17:55:14.030419 11869 net.cpp:339] conv3 -> conv3
I1118 17:55:14.030426 11869 net.cpp:113] Setting up conv3
I1118 17:55:14.048054 11869 net.cpp:120] Top shape: 50 512 13 13 (4326400)
I1118 17:55:14.048082 11869 layer_factory.hpp:74] Creating layer relu3
I1118 17:55:14.048091 11869 net.cpp:84] Creating Layer relu3
I1118 17:55:14.048095 11869 net.cpp:381] relu3 <- conv3
I1118 17:55:14.048101 11869 net.cpp:328] relu3 -> conv3 (in-place)
I1118 17:55:14.048106 11869 net.cpp:113] Setting up relu3
I1118 17:55:14.048110 11869 net.cpp:120] Top shape: 50 512 13 13 (4326400)
I1118 17:55:14.048113 11869 layer_factory.hpp:74] Creating layer conv4
I1118 17:55:14.048120 11869 net.cpp:84] Creating Layer conv4
I1118 17:55:14.048121 11869 net.cpp:381] conv4 <- conv3
I1118 17:55:14.048125 11869 net.cpp:339] conv4 -> conv4
I1118 17:55:14.048130 11869 net.cpp:113] Setting up conv4
I1118 17:55:14.057497 11869 net.cpp:120] Top shape: 50 512 13 13 (4326400)
I1118 17:55:14.057519 11869 layer_factory.hpp:74] Creating layer relu4
I1118 17:55:14.057528 11869 net.cpp:84] Creating Layer relu4
I1118 17:55:14.057530 11869 net.cpp:381] relu4 <- conv4
I1118 17:55:14.057535 11869 net.cpp:328] relu4 -> conv4 (in-place)
I1118 17:55:14.057540 11869 net.cpp:113] Setting up relu4
I1118 17:55:14.057544 11869 net.cpp:120] Top shape: 50 512 13 13 (4326400)
I1118 17:55:14.057546 11869 layer_factory.hpp:74] Creating layer conv5
I1118 17:55:14.057552 11869 net.cpp:84] Creating Layer conv5
I1118 17:55:14.057554 11869 net.cpp:381] conv5 <- conv4
I1118 17:55:14.057557 11869 net.cpp:339] conv5 -> conv5
I1118 17:55:14.057562 11869 net.cpp:113] Setting up conv5
I1118 17:55:14.065250 11869 net.cpp:120] Top shape: 50 384 13 13 (3244800)
I1118 17:55:14.065274 11869 layer_factory.hpp:74] Creating layer relu5
I1118 17:55:14.065280 11869 net.cpp:84] Creating Layer relu5
I1118 17:55:14.065284 11869 net.cpp:381] relu5 <- conv5
I1118 17:55:14.065287 11869 net.cpp:328] relu5 -> conv5 (in-place)
I1118 17:55:14.065292 11869 net.cpp:113] Setting up relu5
I1118 17:55:14.065295 11869 net.cpp:120] Top shape: 50 384 13 13 (3244800)
I1118 17:55:14.065299 11869 layer_factory.hpp:74] Creating layer pool5
I1118 17:55:14.065304 11869 net.cpp:84] Creating Layer pool5
I1118 17:55:14.065306 11869 net.cpp:381] pool5 <- conv5
I1118 17:55:14.065310 11869 net.cpp:339] pool5 -> pool5
I1118 17:55:14.065315 11869 net.cpp:113] Setting up pool5
I1118 17:55:14.065320 11869 net.cpp:120] Top shape: 50 384 6 6 (691200)
I1118 17:55:14.065321 11869 layer_factory.hpp:74] Creating layer fc6
I1118 17:55:14.065327 11869 net.cpp:84] Creating Layer fc6
I1118 17:55:14.065330 11869 net.cpp:381] fc6 <- pool5
I1118 17:55:14.065332 11869 net.cpp:339] fc6 -> fc6
I1118 17:55:14.065340 11869 net.cpp:113] Setting up fc6
I1118 17:55:14.505412 11869 net.cpp:120] Top shape: 50 4096 (204800)
I1118 17:55:14.505427 11869 layer_factory.hpp:74] Creating layer relu6
I1118 17:55:14.505434 11869 net.cpp:84] Creating Layer relu6
I1118 17:55:14.505437 11869 net.cpp:381] relu6 <- fc6
I1118 17:55:14.505442 11869 net.cpp:328] relu6 -> fc6 (in-place)
I1118 17:55:14.505447 11869 net.cpp:113] Setting up relu6
I1118 17:55:14.505450 11869 net.cpp:120] Top shape: 50 4096 (204800)
I1118 17:55:14.505452 11869 layer_factory.hpp:74] Creating layer drop6
I1118 17:55:14.505456 11869 net.cpp:84] Creating Layer drop6
I1118 17:55:14.505458 11869 net.cpp:381] drop6 <- fc6
I1118 17:55:14.505461 11869 net.cpp:328] drop6 -> fc6 (in-place)
I1118 17:55:14.505467 11869 net.cpp:113] Setting up drop6
I1118 17:55:14.505475 11869 net.cpp:120] Top shape: 50 4096 (204800)
I1118 17:55:14.505476 11869 layer_factory.hpp:74] Creating layer fc7
I1118 17:55:14.505481 11869 net.cpp:84] Creating Layer fc7
I1118 17:55:14.505482 11869 net.cpp:381] fc7 <- fc6
I1118 17:55:14.505486 11869 net.cpp:339] fc7 -> fc7
I1118 17:55:14.505489 11869 net.cpp:113] Setting up fc7
I1118 17:55:14.636502 11869 net.cpp:120] Top shape: 50 4096 (204800)
I1118 17:55:14.636518 11869 layer_factory.hpp:74] Creating layer relu7
I1118 17:55:14.636524 11869 net.cpp:84] Creating Layer relu7
I1118 17:55:14.636526 11869 net.cpp:381] relu7 <- fc7
I1118 17:55:14.636531 11869 net.cpp:328] relu7 -> fc7 (in-place)
I1118 17:55:14.636536 11869 net.cpp:113] Setting up relu7
I1118 17:55:14.636539 11869 net.cpp:120] Top shape: 50 4096 (204800)
I1118 17:55:14.636541 11869 layer_factory.hpp:74] Creating layer drop7
I1118 17:55:14.636546 11869 net.cpp:84] Creating Layer drop7
I1118 17:55:14.636548 11869 net.cpp:381] drop7 <- fc7
I1118 17:55:14.636550 11869 net.cpp:328] drop7 -> fc7 (in-place)
I1118 17:55:14.636553 11869 net.cpp:113] Setting up drop7
I1118 17:55:14.636556 11869 net.cpp:120] Top shape: 50 4096 (204800)
I1118 17:55:14.636559 11869 layer_factory.hpp:74] Creating layer loss
I1118 17:55:44.489567 11869 net.cpp:84] Creating Layer loss
I1118 17:55:44.489581 11869 net.cpp:381] loss <- fc7
I1118 17:55:44.489588 11869 net.cpp:381] loss <- train_label
I1118 17:55:44.489593 11869 net.cpp:381] loss <- label
I1118 17:55:44.489598 11869 net.cpp:339] loss -> loss
I1118 17:55:44.489605 11869 net.cpp:113] Setting up loss
I1118 17:55:44.489642 11869 net.cpp:120] Top shape: 1 (1)
I1118 17:55:44.489660 11869 net.cpp:122]     with loss weight 1
I1118 17:55:44.489680 11869 net.cpp:167] loss needs backward computation.
I1118 17:55:44.489684 11869 net.cpp:167] drop7 needs backward computation.
I1118 17:55:44.489687 11869 net.cpp:167] relu7 needs backward computation.
I1118 17:55:44.489691 11869 net.cpp:167] fc7 needs backward computation.
I1118 17:55:44.489693 11869 net.cpp:167] drop6 needs backward computation.
…
