…
    mean_value: 116.779
    mean_value: 123.68
    flow: false
  }
  image_data_param {
    source: "/local-scratch/xla193/cluster_video_/output/UCF-101/cross-valid-input/list_frm-veri-fix-train-shuffle-0-1.txt"
    batch_size: 50
    shuffle: false
    new_height: 240
    new_width: 320
    root_folder: "frames/"
  }
}
layer {
  name: "train_label"
  type: "HDF5Data"
  top: "train_label"
  include {
    phase: TRAIN
  }
  hdf5_data_param {
    source: "/local-scratch/xla193/cluster_video_/output/UCF-101/cross-valid-input/train_label_fix_0-1.txt"
    batch_size: 50
  }
}
layer {
  name: "conv1"
  type: "Convolution"
  bottom: "data"
  top: "conv1"
  param {
    lr_mult: 1
    decay_mult: 1
  }
  param {
    lr_mult: 2
    decay_mult: 0
  }
  convolution_param {
    num_output: 96
    kernel_size: 7
    stride: 2
    weight_filler {
      type: "gaussian"
      std: 0.01
    }
    bias_filler {
      type: "constant"
      value: 0.1
    }
  }
}
layer {
  name: "relu1"
  type: "ReLU"
  bottom: "conv1"
  top: "conv1"
}
layer {
  name: "pool1"
  type: "Pooling"
  bottom: "conv1"
  top: "pool1"
  pooling_param {
    pool: MAX
    kernel_size: 3
    stride: 2
  }
}
layer {
  name: "norm1"
  type: "LRN"
  bottom: "pool1"
  top: "norm1"
  lrn_param {
    local_size: 5
    alpha: 0.0001
    beta: 0.75
  }
}
layer {
  name: "conv2"
  type: "Convolution"
  bottom: "norm1"
  top: "conv2"
  param {
    lr_mult: 1
    decay_mult: 1
  }
  param {
    lr_mult: 2
    decay_mult: 0
  }
  convolution_param {
    num_output: 384
    kernel_size: 5
    group: 2
    stride: 2
    weight_filler {
      type: "gaussian"
      std: 0.01
    }
    bias_filler {
      type: "constant"
      value: 0.1
    }
  }
}
layer {
  name: "relu2"
  type: "ReLU"
  bottom: "conv2"
  top: "conv2"
}
layer {
  name: "pool2"
  type: "Pooling"
  bottom: "conv2"
  top: "pool2"
  pooling_param {
    pool: MAX
    kernel_size: 3
    stride: 2
  }
}
layer {
  name: "norm2"
  type: "LRN"
  bottom: "pool2"
  top: "norm2"
  lrn_param {
    local_size: 5
    alpha: 0.0001
    beta: 0.75
  }
}
layer {
  name: "conv3"
  type: "Convolution"
  bottom: "norm2"
  top: "conv3"
  param {
    lr_mult: 1
    decay_mult: 1
  }
  param {
    lr_mult: 2
    decay_mult: 0
  }
  convolution_param {
    num_output: 512
    pad: 1
    kernel_size: 3
    weight_filler {
      type: "gaussian"
      std: 0.01
    }
    bias_filler {
      type: "constant"
      value: 0.1
    }
  }
}
layer {
  name: "relu3"
  type: "ReLU"
  bottom: "conv3"
  top: "conv3"
}
layer {
  name: "conv4"
  type: "Convolution"
  bottom: "conv3"
  top: "conv4"
  param {
    lr_mult: 1
    decay_mult: 1
  }
  param {
    lr_mult: 2
    decay_mult: 0
  }
  convolution_param {
    num_output: 512
    pad: 1
    kernel_size: 3
    group: 2
    weight_filler {
      type: "gaussian"
      std: 0.01
    }
    bias_filler {
      type: "constant"
      value: 0.1
    }
  }
}
layer {
  name: "relu4"
  type: "ReLU"
  bottom: "conv4"
  top: "conv4"
}
layer {
  name: "conv5"
  type: "Convolution"
  bottom: "conv4"
  top: "conv5"
  param {
    lr_mult: 1
    decay_mult: 1
  }
  param {
    lr_mult: 2
    decay_mult: 0
  }
  convolution_param {
    num_output: 384
    pad: 1
    kernel_size: 3
    group: 2
    weight_filler {
      type: "gaussian"
      std: 0.01
    }
    bias_filler {
      type: "constant"
      value: 0.1
    }
  }
}
layer {
  name: "relu5"
  type: "ReLU"
  bottom: "conv5"
  top: "conv5"
}
layer {
  name: "pool5"
  type: "Pooling"
  bottom: "conv5"
  top: "pool5"
  pooling_param {
    pool: MAX
    kernel_size: 3
    stride: 2
  }
}
layer {
  name: "fc6"
  type: "InnerProduct"
  bottom: "pool5"
  top: "fc6"
  param {
    lr_mult: 1
    decay_mult: 1
  }
  param {
    lr_mult: 2
    decay_mult: 0
  }
  inner_product_param {
    num_output: 4096
    weight_filler {
      type: "gaussian"
      std: 0.01
    }
    bias_filler {
      type: "constant"
      value: 0.1
    }
  }
}
layer {
  name: "relu6"
  type: "ReLU"
  bottom: "fc6"
  top: "fc6"
}
layer {
  name: "drop6"
  type: "Dropout"
  bottom: "fc6"
  top: "fc6"
  dropout_param {
    dropout_ratio: 0.5
  }
}
layer {
  name: "fc7"
  type: "InnerProduct"
  bottom: "fc6"
  top: "fc7"
  param {
    lr_mult: 1
    decay_mult: 1
  }
  param {
    lr_mult: 2
    decay_mult: 0
  }
  inner_product_param {
    num_output: 4096
    weight_filler {
      type: "gaussian"
      std: 0.01
    }
    bias_filler {
      type: "constant"
      value: 0.1
    }
  }
}
layer {
  name: "relu7"
  type: "ReLU"
  bottom: "fc7"
  top: "fc7"
}
layer {
  name: "drop7"
  type: "Dropout"
  bottom: "fc7"
  top: "fc7"
  dropout_param {
    dropout_ratio: 0.5
  }
}
layer {
  name: "loss"
  type: "Python"
  bottom: "fc7"
  bottom: "train_label"
  bottom: "label"
  top: "loss"
  loss_weight: 1
  include {
    phase: TRAIN
  }
  python_param {
    module: "mylayers"
    layer: "HardTripletLossLayer"
  }
}
I1118 20:01:57.180814 23960 layer_factory.hpp:74] Creating layer data
I1118 20:01:57.180835 23960 net.cpp:84] Creating Layer data
I1118 20:01:57.180843 23960 net.cpp:339] data -> data
I1118 20:01:57.180873 23960 net.cpp:339] data -> label
I1118 20:01:57.180884 23960 net.cpp:113] Setting up data
I1118 20:01:57.180891 23960 image_data_layer.cpp:41] Opening file /local-scratch/xla193/cluster_video_/output/UCF-101/cross-valid-input/list_frm-veri-fix-train-shuffle-0-1.txt
I1118 20:01:57.189556 23960 image_data_layer.cpp:56] A total of 25956 images.
I1118 20:01:57.190548 23960 image_data_layer.cpp:86] output data size: 50,3,227,227
I1118 20:01:57.195142 23960 net.cpp:120] Top shape: 50 3 227 227 (7729350)
I1118 20:01:57.195149 23960 net.cpp:120] Top shape: 50 (50)
I1118 20:01:57.195158 23960 layer_factory.hpp:74] Creating layer train_label
I1118 20:01:57.195170 23960 net.cpp:84] Creating Layer train_label
I1118 20:01:57.195178 23960 net.cpp:339] train_label -> train_label
I1118 20:01:57.195190 23960 net.cpp:113] Setting up train_label
I1118 20:01:57.195194 23960 hdf5_data_layer.cpp:80] Loading list of HDF5 filenames from: /local-scratch/xla193/cluster_video_/output/UCF-101/cross-valid-input/train_label_fix_0-1.txt
I1118 20:01:57.195214 23960 hdf5_data_layer.cpp:94] Number of HDF5 files: 1
I1118 20:01:57.197687 23960 net.cpp:120] Top shape: 50 10 (500)
I1118 20:01:57.197700 23960 layer_factory.hpp:74] Creating layer conv1
I1118 20:01:57.197715 23960 net.cpp:84] Creating Layer conv1
I1118 20:01:57.197721 23960 net.cpp:381] conv1 <- data
I1118 20:01:57.197736 23960 net.cpp:339] conv1 -> conv1
I1118 20:01:57.197747 23960 net.cpp:113] Setting up conv1
I1118 20:01:57.197914 23960 net.cpp:120] Top shape: 50 96 111 111 (59140800)
I1118 20:01:57.197929 23960 layer_factory.hpp:74] Creating layer relu1
I1118 20:01:57.197937 23960 net.cpp:84] Creating Layer relu1
I1118 20:01:57.197939 23960 net.cpp:381] relu1 <- conv1
I1118 20:01:57.197943 23960 net.cpp:328] relu1 -> conv1 (in-place)
I1118 20:01:57.197948 23960 net.cpp:113] Setting up relu1
I1118 20:01:57.197957 23960 net.cpp:120] Top shape: 50 96 111 111 (59140800)
I1118 20:01:57.197962 23960 layer_factory.hpp:74] Creating layer pool1
I1118 20:01:57.197969 23960 net.cpp:84] Creating Layer pool1
I1118 20:01:57.197974 23960 net.cpp:381] pool1 <- conv1
I1118 20:01:57.197980 23960 net.cpp:339] pool1 -> pool1
I1118 20:01:57.197988 23960 net.cpp:113] Setting up pool1
I1118 20:01:57.198001 23960 net.cpp:120] Top shape: 50 96 55 55 (14520000)
I1118 20:01:57.198005 23960 layer_factory.hpp:74] Creating layer norm1
I1118 20:01:57.198014 23960 net.cpp:84] Creating Layer norm1
I1118 20:01:57.198017 23960 net.cpp:381] norm1 <- pool1
I1118 20:01:57.198024 23960 net.cpp:339] norm1 -> norm1
I1118 20:01:57.198034 23960 net.cpp:113] Setting up norm1
I1118 20:01:57.198040 23960 net.cpp:120] Top shape: 50 96 55 55 (14520000)
I1118 20:01:57.198045 23960 layer_factory.hpp:74] Creating layer conv2
I1118 20:01:57.198053 23960 net.cpp:84] Creating Layer conv2
I1118 20:01:57.198056 23960 net.cpp:381] conv2 <- norm1
I1118 20:01:57.198061 23960 net.cpp:339] conv2 -> conv2
I1118 20:01:57.198067 23960 net.cpp:113] Setting up conv2
I1118 20:01:57.202330 23960 net.cpp:120] Top shape: 50 384 26 26 (12979200)
I1118 20:01:57.202340 23960 layer_factory.hpp:74] Creating layer relu2
I1118 20:01:57.202345 23960 net.cpp:84] Creating Layer relu2
I1118 20:01:57.202348 23960 net.cpp:381] relu2 <- conv2
I1118 20:01:57.202353 23960 net.cpp:328] relu2 -> conv2 (in-place)
I1118 20:01:57.202358 23960 net.cpp:113] Setting up relu2
I1118 20:01:57.202363 23960 net.cpp:120] Top shape: 50 384 26 26 (12979200)
I1118 20:01:57.202366 23960 layer_factory.hpp:74] Creating layer pool2
I1118 20:01:57.202373 23960 net.cpp:84] Creating Layer pool2
I1118 20:01:57.202375 23960 net.cpp:381] pool2 <- conv2
I1118 20:01:57.202379 23960 net.cpp:339] pool2 -> pool2
I1118 20:01:57.202384 23960 net.cpp:113] Setting up pool2
I1118 20:01:57.202391 23960 net.cpp:120] Top shape: 50 384 13 13 (3244800)
I1118 20:01:57.202395 23960 layer_factory.hpp:74] Creating layer norm2
I1118 20:01:57.202400 23960 net.cpp:84] Creating Layer norm2
I1118 20:01:57.202404 23960 net.cpp:381] norm2 <- pool2
I1118 20:01:57.202407 23960 net.cpp:339] norm2 -> norm2
I1118 20:01:57.202414 23960 net.cpp:113] Setting up norm2
I1118 20:01:57.202420 23960 net.cpp:120] Top shape: 50 384 13 13 (3244800)
I1118 20:01:57.202424 23960 layer_factory.hpp:74] Creating layer conv3
I1118 20:01:57.202430 23960 net.cpp:84] Creating Layer conv3
I1118 20:01:57.202433 23960 net.cpp:381] conv3 <- norm2
I1118 20:01:57.202438 23960 net.cpp:339] conv3 -> conv3
I1118 20:01:57.202445 23960 net.cpp:113] Setting up conv3
I1118 20:01:57.217448 23960 net.cpp:120] Top shape: 50 512 13 13 (4326400)
I1118 20:01:57.217468 23960 layer_factory.hpp:74] Creating layer relu3
I1118 20:01:57.217478 23960 net.cpp:84] Creating Layer relu3
I1118 20:01:57.217483 23960 net.cpp:381] relu3 <- conv3
I1118 20:01:57.217489 23960 net.cpp:328] relu3 -> conv3 (in-place)
I1118 20:01:57.217495 23960 net.cpp:113] Setting up relu3
I1118 20:01:57.217500 23960 net.cpp:120] Top shape: 50 512 13 13 (4326400)
I1118 20:01:57.217504 23960 layer_factory.hpp:74] Creating layer conv4
I1118 20:01:57.217511 23960 net.cpp:84] Creating Layer conv4
I1118 20:01:57.217515 23960 net.cpp:381] conv4 <- conv3
I1118 20:01:57.217521 23960 net.cpp:339] conv4 -> conv4
I1118 20:01:57.217530 23960 net.cpp:113] Setting up conv4
I1118 20:01:57.228165 23960 net.cpp:120] Top shape: 50 512 13 13 (4326400)
I1118 20:01:57.228180 23960 layer_factory.hpp:74] Creating layer relu4
I1118 20:01:57.228188 23960 net.cpp:84] Creating Layer relu4
I1118 20:01:57.228193 23960 net.cpp:381] relu4 <- conv4
I1118 20:01:57.228199 23960 net.cpp:328] relu4 -> conv4 (in-place)
I1118 20:01:57.228204 23960 net.cpp:113] Setting up relu4
I1118 20:01:57.228209 23960 net.cpp:120] Top shape: 50 512 13 13 (4326400)
I1118 20:01:57.228212 23960 layer_factory.hpp:74] Creating layer conv5
I1118 20:01:57.228219 23960 net.cpp:84] Creating Layer conv5
I1118 20:01:57.228221 23960 net.cpp:381] conv5 <- conv4
I1118 20:01:57.228226 23960 net.cpp:339] conv5 -> conv5
I1118 20:01:57.228232 23960 net.cpp:113] Setting up conv5
I1118 20:01:57.236038 23960 net.cpp:120] Top shape: 50 384 13 13 (3244800)
I1118 20:01:57.236057 23960 layer_factory.hpp:74] Creating layer relu5
I1118 20:01:57.236064 23960 net.cpp:84] Creating Layer relu5
I1118 20:01:57.236068 23960 net.cpp:381] relu5 <- conv5
I1118 20:01:57.236073 23960 net.cpp:328] relu5 -> conv5 (in-place)
I1118 20:01:57.236080 23960 net.cpp:113] Setting up relu5
I1118 20:01:57.236086 23960 net.cpp:120] Top shape: 50 384 13 13 (3244800)
I1118 20:01:57.236090 23960 layer_factory.hpp:74] Creating layer pool5
I1118 20:01:57.236099 23960 net.cpp:84] Creating Layer pool5
I1118 20:01:57.236101 23960 net.cpp:381] pool5 <- conv5
I1118 20:01:57.236106 23960 net.cpp:339] pool5 -> pool5
I1118 20:01:57.236112 23960 net.cpp:113] Setting up pool5
I1118 20:01:57.236120 23960 net.cpp:120] Top shape: 50 384 6 6 (691200)
I1118 20:01:57.236124 23960 layer_factory.hpp:74] Creating layer fc6
I1118 20:01:57.236130 23960 net.cpp:84] Creating Layer fc6
I1118 20:01:57.236133 23960 net.cpp:381] fc6 <- pool5
I1118 20:01:57.236138 23960 net.cpp:339] fc6 -> fc6
I1118 20:01:57.236146 23960 net.cpp:113] Setting up fc6
I1118 20:01:57.708822 23960 net.cpp:120] Top shape: 50 4096 (204800)
I1118 20:01:57.708840 23960 layer_factory.hpp:74] Creating layer relu6
I1118 20:01:57.708850 23960 net.cpp:84] Creating Layer relu6
I1118 20:01:57.708855 23960 net.cpp:381] relu6 <- fc6
I1118 20:01:57.708861 23960 net.cpp:328] relu6 -> fc6 (in-place)
I1118 20:01:57.708868 23960 net.cpp:113] Setting up relu6
I1118 20:01:57.708874 23960 net.cpp:120] Top shape: 50 4096 (204800)
I1118 20:01:57.708878 23960 layer_factory.hpp:74] Creating layer drop6
I1118 20:01:57.708884 23960 net.cpp:84] Creating Layer drop6
I1118 20:01:57.708899 23960 net.cpp:381] drop6 <- fc6
I1118 20:01:57.708911 23960 net.cpp:328] drop6 -> fc6 (in-place)
I1118 20:01:57.708927 23960 net.cpp:113] Setting up drop6
I1118 20:01:57.708945 23960 net.cpp:120] Top shape: 50 4096 (204800)
I1118 20:01:57.708956 23960 layer_factory.hpp:74] Creating layer fc7
I1118 20:01:57.708971 23960 net.cpp:84] Creating Layer fc7
I1118 20:01:57.708982 23960 net.cpp:381] fc7 <- fc6
I1118 20:01:57.708995 23960 net.cpp:339] fc7 -> fc7
I1118 20:01:57.709003 23960 net.cpp:113] Setting up fc7
I1118 20:01:57.839531 23960 net.cpp:120] Top shape: 50 4096 (204800)
I1118 20:01:57.839550 23960 layer_factory.hpp:74] Creating layer relu7
I1118 20:01:57.839558 23960 net.cpp:84] Creating Layer relu7
I1118 20:01:57.839563 23960 net.cpp:381] relu7 <- fc7
I1118 20:01:57.839570 23960 net.cpp:328] relu7 -> fc7 (in-place)
I1118 20:01:57.839576 23960 net.cpp:113] Setting up relu7
I1118 20:01:57.839581 23960 net.cpp:120] Top shape: 50 4096 (204800)
I1118 20:01:57.839597 23960 layer_factory.hpp:74] Creating layer drop7
I1118 20:01:57.839612 23960 net.cpp:84] Creating Layer drop7
I1118 20:01:57.839623 23960 net.cpp:381] drop7 <- fc7
I1118 20:01:57.839635 23960 net.cpp:328] drop7 -> fc7 (in-place)
I1118 20:01:57.839648 23960 net.cpp:113] Setting up drop7
I1118 20:01:57.839663 23960 net.cpp:120] Top shape: 50 4096 (204800)
I1118 20:01:57.839668 23960 layer_factory.hpp:74] Creating layer loss
I1118 20:02:00.116986 23960 net.cpp:84] Creating Layer loss
I1118 20:02:00.116999 23960 net.cpp:381] loss <- fc7
I1118 20:02:00.117007 23960 net.cpp:381] loss <- train_label
I1118 20:02:00.117010 23960 net.cpp:381] loss <- label
I1118 20:02:00.117017 23960 net.cpp:339] loss -> loss
I1118 20:02:00.117023 23960 net.cpp:113] Setting up loss
I1118 20:02:00.117059 23960 net.cpp:120] Top shape: 1 (1)
I1118 20:02:00.117076 23960 net.cpp:122]     with loss weight 1
I1118 20:02:00.117106 23960 net.cpp:167] loss needs backward computation.
I1118 20:02:00.117120 23960 net.cpp:167] drop7 needs backward computation.
I1118 20:02:00.117132 23960 net.cpp:167] relu7 needs backward computation.
I1118 20:02:00.117151 23960 net.cpp:167] fc7 needs backward computation.
I1118 20:02:00.117161 23960 net.cpp:167] drop6 needs backward computation.
…
