…
    mean_value: 116.779
    mean_value: 123.68
    flow: false
  }
  image_data_param {
    source: "/local-scratch/xla193/cluster_video_/output/UCF-101/cross-valid-input/list_frm-veri-fix-train-shuffle-0-1.txt"
    batch_size: 50
    shuffle: false
    new_height: 240
    new_width: 320
    root_folder: "frames/"
  }
}
layer {
  name: "train_label"
  type: "HDF5Data"
  top: "train_label"
  include {
    phase: TRAIN
  }
  hdf5_data_param {
    source: "/local-scratch/xla193/cluster_video_/output/UCF-101/cross-valid-input/train_label_fix_0-1.txt"
    batch_size: 50
  }
}
layer {
  name: "conv1"
  type: "Convolution"
  bottom: "data"
  top: "conv1"
  param {
    lr_mult: 1
    decay_mult: 1
  }
  param {
    lr_mult: 2
    decay_mult: 0
  }
  convolution_param {
    num_output: 96
    kernel_size: 7
    stride: 2
    weight_filler {
      type: "gaussian"
      std: 0.01
    }
    bias_filler {
      type: "constant"
      value: 0.1
    }
  }
}
layer {
  name: "relu1"
  type: "ReLU"
  bottom: "conv1"
  top: "conv1"
}
layer {
  name: "pool1"
  type: "Pooling"
  bottom: "conv1"
  top: "pool1"
  pooling_param {
    pool: MAX
    kernel_size: 3
    stride: 2
  }
}
layer {
  name: "norm1"
  type: "LRN"
  bottom: "pool1"
  top: "norm1"
  lrn_param {
    local_size: 5
    alpha: 0.0001
    beta: 0.75
  }
}
layer {
  name: "conv2"
  type: "Convolution"
  bottom: "norm1"
  top: "conv2"
  param {
    lr_mult: 1
    decay_mult: 1
  }
  param {
    lr_mult: 2
    decay_mult: 0
  }
  convolution_param {
    num_output: 384
    kernel_size: 5
    group: 2
    stride: 2
    weight_filler {
      type: "gaussian"
      std: 0.01
    }
    bias_filler {
      type: "constant"
      value: 0.1
    }
  }
}
layer {
  name: "relu2"
  type: "ReLU"
  bottom: "conv2"
  top: "conv2"
}
layer {
  name: "pool2"
  type: "Pooling"
  bottom: "conv2"
  top: "pool2"
  pooling_param {
    pool: MAX
    kernel_size: 3
    stride: 2
  }
}
layer {
  name: "norm2"
  type: "LRN"
  bottom: "pool2"
  top: "norm2"
  lrn_param {
    local_size: 5
    alpha: 0.0001
    beta: 0.75
  }
}
layer {
  name: "conv3"
  type: "Convolution"
  bottom: "norm2"
  top: "conv3"
  param {
    lr_mult: 1
    decay_mult: 1
  }
  param {
    lr_mult: 2
    decay_mult: 0
  }
  convolution_param {
    num_output: 512
    pad: 1
    kernel_size: 3
    weight_filler {
      type: "gaussian"
      std: 0.01
    }
    bias_filler {
      type: "constant"
      value: 0.1
    }
  }
}
layer {
  name: "relu3"
  type: "ReLU"
  bottom: "conv3"
  top: "conv3"
}
layer {
  name: "conv4"
  type: "Convolution"
  bottom: "conv3"
  top: "conv4"
  param {
    lr_mult: 1
    decay_mult: 1
  }
  param {
    lr_mult: 2
    decay_mult: 0
  }
  convolution_param {
    num_output: 512
    pad: 1
    kernel_size: 3
    group: 2
    weight_filler {
      type: "gaussian"
      std: 0.01
    }
    bias_filler {
      type: "constant"
      value: 0.1
    }
  }
}
layer {
  name: "relu4"
  type: "ReLU"
  bottom: "conv4"
  top: "conv4"
}
layer {
  name: "conv5"
  type: "Convolution"
  bottom: "conv4"
  top: "conv5"
  param {
    lr_mult: 1
    decay_mult: 1
  }
  param {
    lr_mult: 2
    decay_mult: 0
  }
  convolution_param {
    num_output: 384
    pad: 1
    kernel_size: 3
    group: 2
    weight_filler {
      type: "gaussian"
      std: 0.01
    }
    bias_filler {
      type: "constant"
      value: 0.1
    }
  }
}
layer {
  name: "relu5"
  type: "ReLU"
  bottom: "conv5"
  top: "conv5"
}
layer {
  name: "pool5"
  type: "Pooling"
  bottom: "conv5"
  top: "pool5"
  pooling_param {
    pool: MAX
    kernel_size: 3
    stride: 2
  }
}
layer {
  name: "fc6"
  type: "InnerProduct"
  bottom: "pool5"
  top: "fc6"
  param {
    lr_mult: 1
    decay_mult: 1
  }
  param {
    lr_mult: 2
    decay_mult: 0
  }
  inner_product_param {
    num_output: 4096
    weight_filler {
      type: "gaussian"
      std: 0.01
    }
    bias_filler {
      type: "constant"
      value: 0.1
    }
  }
}
layer {
  name: "relu6"
  type: "ReLU"
  bottom: "fc6"
  top: "fc6"
}
layer {
  name: "drop6"
  type: "Dropout"
  bottom: "fc6"
  top: "fc6"
  dropout_param {
    dropout_ratio: 0.5
  }
}
layer {
  name: "fc7"
  type: "InnerProduct"
  bottom: "fc6"
  top: "fc7"
  param {
    lr_mult: 1
    decay_mult: 1
  }
  param {
    lr_mult: 2
    decay_mult: 0
  }
  inner_product_param {
    num_output: 4096
    weight_filler {
      type: "gaussian"
      std: 0.01
    }
    bias_filler {
      type: "constant"
      value: 0.1
    }
  }
}
layer {
  name: "relu7"
  type: "ReLU"
  bottom: "fc7"
  top: "fc7"
}
layer {
  name: "drop7"
  type: "Dropout"
  bottom: "fc7"
  top: "fc7"
  dropout_param {
    dropout_ratio: 0.5
  }
}
layer {
  name: "loss"
  type: "Python"
  bottom: "fc7"
  bottom: "train_label"
  bottom: "label"
  top: "loss"
  loss_weight: 1
  include {
    phase: TRAIN
  }
  python_param {
    module: "mylayers"
    layer: "HardTripletLossLayer"
  }
}
I1118 16:37:41.496331 28157 layer_factory.hpp:74] Creating layer data
I1118 16:37:41.496350 28157 net.cpp:84] Creating Layer data
I1118 16:37:41.496356 28157 net.cpp:339] data -> data
I1118 16:37:41.496381 28157 net.cpp:339] data -> label
I1118 16:37:41.496389 28157 net.cpp:113] Setting up data
I1118 16:37:41.496395 28157 image_data_layer.cpp:41] Opening file /local-scratch/xla193/cluster_video_/output/UCF-101/cross-valid-input/list_frm-veri-fix-train-shuffle-0-1.txt
I1118 16:37:41.504693 28157 image_data_layer.cpp:56] A total of 25956 images.
I1118 16:37:41.505620 28157 image_data_layer.cpp:86] output data size: 50,3,227,227
I1118 16:37:41.509570 28157 net.cpp:120] Top shape: 50 3 227 227 (7729350)
I1118 16:37:41.509596 28157 net.cpp:120] Top shape: 50 (50)
I1118 16:37:41.509614 28157 layer_factory.hpp:74] Creating layer train_label
I1118 16:37:41.509635 28157 net.cpp:84] Creating Layer train_label
I1118 16:37:41.509649 28157 net.cpp:339] train_label -> train_label
I1118 16:37:41.509668 28157 net.cpp:113] Setting up train_label
I1118 16:37:41.509681 28157 hdf5_data_layer.cpp:80] Loading list of HDF5 filenames from: /local-scratch/xla193/cluster_video_/output/UCF-101/cross-valid-input/train_label_fix_0-1.txt
I1118 16:37:41.509708 28157 hdf5_data_layer.cpp:94] Number of HDF5 files: 1
I1118 16:37:41.512703 28157 net.cpp:120] Top shape: 50 10 (500)
I1118 16:37:41.512715 28157 layer_factory.hpp:74] Creating layer conv1
I1118 16:37:41.512732 28157 net.cpp:84] Creating Layer conv1
I1118 16:37:41.512738 28157 net.cpp:381] conv1 <- data
I1118 16:37:41.512753 28157 net.cpp:339] conv1 -> conv1
I1118 16:37:41.512763 28157 net.cpp:113] Setting up conv1
I1118 16:37:41.512915 28157 net.cpp:120] Top shape: 50 96 111 111 (59140800)
I1118 16:37:41.512928 28157 layer_factory.hpp:74] Creating layer relu1
I1118 16:37:41.512933 28157 net.cpp:84] Creating Layer relu1
I1118 16:37:41.512936 28157 net.cpp:381] relu1 <- conv1
I1118 16:37:41.512940 28157 net.cpp:328] relu1 -> conv1 (in-place)
I1118 16:37:41.512945 28157 net.cpp:113] Setting up relu1
I1118 16:37:41.512953 28157 net.cpp:120] Top shape: 50 96 111 111 (59140800)
I1118 16:37:41.512956 28157 layer_factory.hpp:74] Creating layer pool1
I1118 16:37:41.512962 28157 net.cpp:84] Creating Layer pool1
I1118 16:37:41.512965 28157 net.cpp:381] pool1 <- conv1
I1118 16:37:41.512969 28157 net.cpp:339] pool1 -> pool1
I1118 16:37:41.512977 28157 net.cpp:113] Setting up pool1
I1118 16:37:41.512990 28157 net.cpp:120] Top shape: 50 96 55 55 (14520000)
I1118 16:37:41.512994 28157 layer_factory.hpp:74] Creating layer norm1
I1118 16:37:41.513000 28157 net.cpp:84] Creating Layer norm1
I1118 16:37:41.513005 28157 net.cpp:381] norm1 <- pool1
I1118 16:37:41.513010 28157 net.cpp:339] norm1 -> norm1
I1118 16:37:41.513015 28157 net.cpp:113] Setting up norm1
I1118 16:37:41.513023 28157 net.cpp:120] Top shape: 50 96 55 55 (14520000)
I1118 16:37:41.513026 28157 layer_factory.hpp:74] Creating layer conv2
I1118 16:37:41.513032 28157 net.cpp:84] Creating Layer conv2
I1118 16:37:41.513036 28157 net.cpp:381] conv2 <- norm1
I1118 16:37:41.513041 28157 net.cpp:339] conv2 -> conv2
I1118 16:37:41.513046 28157 net.cpp:113] Setting up conv2
I1118 16:37:41.517137 28157 net.cpp:120] Top shape: 50 384 26 26 (12979200)
I1118 16:37:41.517146 28157 layer_factory.hpp:74] Creating layer relu2
I1118 16:37:41.517153 28157 net.cpp:84] Creating Layer relu2
I1118 16:37:41.517155 28157 net.cpp:381] relu2 <- conv2
I1118 16:37:41.517170 28157 net.cpp:328] relu2 -> conv2 (in-place)
I1118 16:37:41.517175 28157 net.cpp:113] Setting up relu2
I1118 16:37:41.517181 28157 net.cpp:120] Top shape: 50 384 26 26 (12979200)
I1118 16:37:41.517184 28157 layer_factory.hpp:74] Creating layer pool2
I1118 16:37:41.517190 28157 net.cpp:84] Creating Layer pool2
I1118 16:37:41.517192 28157 net.cpp:381] pool2 <- conv2
I1118 16:37:41.517197 28157 net.cpp:339] pool2 -> pool2
I1118 16:37:41.517211 28157 net.cpp:113] Setting up pool2
I1118 16:37:41.517218 28157 net.cpp:120] Top shape: 50 384 13 13 (3244800)
I1118 16:37:41.517222 28157 layer_factory.hpp:74] Creating layer norm2
I1118 16:37:41.517227 28157 net.cpp:84] Creating Layer norm2
I1118 16:37:41.517230 28157 net.cpp:381] norm2 <- pool2
I1118 16:37:41.517235 28157 net.cpp:339] norm2 -> norm2
I1118 16:37:41.517240 28157 net.cpp:113] Setting up norm2
I1118 16:37:41.517246 28157 net.cpp:120] Top shape: 50 384 13 13 (3244800)
I1118 16:37:41.517248 28157 layer_factory.hpp:74] Creating layer conv3
I1118 16:37:41.517256 28157 net.cpp:84] Creating Layer conv3
I1118 16:37:41.517258 28157 net.cpp:381] conv3 <- norm2
I1118 16:37:41.517263 28157 net.cpp:339] conv3 -> conv3
I1118 16:37:41.517268 28157 net.cpp:113] Setting up conv3
I1118 16:37:41.532349 28157 net.cpp:120] Top shape: 50 512 13 13 (4326400)
I1118 16:37:41.532368 28157 layer_factory.hpp:74] Creating layer relu3
I1118 16:37:41.532377 28157 net.cpp:84] Creating Layer relu3
I1118 16:37:41.532382 28157 net.cpp:381] relu3 <- conv3
I1118 16:37:41.532387 28157 net.cpp:328] relu3 -> conv3 (in-place)
I1118 16:37:41.532402 28157 net.cpp:113] Setting up relu3
I1118 16:37:41.532408 28157 net.cpp:120] Top shape: 50 512 13 13 (4326400)
I1118 16:37:41.532412 28157 layer_factory.hpp:74] Creating layer conv4
I1118 16:37:41.532418 28157 net.cpp:84] Creating Layer conv4
I1118 16:37:41.532423 28157 net.cpp:381] conv4 <- conv3
I1118 16:37:41.532428 28157 net.cpp:339] conv4 -> conv4
I1118 16:37:41.532434 28157 net.cpp:113] Setting up conv4
I1118 16:37:41.542031 28157 net.cpp:120] Top shape: 50 512 13 13 (4326400)
I1118 16:37:41.542045 28157 layer_factory.hpp:74] Creating layer relu4
I1118 16:37:41.542053 28157 net.cpp:84] Creating Layer relu4
I1118 16:37:41.542057 28157 net.cpp:381] relu4 <- conv4
I1118 16:37:41.542062 28157 net.cpp:328] relu4 -> conv4 (in-place)
I1118 16:37:41.542068 28157 net.cpp:113] Setting up relu4
I1118 16:37:41.542073 28157 net.cpp:120] Top shape: 50 512 13 13 (4326400)
I1118 16:37:41.542076 28157 layer_factory.hpp:74] Creating layer conv5
I1118 16:37:41.542084 28157 net.cpp:84] Creating Layer conv5
I1118 16:37:41.542086 28157 net.cpp:381] conv5 <- conv4
I1118 16:37:41.542091 28157 net.cpp:339] conv5 -> conv5
I1118 16:37:41.542098 28157 net.cpp:113] Setting up conv5
I1118 16:37:41.549253 28157 net.cpp:120] Top shape: 50 384 13 13 (3244800)
I1118 16:37:41.549268 28157 layer_factory.hpp:74] Creating layer relu5
I1118 16:37:41.549274 28157 net.cpp:84] Creating Layer relu5
I1118 16:37:41.549278 28157 net.cpp:381] relu5 <- conv5
I1118 16:37:41.549293 28157 net.cpp:328] relu5 -> conv5 (in-place)
I1118 16:37:41.549299 28157 net.cpp:113] Setting up relu5
I1118 16:37:41.549305 28157 net.cpp:120] Top shape: 50 384 13 13 (3244800)
I1118 16:37:41.549309 28157 layer_factory.hpp:74] Creating layer pool5
I1118 16:37:41.549319 28157 net.cpp:84] Creating Layer pool5
I1118 16:37:41.549322 28157 net.cpp:381] pool5 <- conv5
I1118 16:37:41.549327 28157 net.cpp:339] pool5 -> pool5
I1118 16:37:41.549334 28157 net.cpp:113] Setting up pool5
I1118 16:37:41.549341 28157 net.cpp:120] Top shape: 50 384 6 6 (691200)
I1118 16:37:41.549345 28157 layer_factory.hpp:74] Creating layer fc6
I1118 16:37:41.549352 28157 net.cpp:84] Creating Layer fc6
I1118 16:37:41.549356 28157 net.cpp:381] fc6 <- pool5
I1118 16:37:41.549361 28157 net.cpp:339] fc6 -> fc6
I1118 16:37:41.549371 28157 net.cpp:113] Setting up fc6
I1118 16:37:41.988382 28157 net.cpp:120] Top shape: 50 4096 (204800)
I1118 16:37:41.988399 28157 layer_factory.hpp:74] Creating layer relu6
I1118 16:37:41.988409 28157 net.cpp:84] Creating Layer relu6
I1118 16:37:41.988412 28157 net.cpp:381] relu6 <- fc6
I1118 16:37:41.988417 28157 net.cpp:328] relu6 -> fc6 (in-place)
I1118 16:37:41.988425 28157 net.cpp:113] Setting up relu6
I1118 16:37:41.988428 28157 net.cpp:120] Top shape: 50 4096 (204800)
I1118 16:37:41.988431 28157 layer_factory.hpp:74] Creating layer drop6
I1118 16:37:41.988436 28157 net.cpp:84] Creating Layer drop6
I1118 16:37:41.988440 28157 net.cpp:381] drop6 <- fc6
I1118 16:37:41.988443 28157 net.cpp:328] drop6 -> fc6 (in-place)
I1118 16:37:41.988451 28157 net.cpp:113] Setting up drop6
I1118 16:37:41.988472 28157 net.cpp:120] Top shape: 50 4096 (204800)
I1118 16:37:41.988484 28157 layer_factory.hpp:74] Creating layer fc7
I1118 16:37:41.988499 28157 net.cpp:84] Creating Layer fc7
I1118 16:37:41.988510 28157 net.cpp:381] fc7 <- fc6
I1118 16:37:41.988523 28157 net.cpp:339] fc7 -> fc7
I1118 16:37:41.988543 28157 net.cpp:113] Setting up fc7
I1118 16:37:42.119560 28157 net.cpp:120] Top shape: 50 4096 (204800)
I1118 16:37:42.119577 28157 layer_factory.hpp:74] Creating layer relu7
I1118 16:37:42.119586 28157 net.cpp:84] Creating Layer relu7
I1118 16:37:42.119590 28157 net.cpp:381] relu7 <- fc7
I1118 16:37:42.119596 28157 net.cpp:328] relu7 -> fc7 (in-place)
I1118 16:37:42.119601 28157 net.cpp:113] Setting up relu7
I1118 16:37:42.119606 28157 net.cpp:120] Top shape: 50 4096 (204800)
I1118 16:37:42.119609 28157 layer_factory.hpp:74] Creating layer drop7
I1118 16:37:42.119616 28157 net.cpp:84] Creating Layer drop7
I1118 16:37:42.119618 28157 net.cpp:381] drop7 <- fc7
I1118 16:37:42.119622 28157 net.cpp:328] drop7 -> fc7 (in-place)
I1118 16:37:42.119626 28157 net.cpp:113] Setting up drop7
I1118 16:37:42.119644 28157 net.cpp:120] Top shape: 50 4096 (204800)
I1118 16:37:42.119657 28157 layer_factory.hpp:74] Creating layer loss
I1118 16:37:44.441802 28157 net.cpp:84] Creating Layer loss
I1118 16:37:44.441829 28157 net.cpp:381] loss <- fc7
I1118 16:37:44.441845 28157 net.cpp:381] loss <- train_label
I1118 16:37:44.441857 28157 net.cpp:381] loss <- label
I1118 16:37:44.441875 28157 net.cpp:339] loss -> loss
I1118 16:37:44.441984 28157 net.cpp:113] Setting up loss
I1118 16:37:44.442117 28157 net.cpp:120] Top shape: 1 (1)
I1118 16:37:44.442131 28157 net.cpp:122]     with loss weight 1
I1118 16:37:44.442208 28157 net.cpp:167] loss needs backward computation.
I1118 16:37:44.442245 28157 net.cpp:167] drop7 needs backward computation.
I1118 16:37:44.442309 28157 net.cpp:167] relu7 needs backward computation.
I1118 16:37:44.442399 28157 net.cpp:167] fc7 needs backward computation.
I1118 16:37:44.442453 28157 net.cpp:167] drop6 needs backward computation.
…
