…
    mean_value: 116.779
    mean_value: 123.68
    flow: false
  }
  image_data_param {
    source: "/local-scratch/xla193/cluster_video_/output/UCF-101/cross-valid-input/list_frm-veri-fix-train-shuffle-0-1.txt"
    batch_size: 50
    shuffle: false
    new_height: 240
    new_width: 320
    root_folder: "frames/"
  }
}
layer {
  name: "train_label"
  type: "HDF5Data"
  top: "train_label"
  include {
    phase: TRAIN
  }
  hdf5_data_param {
    source: "/local-scratch/xla193/cluster_video_/output/UCF-101/cross-valid-input/train_label_fix_0-1.txt"
    batch_size: 50
  }
}
layer {
  name: "conv1"
  type: "Convolution"
  bottom: "data"
  top: "conv1"
  param {
    lr_mult: 1
    decay_mult: 1
  }
  param {
    lr_mult: 2
    decay_mult: 0
  }
  convolution_param {
    num_output: 96
    kernel_size: 7
    stride: 2
    weight_filler {
      type: "gaussian"
      std: 0.01
    }
    bias_filler {
      type: "constant"
      value: 0.1
    }
  }
}
layer {
  name: "relu1"
  type: "ReLU"
  bottom: "conv1"
  top: "conv1"
}
layer {
  name: "pool1"
  type: "Pooling"
  bottom: "conv1"
  top: "pool1"
  pooling_param {
    pool: MAX
    kernel_size: 3
    stride: 2
  }
}
layer {
  name: "norm1"
  type: "LRN"
  bottom: "pool1"
  top: "norm1"
  lrn_param {
    local_size: 5
    alpha: 0.0001
    beta: 0.75
  }
}
layer {
  name: "conv2"
  type: "Convolution"
  bottom: "norm1"
  top: "conv2"
  param {
    lr_mult: 1
    decay_mult: 1
  }
  param {
    lr_mult: 2
    decay_mult: 0
  }
  convolution_param {
    num_output: 384
    kernel_size: 5
    group: 2
    stride: 2
    weight_filler {
      type: "gaussian"
      std: 0.01
    }
    bias_filler {
      type: "constant"
      value: 0.1
    }
  }
}
layer {
  name: "relu2"
  type: "ReLU"
  bottom: "conv2"
  top: "conv2"
}
layer {
  name: "pool2"
  type: "Pooling"
  bottom: "conv2"
  top: "pool2"
  pooling_param {
    pool: MAX
    kernel_size: 3
    stride: 2
  }
}
layer {
  name: "norm2"
  type: "LRN"
  bottom: "pool2"
  top: "norm2"
  lrn_param {
    local_size: 5
    alpha: 0.0001
    beta: 0.75
  }
}
layer {
  name: "conv3"
  type: "Convolution"
  bottom: "norm2"
  top: "conv3"
  param {
    lr_mult: 1
    decay_mult: 1
  }
  param {
    lr_mult: 2
    decay_mult: 0
  }
  convolution_param {
    num_output: 512
    pad: 1
    kernel_size: 3
    weight_filler {
      type: "gaussian"
      std: 0.01
    }
    bias_filler {
      type: "constant"
      value: 0.1
    }
  }
}
layer {
  name: "relu3"
  type: "ReLU"
  bottom: "conv3"
  top: "conv3"
}
layer {
  name: "conv4"
  type: "Convolution"
  bottom: "conv3"
  top: "conv4"
  param {
    lr_mult: 1
    decay_mult: 1
  }
  param {
    lr_mult: 2
    decay_mult: 0
  }
  convolution_param {
    num_output: 512
    pad: 1
    kernel_size: 3
    group: 2
    weight_filler {
      type: "gaussian"
      std: 0.01
    }
    bias_filler {
      type: "constant"
      value: 0.1
    }
  }
}
layer {
  name: "relu4"
  type: "ReLU"
  bottom: "conv4"
  top: "conv4"
}
layer {
  name: "conv5"
  type: "Convolution"
  bottom: "conv4"
  top: "conv5"
  param {
    lr_mult: 1
    decay_mult: 1
  }
  param {
    lr_mult: 2
    decay_mult: 0
  }
  convolution_param {
    num_output: 384
    pad: 1
    kernel_size: 3
    group: 2
    weight_filler {
      type: "gaussian"
      std: 0.01
    }
    bias_filler {
      type: "constant"
      value: 0.1
    }
  }
}
layer {
  name: "relu5"
  type: "ReLU"
  bottom: "conv5"
  top: "conv5"
}
layer {
  name: "pool5"
  type: "Pooling"
  bottom: "conv5"
  top: "pool5"
  pooling_param {
    pool: MAX
    kernel_size: 3
    stride: 2
  }
}
layer {
  name: "fc6"
  type: "InnerProduct"
  bottom: "pool5"
  top: "fc6"
  param {
    lr_mult: 1
    decay_mult: 1
  }
  param {
    lr_mult: 2
    decay_mult: 0
  }
  inner_product_param {
    num_output: 4096
    weight_filler {
      type: "gaussian"
      std: 0.01
    }
    bias_filler {
      type: "constant"
      value: 0.1
    }
  }
}
layer {
  name: "relu6"
  type: "ReLU"
  bottom: "fc6"
  top: "fc6"
}
layer {
  name: "drop6"
  type: "Dropout"
  bottom: "fc6"
  top: "fc6"
  dropout_param {
    dropout_ratio: 0.5
  }
}
layer {
  name: "fc7"
  type: "InnerProduct"
  bottom: "fc6"
  top: "fc7"
  param {
    lr_mult: 1
    decay_mult: 1
  }
  param {
    lr_mult: 2
    decay_mult: 0
  }
  inner_product_param {
    num_output: 4096
    weight_filler {
      type: "gaussian"
      std: 0.01
    }
    bias_filler {
      type: "constant"
      value: 0.1
    }
  }
}
layer {
  name: "relu7"
  type: "ReLU"
  bottom: "fc7"
  top: "fc7"
}
layer {
  name: "drop7"
  type: "Dropout"
  bottom: "fc7"
  top: "fc7"
  dropout_param {
    dropout_ratio: 0.5
  }
}
layer {
  name: "loss"
  type: "Python"
  bottom: "fc7"
  bottom: "train_label"
  bottom: "label"
  top: "loss"
  loss_weight: 1
  include {
    phase: TRAIN
  }
  python_param {
    module: "mylayers"
    layer: "HardTripletLossLayer"
  }
}
I1118 22:19:05.770139  4137 layer_factory.hpp:74] Creating layer data
I1118 22:19:05.770156  4137 net.cpp:84] Creating Layer data
I1118 22:19:05.770164  4137 net.cpp:339] data -> data
I1118 22:19:05.770189  4137 net.cpp:339] data -> label
I1118 22:19:05.770197  4137 net.cpp:113] Setting up data
I1118 22:19:05.770203  4137 image_data_layer.cpp:41] Opening file /local-scratch/xla193/cluster_video_/output/UCF-101/cross-valid-input/list_frm-veri-fix-train-shuffle-0-1.txt
I1118 22:19:05.778527  4137 image_data_layer.cpp:56] A total of 25956 images.
I1118 22:19:05.779450  4137 image_data_layer.cpp:86] output data size: 50,3,227,227
I1118 22:19:05.783828  4137 net.cpp:120] Top shape: 50 3 227 227 (7729350)
I1118 22:19:05.783835  4137 net.cpp:120] Top shape: 50 (50)
I1118 22:19:05.783843  4137 layer_factory.hpp:74] Creating layer train_label
I1118 22:19:05.783856  4137 net.cpp:84] Creating Layer train_label
I1118 22:19:05.783872  4137 net.cpp:339] train_label -> train_label
I1118 22:19:05.783891  4137 net.cpp:113] Setting up train_label
I1118 22:19:05.783897  4137 hdf5_data_layer.cpp:80] Loading list of HDF5 filenames from: /local-scratch/xla193/cluster_video_/output/UCF-101/cross-valid-input/train_label_fix_0-1.txt
I1118 22:19:05.783918  4137 hdf5_data_layer.cpp:94] Number of HDF5 files: 1
I1118 22:19:05.786269  4137 net.cpp:120] Top shape: 50 10 (500)
I1118 22:19:05.786279  4137 layer_factory.hpp:74] Creating layer conv1
I1118 22:19:05.786293  4137 net.cpp:84] Creating Layer conv1
I1118 22:19:05.786299  4137 net.cpp:381] conv1 <- data
I1118 22:19:05.786326  4137 net.cpp:339] conv1 -> conv1
I1118 22:19:05.786341  4137 net.cpp:113] Setting up conv1
I1118 22:19:05.786520  4137 net.cpp:120] Top shape: 50 96 111 111 (59140800)
I1118 22:19:05.786535  4137 layer_factory.hpp:74] Creating layer relu1
I1118 22:19:05.786561  4137 net.cpp:84] Creating Layer relu1
I1118 22:19:05.786572  4137 net.cpp:381] relu1 <- conv1
I1118 22:19:05.786584  4137 net.cpp:328] relu1 -> conv1 (in-place)
I1118 22:19:05.786590  4137 net.cpp:113] Setting up relu1
I1118 22:19:05.786610  4137 net.cpp:120] Top shape: 50 96 111 111 (59140800)
I1118 22:19:05.786631  4137 layer_factory.hpp:74] Creating layer pool1
I1118 22:19:05.786645  4137 net.cpp:84] Creating Layer pool1
I1118 22:19:05.786658  4137 net.cpp:381] pool1 <- conv1
I1118 22:19:05.786672  4137 net.cpp:339] pool1 -> pool1
I1118 22:19:05.786684  4137 net.cpp:113] Setting up pool1
I1118 22:19:05.786705  4137 net.cpp:120] Top shape: 50 96 55 55 (14520000)
I1118 22:19:05.786710  4137 layer_factory.hpp:74] Creating layer norm1
I1118 22:19:05.786717  4137 net.cpp:84] Creating Layer norm1
I1118 22:19:05.786728  4137 net.cpp:381] norm1 <- pool1
I1118 22:19:05.786743  4137 net.cpp:339] norm1 -> norm1
I1118 22:19:05.786753  4137 net.cpp:113] Setting up norm1
I1118 22:19:05.786770  4137 net.cpp:120] Top shape: 50 96 55 55 (14520000)
I1118 22:19:05.786777  4137 layer_factory.hpp:74] Creating layer conv2
I1118 22:19:05.786783  4137 net.cpp:84] Creating Layer conv2
I1118 22:19:05.786794  4137 net.cpp:381] conv2 <- norm1
I1118 22:19:05.786808  4137 net.cpp:339] conv2 -> conv2
I1118 22:19:05.786815  4137 net.cpp:113] Setting up conv2
I1118 22:19:05.790966  4137 net.cpp:120] Top shape: 50 384 26 26 (12979200)
I1118 22:19:05.790977  4137 layer_factory.hpp:74] Creating layer relu2
I1118 22:19:05.790982  4137 net.cpp:84] Creating Layer relu2
I1118 22:19:05.790984  4137 net.cpp:381] relu2 <- conv2
I1118 22:19:05.790989  4137 net.cpp:328] relu2 -> conv2 (in-place)
I1118 22:19:05.790994  4137 net.cpp:113] Setting up relu2
I1118 22:19:05.791008  4137 net.cpp:120] Top shape: 50 384 26 26 (12979200)
I1118 22:19:05.791019  4137 layer_factory.hpp:74] Creating layer pool2
I1118 22:19:05.791035  4137 net.cpp:84] Creating Layer pool2
I1118 22:19:05.791046  4137 net.cpp:381] pool2 <- conv2
I1118 22:19:05.791059  4137 net.cpp:339] pool2 -> pool2
I1118 22:19:05.791071  4137 net.cpp:113] Setting up pool2
I1118 22:19:05.791086  4137 net.cpp:120] Top shape: 50 384 13 13 (3244800)
I1118 22:19:05.791091  4137 layer_factory.hpp:74] Creating layer norm2
I1118 22:19:05.791097  4137 net.cpp:84] Creating Layer norm2
I1118 22:19:05.791100  4137 net.cpp:381] norm2 <- pool2
I1118 22:19:05.791105  4137 net.cpp:339] norm2 -> norm2
I1118 22:19:05.791110  4137 net.cpp:113] Setting up norm2
I1118 22:19:05.791126  4137 net.cpp:120] Top shape: 50 384 13 13 (3244800)
I1118 22:19:05.791136  4137 layer_factory.hpp:74] Creating layer conv3
I1118 22:19:05.791151  4137 net.cpp:84] Creating Layer conv3
I1118 22:19:05.791160  4137 net.cpp:381] conv3 <- norm2
I1118 22:19:05.791173  4137 net.cpp:339] conv3 -> conv3
I1118 22:19:05.791187  4137 net.cpp:113] Setting up conv3
I1118 22:19:05.806064  4137 net.cpp:120] Top shape: 50 512 13 13 (4326400)
I1118 22:19:05.806082  4137 layer_factory.hpp:74] Creating layer relu3
I1118 22:19:05.806090  4137 net.cpp:84] Creating Layer relu3
I1118 22:19:05.806094  4137 net.cpp:381] relu3 <- conv3
I1118 22:19:05.806100  4137 net.cpp:328] relu3 -> conv3 (in-place)
I1118 22:19:05.806107  4137 net.cpp:113] Setting up relu3
I1118 22:19:05.806112  4137 net.cpp:120] Top shape: 50 512 13 13 (4326400)
I1118 22:19:05.806114  4137 layer_factory.hpp:74] Creating layer conv4
I1118 22:19:05.806121  4137 net.cpp:84] Creating Layer conv4
I1118 22:19:05.806136  4137 net.cpp:381] conv4 <- conv3
I1118 22:19:05.806148  4137 net.cpp:339] conv4 -> conv4
I1118 22:19:05.806160  4137 net.cpp:113] Setting up conv4
I1118 22:19:05.816031  4137 net.cpp:120] Top shape: 50 512 13 13 (4326400)
I1118 22:19:05.816045  4137 layer_factory.hpp:74] Creating layer relu4
I1118 22:19:05.816052  4137 net.cpp:84] Creating Layer relu4
I1118 22:19:05.816056  4137 net.cpp:381] relu4 <- conv4
I1118 22:19:05.816061  4137 net.cpp:328] relu4 -> conv4 (in-place)
I1118 22:19:05.816067  4137 net.cpp:113] Setting up relu4
I1118 22:19:05.816071  4137 net.cpp:120] Top shape: 50 512 13 13 (4326400)
I1118 22:19:05.816074  4137 layer_factory.hpp:74] Creating layer conv5
I1118 22:19:05.816082  4137 net.cpp:84] Creating Layer conv5
I1118 22:19:05.816083  4137 net.cpp:381] conv5 <- conv4
I1118 22:19:05.816088  4137 net.cpp:339] conv5 -> conv5
I1118 22:19:05.816093  4137 net.cpp:113] Setting up conv5
I1118 22:19:05.823406  4137 net.cpp:120] Top shape: 50 384 13 13 (3244800)
I1118 22:19:05.823421  4137 layer_factory.hpp:74] Creating layer relu5
I1118 22:19:05.823426  4137 net.cpp:84] Creating Layer relu5
I1118 22:19:05.823431  4137 net.cpp:381] relu5 <- conv5
I1118 22:19:05.823434  4137 net.cpp:328] relu5 -> conv5 (in-place)
I1118 22:19:05.823439  4137 net.cpp:113] Setting up relu5
I1118 22:19:05.823444  4137 net.cpp:120] Top shape: 50 384 13 13 (3244800)
I1118 22:19:05.823447  4137 layer_factory.hpp:74] Creating layer pool5
I1118 22:19:05.823454  4137 net.cpp:84] Creating Layer pool5
I1118 22:19:05.823467  4137 net.cpp:381] pool5 <- conv5
I1118 22:19:05.823479  4137 net.cpp:339] pool5 -> pool5
I1118 22:19:05.823493  4137 net.cpp:113] Setting up pool5
I1118 22:19:05.823510  4137 net.cpp:120] Top shape: 50 384 6 6 (691200)
I1118 22:19:05.823523  4137 layer_factory.hpp:74] Creating layer fc6
I1118 22:19:05.823550  4137 net.cpp:84] Creating Layer fc6
I1118 22:19:05.823571  4137 net.cpp:381] fc6 <- pool5
I1118 22:19:05.823583  4137 net.cpp:339] fc6 -> fc6
I1118 22:19:05.823596  4137 net.cpp:113] Setting up fc6
I1118 22:19:06.289605  4137 net.cpp:120] Top shape: 50 4096 (204800)
I1118 22:19:06.289623  4137 layer_factory.hpp:74] Creating layer relu6
I1118 22:19:06.289633  4137 net.cpp:84] Creating Layer relu6
I1118 22:19:06.289636  4137 net.cpp:381] relu6 <- fc6
I1118 22:19:06.289643  4137 net.cpp:328] relu6 -> fc6 (in-place)
I1118 22:19:06.289659  4137 net.cpp:113] Setting up relu6
I1118 22:19:06.289665  4137 net.cpp:120] Top shape: 50 4096 (204800)
I1118 22:19:06.289669  4137 layer_factory.hpp:74] Creating layer drop6
I1118 22:19:06.289674  4137 net.cpp:84] Creating Layer drop6
I1118 22:19:06.289679  4137 net.cpp:381] drop6 <- fc6
I1118 22:19:06.289683  4137 net.cpp:328] drop6 -> fc6 (in-place)
I1118 22:19:06.289693  4137 net.cpp:113] Setting up drop6
I1118 22:19:06.289702  4137 net.cpp:120] Top shape: 50 4096 (204800)
I1118 22:19:06.289705  4137 layer_factory.hpp:74] Creating layer fc7
I1118 22:19:06.289713  4137 net.cpp:84] Creating Layer fc7
I1118 22:19:06.289717  4137 net.cpp:381] fc7 <- fc6
I1118 22:19:06.289722  4137 net.cpp:339] fc7 -> fc7
I1118 22:19:06.289729  4137 net.cpp:113] Setting up fc7
I1118 22:19:06.420933  4137 net.cpp:120] Top shape: 50 4096 (204800)
I1118 22:19:06.420951  4137 layer_factory.hpp:74] Creating layer relu7
I1118 22:19:06.420960  4137 net.cpp:84] Creating Layer relu7
I1118 22:19:06.420965  4137 net.cpp:381] relu7 <- fc7
I1118 22:19:06.420971  4137 net.cpp:328] relu7 -> fc7 (in-place)
I1118 22:19:06.420979  4137 net.cpp:113] Setting up relu7
I1118 22:19:06.420984  4137 net.cpp:120] Top shape: 50 4096 (204800)
I1118 22:19:06.420986  4137 layer_factory.hpp:74] Creating layer drop7
I1118 22:19:06.420992  4137 net.cpp:84] Creating Layer drop7
I1118 22:19:06.421008  4137 net.cpp:381] drop7 <- fc7
I1118 22:19:06.421022  4137 net.cpp:328] drop7 -> fc7 (in-place)
I1118 22:19:06.421036  4137 net.cpp:113] Setting up drop7
I1118 22:19:06.421051  4137 net.cpp:120] Top shape: 50 4096 (204800)
I1118 22:19:06.421062  4137 layer_factory.hpp:74] Creating layer loss
I1118 22:19:08.871964  4137 net.cpp:84] Creating Layer loss
I1118 22:19:08.872005  4137 net.cpp:381] loss <- fc7
I1118 22:19:08.872030  4137 net.cpp:381] loss <- train_label
I1118 22:19:08.872047  4137 net.cpp:381] loss <- label
I1118 22:19:08.872310  4137 net.cpp:339] loss -> loss
I1118 22:19:08.872458  4137 net.cpp:113] Setting up loss
I1118 22:19:08.872716  4137 net.cpp:120] Top shape: 1 (1)
I1118 22:19:08.872740  4137 net.cpp:122]     with loss weight 1
I1118 22:19:08.872870  4137 net.cpp:167] loss needs backward computation.
I1118 22:19:08.872966  4137 net.cpp:167] drop7 needs backward computation.
I1118 22:19:08.872984  4137 net.cpp:167] relu7 needs backward computation.
I1118 22:19:08.872997  4137 net.cpp:167] fc7 needs backward computation.
I1118 22:19:08.873100  4137 net.cpp:167] drop6 needs backward computation.
…
