…
    mean_value: 116.779
    mean_value: 123.68
    flow: false
  }
  image_data_param {
    source: "/local-scratch/xla193/cluster_video_/output/UCF-101/cross-valid-input/list_frm-veri-fix-train-shuffle-0-3.txt"
    batch_size: 50
    shuffle: false
    new_height: 240
    new_width: 320
    root_folder: "frames/"
  }
}
layer {
  name: "train_label"
  type: "HDF5Data"
  top: "train_label"
  include {
    phase: TRAIN
  }
  hdf5_data_param {
    source: "/local-scratch/xla193/cluster_video_/output/UCF-101/cross-valid-input/train_label_fix_0-3.txt"
    batch_size: 50
  }
}
layer {
  name: "conv1"
  type: "Convolution"
  bottom: "data"
  top: "conv1"
  param {
    lr_mult: 1
    decay_mult: 1
  }
  param {
    lr_mult: 2
    decay_mult: 0
  }
  convolution_param {
    num_output: 96
    kernel_size: 7
    stride: 2
    weight_filler {
      type: "gaussian"
      std: 0.01
    }
    bias_filler {
      type: "constant"
      value: 0.1
    }
  }
}
layer {
  name: "relu1"
  type: "ReLU"
  bottom: "conv1"
  top: "conv1"
}
layer {
  name: "pool1"
  type: "Pooling"
  bottom: "conv1"
  top: "pool1"
  pooling_param {
    pool: MAX
    kernel_size: 3
    stride: 2
  }
}
layer {
  name: "norm1"
  type: "LRN"
  bottom: "pool1"
  top: "norm1"
  lrn_param {
    local_size: 5
    alpha: 0.0001
    beta: 0.75
  }
}
layer {
  name: "conv2"
  type: "Convolution"
  bottom: "norm1"
  top: "conv2"
  param {
    lr_mult: 1
    decay_mult: 1
  }
  param {
    lr_mult: 2
    decay_mult: 0
  }
  convolution_param {
    num_output: 384
    kernel_size: 5
    group: 2
    stride: 2
    weight_filler {
      type: "gaussian"
      std: 0.01
    }
    bias_filler {
      type: "constant"
      value: 0.1
    }
  }
}
layer {
  name: "relu2"
  type: "ReLU"
  bottom: "conv2"
  top: "conv2"
}
layer {
  name: "pool2"
  type: "Pooling"
  bottom: "conv2"
  top: "pool2"
  pooling_param {
    pool: MAX
    kernel_size: 3
    stride: 2
  }
}
layer {
  name: "norm2"
  type: "LRN"
  bottom: "pool2"
  top: "norm2"
  lrn_param {
    local_size: 5
    alpha: 0.0001
    beta: 0.75
  }
}
layer {
  name: "conv3"
  type: "Convolution"
  bottom: "norm2"
  top: "conv3"
  param {
    lr_mult: 1
    decay_mult: 1
  }
  param {
    lr_mult: 2
    decay_mult: 0
  }
  convolution_param {
    num_output: 512
    pad: 1
    kernel_size: 3
    weight_filler {
      type: "gaussian"
      std: 0.01
    }
    bias_filler {
      type: "constant"
      value: 0.1
    }
  }
}
layer {
  name: "relu3"
  type: "ReLU"
  bottom: "conv3"
  top: "conv3"
}
layer {
  name: "conv4"
  type: "Convolution"
  bottom: "conv3"
  top: "conv4"
  param {
    lr_mult: 1
    decay_mult: 1
  }
  param {
    lr_mult: 2
    decay_mult: 0
  }
  convolution_param {
    num_output: 512
    pad: 1
    kernel_size: 3
    group: 2
    weight_filler {
      type: "gaussian"
      std: 0.01
    }
    bias_filler {
      type: "constant"
      value: 0.1
    }
  }
}
layer {
  name: "relu4"
  type: "ReLU"
  bottom: "conv4"
  top: "conv4"
}
layer {
  name: "conv5"
  type: "Convolution"
  bottom: "conv4"
  top: "conv5"
  param {
    lr_mult: 1
    decay_mult: 1
  }
  param {
    lr_mult: 2
    decay_mult: 0
  }
  convolution_param {
    num_output: 384
    pad: 1
    kernel_size: 3
    group: 2
    weight_filler {
      type: "gaussian"
      std: 0.01
    }
    bias_filler {
      type: "constant"
      value: 0.1
    }
  }
}
layer {
  name: "relu5"
  type: "ReLU"
  bottom: "conv5"
  top: "conv5"
}
layer {
  name: "pool5"
  type: "Pooling"
  bottom: "conv5"
  top: "pool5"
  pooling_param {
    pool: MAX
    kernel_size: 3
    stride: 2
  }
}
layer {
  name: "fc6"
  type: "InnerProduct"
  bottom: "pool5"
  top: "fc6"
  param {
    lr_mult: 1
    decay_mult: 1
  }
  param {
    lr_mult: 2
    decay_mult: 0
  }
  inner_product_param {
    num_output: 4096
    weight_filler {
      type: "gaussian"
      std: 0.01
    }
    bias_filler {
      type: "constant"
      value: 0.1
    }
  }
}
layer {
  name: "relu6"
  type: "ReLU"
  bottom: "fc6"
  top: "fc6"
}
layer {
  name: "drop6"
  type: "Dropout"
  bottom: "fc6"
  top: "fc6"
  dropout_param {
    dropout_ratio: 0.5
  }
}
layer {
  name: "fc7"
  type: "InnerProduct"
  bottom: "fc6"
  top: "fc7"
  param {
    lr_mult: 1
    decay_mult: 1
  }
  param {
    lr_mult: 2
    decay_mult: 0
  }
  inner_product_param {
    num_output: 4096
    weight_filler {
      type: "gaussian"
      std: 0.01
    }
    bias_filler {
      type: "constant"
      value: 0.1
    }
  }
}
layer {
  name: "relu7"
  type: "ReLU"
  bottom: "fc7"
  top: "fc7"
}
layer {
  name: "drop7"
  type: "Dropout"
  bottom: "fc7"
  top: "fc7"
  dropout_param {
    dropout_ratio: 0.5
  }
}
layer {
  name: "loss"
  type: "Python"
  bottom: "fc7"
  bottom: "train_label"
  bottom: "label"
  top: "loss"
  loss_weight: 1
  include {
    phase: TRAIN
  }
  python_param {
    module: "mylayers"
    layer: "HardTripletLossLayer"
  }
}
I1121 10:50:13.503429 29614 layer_factory.hpp:74] Creating layer data
I1121 10:50:13.503445 29614 net.cpp:84] Creating Layer data
I1121 10:50:13.503453 29614 net.cpp:339] data -> data
I1121 10:50:13.503479 29614 net.cpp:339] data -> label
I1121 10:50:13.503489 29614 net.cpp:113] Setting up data
I1121 10:50:13.503494 29614 image_data_layer.cpp:41] Opening file /local-scratch/xla193/cluster_video_/output/UCF-101/cross-valid-input/list_frm-veri-fix-train-shuffle-0-3.txt
I1121 10:50:13.511884 29614 image_data_layer.cpp:56] A total of 25956 images.
I1121 10:50:13.512794 29614 image_data_layer.cpp:86] output data size: 50,3,227,227
I1121 10:50:13.516742 29614 net.cpp:120] Top shape: 50 3 227 227 (7729350)
I1121 10:50:13.516772 29614 net.cpp:120] Top shape: 50 (50)
I1121 10:50:13.516788 29614 layer_factory.hpp:74] Creating layer train_label
I1121 10:50:13.516810 29614 net.cpp:84] Creating Layer train_label
I1121 10:50:13.516826 29614 net.cpp:339] train_label -> train_label
I1121 10:50:13.516847 29614 net.cpp:113] Setting up train_label
I1121 10:50:13.516861 29614 hdf5_data_layer.cpp:80] Loading list of HDF5 filenames from: /local-scratch/xla193/cluster_video_/output/UCF-101/cross-valid-input/train_label_fix_0-3.txt
I1121 10:50:13.516893 29614 hdf5_data_layer.cpp:94] Number of HDF5 files: 1
I1121 10:50:13.520345 29614 net.cpp:120] Top shape: 50 10 (500)
I1121 10:50:13.520359 29614 layer_factory.hpp:74] Creating layer conv1
I1121 10:50:13.520375 29614 net.cpp:84] Creating Layer conv1
I1121 10:50:13.520380 29614 net.cpp:381] conv1 <- data
I1121 10:50:13.520395 29614 net.cpp:339] conv1 -> conv1
I1121 10:50:13.520408 29614 net.cpp:113] Setting up conv1
I1121 10:50:13.520650 29614 net.cpp:120] Top shape: 50 96 111 111 (59140800)
I1121 10:50:13.520664 29614 layer_factory.hpp:74] Creating layer relu1
I1121 10:50:13.520670 29614 net.cpp:84] Creating Layer relu1
I1121 10:50:13.520674 29614 net.cpp:381] relu1 <- conv1
I1121 10:50:13.520678 29614 net.cpp:328] relu1 -> conv1 (in-place)
I1121 10:50:13.520684 29614 net.cpp:113] Setting up relu1
I1121 10:50:13.520696 29614 net.cpp:120] Top shape: 50 96 111 111 (59140800)
I1121 10:50:13.520701 29614 layer_factory.hpp:74] Creating layer pool1
I1121 10:50:13.520707 29614 net.cpp:84] Creating Layer pool1
I1121 10:50:13.520711 29614 net.cpp:381] pool1 <- conv1
I1121 10:50:13.520716 29614 net.cpp:339] pool1 -> pool1
I1121 10:50:13.520723 29614 net.cpp:113] Setting up pool1
I1121 10:50:13.520738 29614 net.cpp:120] Top shape: 50 96 55 55 (14520000)
I1121 10:50:13.520742 29614 layer_factory.hpp:74] Creating layer norm1
I1121 10:50:13.520750 29614 net.cpp:84] Creating Layer norm1
I1121 10:50:13.520753 29614 net.cpp:381] norm1 <- pool1
I1121 10:50:13.520758 29614 net.cpp:339] norm1 -> norm1
I1121 10:50:13.520767 29614 net.cpp:113] Setting up norm1
I1121 10:50:13.520776 29614 net.cpp:120] Top shape: 50 96 55 55 (14520000)
I1121 10:50:13.520779 29614 layer_factory.hpp:74] Creating layer conv2
I1121 10:50:13.520786 29614 net.cpp:84] Creating Layer conv2
I1121 10:50:13.520789 29614 net.cpp:381] conv2 <- norm1
I1121 10:50:13.520797 29614 net.cpp:339] conv2 -> conv2
I1121 10:50:13.520804 29614 net.cpp:113] Setting up conv2
I1121 10:50:13.527366 29614 net.cpp:120] Top shape: 50 384 26 26 (12979200)
I1121 10:50:13.527379 29614 layer_factory.hpp:74] Creating layer relu2
I1121 10:50:13.527384 29614 net.cpp:84] Creating Layer relu2
I1121 10:50:13.527389 29614 net.cpp:381] relu2 <- conv2
I1121 10:50:13.527392 29614 net.cpp:328] relu2 -> conv2 (in-place)
I1121 10:50:13.527397 29614 net.cpp:113] Setting up relu2
I1121 10:50:13.527402 29614 net.cpp:120] Top shape: 50 384 26 26 (12979200)
I1121 10:50:13.527405 29614 layer_factory.hpp:74] Creating layer pool2
I1121 10:50:13.527411 29614 net.cpp:84] Creating Layer pool2
I1121 10:50:13.527415 29614 net.cpp:381] pool2 <- conv2
I1121 10:50:13.527420 29614 net.cpp:339] pool2 -> pool2
I1121 10:50:13.527426 29614 net.cpp:113] Setting up pool2
I1121 10:50:13.527432 29614 net.cpp:120] Top shape: 50 384 13 13 (3244800)
I1121 10:50:13.527436 29614 layer_factory.hpp:74] Creating layer norm2
I1121 10:50:13.527441 29614 net.cpp:84] Creating Layer norm2
I1121 10:50:13.527446 29614 net.cpp:381] norm2 <- pool2
I1121 10:50:13.527449 29614 net.cpp:339] norm2 -> norm2
I1121 10:50:13.527454 29614 net.cpp:113] Setting up norm2
I1121 10:50:13.527459 29614 net.cpp:120] Top shape: 50 384 13 13 (3244800)
I1121 10:50:13.527463 29614 layer_factory.hpp:74] Creating layer conv3
I1121 10:50:13.527469 29614 net.cpp:84] Creating Layer conv3
I1121 10:50:13.527472 29614 net.cpp:381] conv3 <- norm2
I1121 10:50:13.527477 29614 net.cpp:339] conv3 -> conv3
I1121 10:50:13.527482 29614 net.cpp:113] Setting up conv3
I1121 10:50:13.551201 29614 net.cpp:120] Top shape: 50 512 13 13 (4326400)
I1121 10:50:13.551223 29614 layer_factory.hpp:74] Creating layer relu3
I1121 10:50:13.551231 29614 net.cpp:84] Creating Layer relu3
I1121 10:50:13.551235 29614 net.cpp:381] relu3 <- conv3
I1121 10:50:13.551241 29614 net.cpp:328] relu3 -> conv3 (in-place)
I1121 10:50:13.551249 29614 net.cpp:113] Setting up relu3
I1121 10:50:13.551254 29614 net.cpp:120] Top shape: 50 512 13 13 (4326400)
I1121 10:50:13.551256 29614 layer_factory.hpp:74] Creating layer conv4
I1121 10:50:13.551265 29614 net.cpp:84] Creating Layer conv4
I1121 10:50:13.551267 29614 net.cpp:381] conv4 <- conv3
I1121 10:50:13.551272 29614 net.cpp:339] conv4 -> conv4
I1121 10:50:13.551278 29614 net.cpp:113] Setting up conv4
I1121 10:50:13.566977 29614 net.cpp:120] Top shape: 50 512 13 13 (4326400)
I1121 10:50:13.566992 29614 layer_factory.hpp:74] Creating layer relu4
I1121 10:50:13.567001 29614 net.cpp:84] Creating Layer relu4
I1121 10:50:13.567005 29614 net.cpp:381] relu4 <- conv4
I1121 10:50:13.567013 29614 net.cpp:328] relu4 -> conv4 (in-place)
I1121 10:50:13.567018 29614 net.cpp:113] Setting up relu4
I1121 10:50:13.567023 29614 net.cpp:120] Top shape: 50 512 13 13 (4326400)
I1121 10:50:13.567025 29614 layer_factory.hpp:74] Creating layer conv5
I1121 10:50:13.567032 29614 net.cpp:84] Creating Layer conv5
I1121 10:50:13.567035 29614 net.cpp:381] conv5 <- conv4
I1121 10:50:13.567040 29614 net.cpp:339] conv5 -> conv5
I1121 10:50:13.567046 29614 net.cpp:113] Setting up conv5
I1121 10:50:13.578900 29614 net.cpp:120] Top shape: 50 384 13 13 (3244800)
I1121 10:50:13.578915 29614 layer_factory.hpp:74] Creating layer relu5
I1121 10:50:13.578922 29614 net.cpp:84] Creating Layer relu5
I1121 10:50:13.578925 29614 net.cpp:381] relu5 <- conv5
I1121 10:50:13.578932 29614 net.cpp:328] relu5 -> conv5 (in-place)
I1121 10:50:13.578936 29614 net.cpp:113] Setting up relu5
I1121 10:50:13.578941 29614 net.cpp:120] Top shape: 50 384 13 13 (3244800)
I1121 10:50:13.578944 29614 layer_factory.hpp:74] Creating layer pool5
I1121 10:50:13.578951 29614 net.cpp:84] Creating Layer pool5
I1121 10:50:13.578955 29614 net.cpp:381] pool5 <- conv5
I1121 10:50:13.578960 29614 net.cpp:339] pool5 -> pool5
I1121 10:50:13.578966 29614 net.cpp:113] Setting up pool5
I1121 10:50:13.578974 29614 net.cpp:120] Top shape: 50 384 6 6 (691200)
I1121 10:50:13.578976 29614 layer_factory.hpp:74] Creating layer fc6
I1121 10:50:13.578984 29614 net.cpp:84] Creating Layer fc6
I1121 10:50:13.578986 29614 net.cpp:381] fc6 <- pool5
I1121 10:50:13.578991 29614 net.cpp:339] fc6 -> fc6
I1121 10:50:13.578999 29614 net.cpp:113] Setting up fc6
I1121 10:50:14.020205 29614 net.cpp:120] Top shape: 50 4096 (204800)
I1121 10:50:14.020220 29614 layer_factory.hpp:74] Creating layer relu6
I1121 10:50:14.020226 29614 net.cpp:84] Creating Layer relu6
I1121 10:50:14.020229 29614 net.cpp:381] relu6 <- fc6
I1121 10:50:14.020233 29614 net.cpp:328] relu6 -> fc6 (in-place)
I1121 10:50:14.020237 29614 net.cpp:113] Setting up relu6
I1121 10:50:14.020241 29614 net.cpp:120] Top shape: 50 4096 (204800)
I1121 10:50:14.020242 29614 layer_factory.hpp:74] Creating layer drop6
I1121 10:50:14.020246 29614 net.cpp:84] Creating Layer drop6
I1121 10:50:14.020248 29614 net.cpp:381] drop6 <- fc6
I1121 10:50:14.020251 29614 net.cpp:328] drop6 -> fc6 (in-place)
I1121 10:50:14.020256 29614 net.cpp:113] Setting up drop6
I1121 10:50:14.020262 29614 net.cpp:120] Top shape: 50 4096 (204800)
I1121 10:50:14.020263 29614 layer_factory.hpp:74] Creating layer fc7
I1121 10:50:14.020268 29614 net.cpp:84] Creating Layer fc7
I1121 10:50:14.020269 29614 net.cpp:381] fc7 <- fc6
I1121 10:50:14.020272 29614 net.cpp:339] fc7 -> fc7
I1121 10:50:14.020277 29614 net.cpp:113] Setting up fc7
I1121 10:50:14.149955 29614 net.cpp:120] Top shape: 50 4096 (204800)
I1121 10:50:14.149971 29614 layer_factory.hpp:74] Creating layer relu7
I1121 10:50:14.149976 29614 net.cpp:84] Creating Layer relu7
I1121 10:50:14.149979 29614 net.cpp:381] relu7 <- fc7
I1121 10:50:14.149984 29614 net.cpp:328] relu7 -> fc7 (in-place)
I1121 10:50:14.149988 29614 net.cpp:113] Setting up relu7
I1121 10:50:14.149991 29614 net.cpp:120] Top shape: 50 4096 (204800)
I1121 10:50:14.149993 29614 layer_factory.hpp:74] Creating layer drop7
I1121 10:50:14.149997 29614 net.cpp:84] Creating Layer drop7
I1121 10:50:14.149998 29614 net.cpp:381] drop7 <- fc7
I1121 10:50:14.150001 29614 net.cpp:328] drop7 -> fc7 (in-place)
I1121 10:50:14.150003 29614 net.cpp:113] Setting up drop7
I1121 10:50:14.150007 29614 net.cpp:120] Top shape: 50 4096 (204800)
I1121 10:50:14.150008 29614 layer_factory.hpp:74] Creating layer loss
I1121 10:50:36.586042 29614 net.cpp:84] Creating Layer loss
I1121 10:50:36.586097 29614 net.cpp:381] loss <- fc7
I1121 10:50:36.586117 29614 net.cpp:381] loss <- train_label
I1121 10:50:36.586130 29614 net.cpp:381] loss <- label
I1121 10:50:36.586148 29614 net.cpp:339] loss -> loss
I1121 10:50:36.586164 29614 net.cpp:113] Setting up loss
I1121 10:50:36.586213 29614 net.cpp:120] Top shape: 1 (1)
I1121 10:50:36.586230 29614 net.cpp:122]     with loss weight 1
I1121 10:50:36.586261 29614 net.cpp:167] loss needs backward computation.
I1121 10:50:36.586277 29614 net.cpp:167] drop7 needs backward computation.
I1121 10:50:36.586293 29614 net.cpp:167] relu7 needs backward computation.
I1121 10:50:36.586313 29614 net.cpp:167] fc7 needs backward computation.
I1121 10:50:36.586325 29614 net.cpp:167] drop6 needs backward computation.
…
