…
    mean_value: 116.779
    mean_value: 123.68
    flow: false
  }
  image_data_param {
    source: "/local-scratch/xla193/cluster_video_/output/UCF-101/cross-valid-input/list_frm-veri-fix-train-shuffle-0-3.txt"
    batch_size: 50
    shuffle: false
    new_height: 240
    new_width: 320
    root_folder: "frames/"
  }
}
layer {
  name: "train_label"
  type: "HDF5Data"
  top: "train_label"
  include {
    phase: TRAIN
  }
  hdf5_data_param {
    source: "/local-scratch/xla193/cluster_video_/output/UCF-101/cross-valid-input/train_label_fix_0-3.txt"
    batch_size: 50
  }
}
layer {
  name: "conv1"
  type: "Convolution"
  bottom: "data"
  top: "conv1"
  param {
    lr_mult: 1
    decay_mult: 1
  }
  param {
    lr_mult: 2
    decay_mult: 0
  }
  convolution_param {
    num_output: 96
    kernel_size: 7
    stride: 2
    weight_filler {
      type: "gaussian"
      std: 0.01
    }
    bias_filler {
      type: "constant"
      value: 0.1
    }
  }
}
layer {
  name: "relu1"
  type: "ReLU"
  bottom: "conv1"
  top: "conv1"
}
layer {
  name: "pool1"
  type: "Pooling"
  bottom: "conv1"
  top: "pool1"
  pooling_param {
    pool: MAX
    kernel_size: 3
    stride: 2
  }
}
layer {
  name: "norm1"
  type: "LRN"
  bottom: "pool1"
  top: "norm1"
  lrn_param {
    local_size: 5
    alpha: 0.0001
    beta: 0.75
  }
}
layer {
  name: "conv2"
  type: "Convolution"
  bottom: "norm1"
  top: "conv2"
  param {
    lr_mult: 1
    decay_mult: 1
  }
  param {
    lr_mult: 2
    decay_mult: 0
  }
  convolution_param {
    num_output: 384
    kernel_size: 5
    group: 2
    stride: 2
    weight_filler {
      type: "gaussian"
      std: 0.01
    }
    bias_filler {
      type: "constant"
      value: 0.1
    }
  }
}
layer {
  name: "relu2"
  type: "ReLU"
  bottom: "conv2"
  top: "conv2"
}
layer {
  name: "pool2"
  type: "Pooling"
  bottom: "conv2"
  top: "pool2"
  pooling_param {
    pool: MAX
    kernel_size: 3
    stride: 2
  }
}
layer {
  name: "norm2"
  type: "LRN"
  bottom: "pool2"
  top: "norm2"
  lrn_param {
    local_size: 5
    alpha: 0.0001
    beta: 0.75
  }
}
layer {
  name: "conv3"
  type: "Convolution"
  bottom: "norm2"
  top: "conv3"
  param {
    lr_mult: 1
    decay_mult: 1
  }
  param {
    lr_mult: 2
    decay_mult: 0
  }
  convolution_param {
    num_output: 512
    pad: 1
    kernel_size: 3
    weight_filler {
      type: "gaussian"
      std: 0.01
    }
    bias_filler {
      type: "constant"
      value: 0.1
    }
  }
}
layer {
  name: "relu3"
  type: "ReLU"
  bottom: "conv3"
  top: "conv3"
}
layer {
  name: "conv4"
  type: "Convolution"
  bottom: "conv3"
  top: "conv4"
  param {
    lr_mult: 1
    decay_mult: 1
  }
  param {
    lr_mult: 2
    decay_mult: 0
  }
  convolution_param {
    num_output: 512
    pad: 1
    kernel_size: 3
    group: 2
    weight_filler {
      type: "gaussian"
      std: 0.01
    }
    bias_filler {
      type: "constant"
      value: 0.1
    }
  }
}
layer {
  name: "relu4"
  type: "ReLU"
  bottom: "conv4"
  top: "conv4"
}
layer {
  name: "conv5"
  type: "Convolution"
  bottom: "conv4"
  top: "conv5"
  param {
    lr_mult: 1
    decay_mult: 1
  }
  param {
    lr_mult: 2
    decay_mult: 0
  }
  convolution_param {
    num_output: 384
    pad: 1
    kernel_size: 3
    group: 2
    weight_filler {
      type: "gaussian"
      std: 0.01
    }
    bias_filler {
      type: "constant"
      value: 0.1
    }
  }
}
layer {
  name: "relu5"
  type: "ReLU"
  bottom: "conv5"
  top: "conv5"
}
layer {
  name: "pool5"
  type: "Pooling"
  bottom: "conv5"
  top: "pool5"
  pooling_param {
    pool: MAX
    kernel_size: 3
    stride: 2
  }
}
layer {
  name: "fc6"
  type: "InnerProduct"
  bottom: "pool5"
  top: "fc6"
  param {
    lr_mult: 1
    decay_mult: 1
  }
  param {
    lr_mult: 2
    decay_mult: 0
  }
  inner_product_param {
    num_output: 4096
    weight_filler {
      type: "gaussian"
      std: 0.01
    }
    bias_filler {
      type: "constant"
      value: 0.1
    }
  }
}
layer {
  name: "relu6"
  type: "ReLU"
  bottom: "fc6"
  top: "fc6"
}
layer {
  name: "drop6"
  type: "Dropout"
  bottom: "fc6"
  top: "fc6"
  dropout_param {
    dropout_ratio: 0.5
  }
}
layer {
  name: "fc7"
  type: "InnerProduct"
  bottom: "fc6"
  top: "fc7"
  param {
    lr_mult: 1
    decay_mult: 1
  }
  param {
    lr_mult: 2
    decay_mult: 0
  }
  inner_product_param {
    num_output: 4096
    weight_filler {
      type: "gaussian"
      std: 0.01
    }
    bias_filler {
      type: "constant"
      value: 0.1
    }
  }
}
layer {
  name: "relu7"
  type: "ReLU"
  bottom: "fc7"
  top: "fc7"
}
layer {
  name: "drop7"
  type: "Dropout"
  bottom: "fc7"
  top: "fc7"
  dropout_param {
    dropout_ratio: 0.5
  }
}
layer {
  name: "loss"
  type: "Python"
  bottom: "fc7"
  bottom: "train_label"
  bottom: "label"
  top: "loss"
  loss_weight: 1
  include {
    phase: TRAIN
  }
  python_param {
    module: "mylayers"
    layer: "HardTripletLossLayer"
  }
}
I1118 17:26:59.504161  6055 layer_factory.hpp:74] Creating layer data
I1118 17:26:59.504179  6055 net.cpp:84] Creating Layer data
I1118 17:26:59.504185  6055 net.cpp:339] data -> data
I1118 17:26:59.504210  6055 net.cpp:339] data -> label
I1118 17:26:59.504220  6055 net.cpp:113] Setting up data
I1118 17:26:59.504226  6055 image_data_layer.cpp:41] Opening file /local-scratch/xla193/cluster_video_/output/UCF-101/cross-valid-input/list_frm-veri-fix-train-shuffle-0-3.txt
I1118 17:26:59.512452  6055 image_data_layer.cpp:56] A total of 25956 images.
I1118 17:26:59.513351  6055 image_data_layer.cpp:86] output data size: 50,3,227,227
I1118 17:26:59.517446  6055 net.cpp:120] Top shape: 50 3 227 227 (7729350)
I1118 17:26:59.517453  6055 net.cpp:120] Top shape: 50 (50)
I1118 17:26:59.517460  6055 layer_factory.hpp:74] Creating layer train_label
I1118 17:26:59.517483  6055 net.cpp:84] Creating Layer train_label
I1118 17:26:59.517488  6055 net.cpp:339] train_label -> train_label
I1118 17:26:59.517500  6055 net.cpp:113] Setting up train_label
I1118 17:26:59.517506  6055 hdf5_data_layer.cpp:80] Loading list of HDF5 filenames from: /local-scratch/xla193/cluster_video_/output/UCF-101/cross-valid-input/train_label_fix_0-3.txt
I1118 17:26:59.517535  6055 hdf5_data_layer.cpp:94] Number of HDF5 files: 1
I1118 17:26:59.519891  6055 net.cpp:120] Top shape: 50 10 (500)
I1118 17:26:59.519901  6055 layer_factory.hpp:74] Creating layer conv1
I1118 17:26:59.519917  6055 net.cpp:84] Creating Layer conv1
I1118 17:26:59.519923  6055 net.cpp:381] conv1 <- data
I1118 17:26:59.519938  6055 net.cpp:339] conv1 -> conv1
I1118 17:26:59.519951  6055 net.cpp:113] Setting up conv1
I1118 17:26:59.520128  6055 net.cpp:120] Top shape: 50 96 111 111 (59140800)
I1118 17:26:59.520141  6055 layer_factory.hpp:74] Creating layer relu1
I1118 17:26:59.520146  6055 net.cpp:84] Creating Layer relu1
I1118 17:26:59.520150  6055 net.cpp:381] relu1 <- conv1
I1118 17:26:59.520154  6055 net.cpp:328] relu1 -> conv1 (in-place)
I1118 17:26:59.520160  6055 net.cpp:113] Setting up relu1
I1118 17:26:59.520169  6055 net.cpp:120] Top shape: 50 96 111 111 (59140800)
I1118 17:26:59.520172  6055 layer_factory.hpp:74] Creating layer pool1
I1118 17:26:59.520179  6055 net.cpp:84] Creating Layer pool1
I1118 17:26:59.520181  6055 net.cpp:381] pool1 <- conv1
I1118 17:26:59.520187  6055 net.cpp:339] pool1 -> pool1
I1118 17:26:59.520196  6055 net.cpp:113] Setting up pool1
I1118 17:26:59.520208  6055 net.cpp:120] Top shape: 50 96 55 55 (14520000)
I1118 17:26:59.520211  6055 layer_factory.hpp:74] Creating layer norm1
I1118 17:26:59.520217  6055 net.cpp:84] Creating Layer norm1
I1118 17:26:59.520220  6055 net.cpp:381] norm1 <- pool1
I1118 17:26:59.520225  6055 net.cpp:339] norm1 -> norm1
I1118 17:26:59.520231  6055 net.cpp:113] Setting up norm1
I1118 17:26:59.520238  6055 net.cpp:120] Top shape: 50 96 55 55 (14520000)
I1118 17:26:59.520241  6055 layer_factory.hpp:74] Creating layer conv2
I1118 17:26:59.520246  6055 net.cpp:84] Creating Layer conv2
I1118 17:26:59.520249  6055 net.cpp:381] conv2 <- norm1
I1118 17:26:59.520253  6055 net.cpp:339] conv2 -> conv2
I1118 17:26:59.520258  6055 net.cpp:113] Setting up conv2
I1118 17:26:59.524379  6055 net.cpp:120] Top shape: 50 384 26 26 (12979200)
I1118 17:26:59.524387  6055 layer_factory.hpp:74] Creating layer relu2
I1118 17:26:59.524392  6055 net.cpp:84] Creating Layer relu2
I1118 17:26:59.524395  6055 net.cpp:381] relu2 <- conv2
I1118 17:26:59.524399  6055 net.cpp:328] relu2 -> conv2 (in-place)
I1118 17:26:59.524405  6055 net.cpp:113] Setting up relu2
I1118 17:26:59.524420  6055 net.cpp:120] Top shape: 50 384 26 26 (12979200)
I1118 17:26:59.524421  6055 layer_factory.hpp:74] Creating layer pool2
I1118 17:26:59.524428  6055 net.cpp:84] Creating Layer pool2
I1118 17:26:59.524431  6055 net.cpp:381] pool2 <- conv2
I1118 17:26:59.524444  6055 net.cpp:339] pool2 -> pool2
I1118 17:26:59.524449  6055 net.cpp:113] Setting up pool2
I1118 17:26:59.524456  6055 net.cpp:120] Top shape: 50 384 13 13 (3244800)
I1118 17:26:59.524459  6055 layer_factory.hpp:74] Creating layer norm2
I1118 17:26:59.524463  6055 net.cpp:84] Creating Layer norm2
I1118 17:26:59.524466  6055 net.cpp:381] norm2 <- pool2
I1118 17:26:59.524471  6055 net.cpp:339] norm2 -> norm2
I1118 17:26:59.524476  6055 net.cpp:113] Setting up norm2
I1118 17:26:59.524482  6055 net.cpp:120] Top shape: 50 384 13 13 (3244800)
I1118 17:26:59.524484  6055 layer_factory.hpp:74] Creating layer conv3
I1118 17:26:59.524490  6055 net.cpp:84] Creating Layer conv3
I1118 17:26:59.524493  6055 net.cpp:381] conv3 <- norm2
I1118 17:26:59.524497  6055 net.cpp:339] conv3 -> conv3
I1118 17:26:59.524502  6055 net.cpp:113] Setting up conv3
I1118 17:26:59.538872  6055 net.cpp:120] Top shape: 50 512 13 13 (4326400)
I1118 17:26:59.538892  6055 layer_factory.hpp:74] Creating layer relu3
I1118 17:26:59.538899  6055 net.cpp:84] Creating Layer relu3
I1118 17:26:59.538903  6055 net.cpp:381] relu3 <- conv3
I1118 17:26:59.538908  6055 net.cpp:328] relu3 -> conv3 (in-place)
I1118 17:26:59.538925  6055 net.cpp:113] Setting up relu3
I1118 17:26:59.538930  6055 net.cpp:120] Top shape: 50 512 13 13 (4326400)
I1118 17:26:59.538933  6055 layer_factory.hpp:74] Creating layer conv4
I1118 17:26:59.538941  6055 net.cpp:84] Creating Layer conv4
I1118 17:26:59.538944  6055 net.cpp:381] conv4 <- conv3
I1118 17:26:59.538950  6055 net.cpp:339] conv4 -> conv4
I1118 17:26:59.538956  6055 net.cpp:113] Setting up conv4
I1118 17:26:59.548604  6055 net.cpp:120] Top shape: 50 512 13 13 (4326400)
I1118 17:26:59.548619  6055 layer_factory.hpp:74] Creating layer relu4
I1118 17:26:59.548626  6055 net.cpp:84] Creating Layer relu4
I1118 17:26:59.548629  6055 net.cpp:381] relu4 <- conv4
I1118 17:26:59.548635  6055 net.cpp:328] relu4 -> conv4 (in-place)
I1118 17:26:59.548641  6055 net.cpp:113] Setting up relu4
I1118 17:26:59.548646  6055 net.cpp:120] Top shape: 50 512 13 13 (4326400)
I1118 17:26:59.548650  6055 layer_factory.hpp:74] Creating layer conv5
I1118 17:26:59.548655  6055 net.cpp:84] Creating Layer conv5
I1118 17:26:59.548657  6055 net.cpp:381] conv5 <- conv4
I1118 17:26:59.548662  6055 net.cpp:339] conv5 -> conv5
I1118 17:26:59.548667  6055 net.cpp:113] Setting up conv5
I1118 17:26:59.555850  6055 net.cpp:120] Top shape: 50 384 13 13 (3244800)
I1118 17:26:59.555865  6055 layer_factory.hpp:74] Creating layer relu5
I1118 17:26:59.555871  6055 net.cpp:84] Creating Layer relu5
I1118 17:26:59.555873  6055 net.cpp:381] relu5 <- conv5
I1118 17:26:59.555878  6055 net.cpp:328] relu5 -> conv5 (in-place)
I1118 17:26:59.555896  6055 net.cpp:113] Setting up relu5
I1118 17:26:59.555899  6055 net.cpp:120] Top shape: 50 384 13 13 (3244800)
I1118 17:26:59.555903  6055 layer_factory.hpp:74] Creating layer pool5
I1118 17:26:59.555912  6055 net.cpp:84] Creating Layer pool5
I1118 17:26:59.555915  6055 net.cpp:381] pool5 <- conv5
I1118 17:26:59.555920  6055 net.cpp:339] pool5 -> pool5
I1118 17:26:59.555927  6055 net.cpp:113] Setting up pool5
I1118 17:26:59.555943  6055 net.cpp:120] Top shape: 50 384 6 6 (691200)
I1118 17:26:59.555946  6055 layer_factory.hpp:74] Creating layer fc6
I1118 17:26:59.555953  6055 net.cpp:84] Creating Layer fc6
I1118 17:26:59.555956  6055 net.cpp:381] fc6 <- pool5
I1118 17:26:59.555960  6055 net.cpp:339] fc6 -> fc6
I1118 17:26:59.555969  6055 net.cpp:113] Setting up fc6
I1118 17:26:59.995167  6055 net.cpp:120] Top shape: 50 4096 (204800)
I1118 17:26:59.995185  6055 layer_factory.hpp:74] Creating layer relu6
I1118 17:26:59.995194  6055 net.cpp:84] Creating Layer relu6
I1118 17:26:59.995198  6055 net.cpp:381] relu6 <- fc6
I1118 17:26:59.995204  6055 net.cpp:328] relu6 -> fc6 (in-place)
I1118 17:26:59.995213  6055 net.cpp:113] Setting up relu6
I1118 17:26:59.995218  6055 net.cpp:120] Top shape: 50 4096 (204800)
I1118 17:26:59.995221  6055 layer_factory.hpp:74] Creating layer drop6
I1118 17:26:59.995228  6055 net.cpp:84] Creating Layer drop6
I1118 17:26:59.995242  6055 net.cpp:381] drop6 <- fc6
I1118 17:26:59.995255  6055 net.cpp:328] drop6 -> fc6 (in-place)
I1118 17:26:59.995271  6055 net.cpp:113] Setting up drop6
I1118 17:26:59.995290  6055 net.cpp:120] Top shape: 50 4096 (204800)
I1118 17:26:59.995302  6055 layer_factory.hpp:74] Creating layer fc7
I1118 17:26:59.995317  6055 net.cpp:84] Creating Layer fc7
I1118 17:26:59.995328  6055 net.cpp:381] fc7 <- fc6
I1118 17:26:59.995342  6055 net.cpp:339] fc7 -> fc7
I1118 17:26:59.995358  6055 net.cpp:113] Setting up fc7
I1118 17:27:00.125654  6055 net.cpp:120] Top shape: 50 4096 (204800)
I1118 17:27:00.125674  6055 layer_factory.hpp:74] Creating layer relu7
I1118 17:27:00.125682  6055 net.cpp:84] Creating Layer relu7
I1118 17:27:00.125687  6055 net.cpp:381] relu7 <- fc7
I1118 17:27:00.125694  6055 net.cpp:328] relu7 -> fc7 (in-place)
I1118 17:27:00.125699  6055 net.cpp:113] Setting up relu7
I1118 17:27:00.125705  6055 net.cpp:120] Top shape: 50 4096 (204800)
I1118 17:27:00.125708  6055 layer_factory.hpp:74] Creating layer drop7
I1118 17:27:00.125715  6055 net.cpp:84] Creating Layer drop7
I1118 17:27:00.125730  6055 net.cpp:381] drop7 <- fc7
I1118 17:27:00.125744  6055 net.cpp:328] drop7 -> fc7 (in-place)
I1118 17:27:00.125758  6055 net.cpp:113] Setting up drop7
I1118 17:27:00.125774  6055 net.cpp:120] Top shape: 50 4096 (204800)
I1118 17:27:00.125785  6055 layer_factory.hpp:74] Creating layer loss
I1118 17:27:02.501519  6055 net.cpp:84] Creating Layer loss
I1118 17:27:02.501546  6055 net.cpp:381] loss <- fc7
I1118 17:27:02.501561  6055 net.cpp:381] loss <- train_label
I1118 17:27:02.501571  6055 net.cpp:381] loss <- label
I1118 17:27:02.501587  6055 net.cpp:339] loss -> loss
I1118 17:27:02.501667  6055 net.cpp:113] Setting up loss
I1118 17:27:02.501744  6055 net.cpp:120] Top shape: 1 (1)
I1118 17:27:02.501754  6055 net.cpp:122]     with loss weight 1
I1118 17:27:02.501794  6055 net.cpp:167] loss needs backward computation.
I1118 17:27:02.501806  6055 net.cpp:167] drop7 needs backward computation.
I1118 17:27:02.501813  6055 net.cpp:167] relu7 needs backward computation.
I1118 17:27:02.501821  6055 net.cpp:167] fc7 needs backward computation.
I1118 17:27:02.501828  6055 net.cpp:167] drop6 needs backward computation.
…
