…
I0927 18:58:37.381747  1548 net.cpp:258] The NetState phase (0) differed from the phase (1) specified by a rule in layer reshape-label
I0927 18:58:37.381753  1548 net.cpp:258] The NetState phase (0) differed from the phase (1) specified by a rule in layer reshape-cm
I0927 18:58:37.382341  1548 net.cpp:42] Initializing net from parameters: 
name: "lstm_joints"
state {
  phase: TRAIN
}
layer {
  name: "data"
  type: "Python"
  top: "data"
  top: "label"
  top: "clip_markers"
  include {
    phase: TRAIN
  }
  python_param {
    module: "sequence_input_layer"
    layer: "videoReadTrain_RGB"
  }
}
layer {
  name: "conv1"
  type: "Convolution"
  bottom: "data"
  top: "conv1"
  param {
    lr_mult: 1
    decay_mult: 1
  }
  param {
    lr_mult: 2
    decay_mult: 0
  }
  convolution_param {
    num_output: 96
    kernel_size: 7
    stride: 2
    weight_filler {
      type: "gaussian"
      std: 0.01
    }
    bias_filler {
      type: "constant"
      value: 0.1
    }
  }
}
layer {
  name: "relu1"
  type: "ReLU"
  bottom: "conv1"
  top: "conv1"
}
layer {
  name: "pool1"
  type: "Pooling"
  bottom: "conv1"
  top: "pool1"
  pooling_param {
    pool: MAX
    kernel_size: 3
    stride: 2
  }
}
layer {
  name: "norm1"
  type: "LRN"
  bottom: "pool1"
  top: "norm1"
  lrn_param {
    local_size: 5
    alpha: 0.0001
    beta: 0.75
  }
}
layer {
  name: "conv2"
  type: "Convolution"
  bottom: "norm1"
  top: "conv2"
  param {
    lr_mult: 1
    decay_mult: 1
  }
  param {
    lr_mult: 2
    decay_mult: 0
  }
  convolution_param {
    num_output: 384
    kernel_size: 5
    group: 2
    stride: 2
    weight_filler {
      type: "gaussian"
      std: 0.01
    }
    bias_filler {
      type: "constant"
      value: 0.1
    }
  }
}
layer {
  name: "relu2"
  type: "ReLU"
  bottom: "conv2"
  top: "conv2"
}
layer {
  name: "pool2"
  type: "Pooling"
  bottom: "conv2"
  top: "pool2"
  pooling_param {
    pool: MAX
    kernel_size: 3
    stride: 2
  }
}
layer {
  name: "norm2"
  type: "LRN"
  bottom: "pool2"
  top: "norm2"
  lrn_param {
    local_size: 5
    alpha: 0.0001
    beta: 0.75
  }
}
layer {
  name: "conv3"
  type: "Convolution"
  bottom: "norm2"
  top: "conv3"
  param {
    lr_mult: 1
    decay_mult: 1
  }
  param {
    lr_mult: 2
    decay_mult: 0
  }
  convolution_param {
    num_output: 512
    pad: 1
    kernel_size: 3
    weight_filler {
      type: "gaussian"
      std: 0.01
    }
    bias_filler {
      type: "constant"
      value: 0.1
    }
  }
}
layer {
  name: "relu3"
  type: "ReLU"
  bottom: "conv3"
  top: "conv3"
}
layer {
  name: "conv4"
  type: "Convolution"
  bottom: "conv3"
  top: "conv4"
  param {
    lr_mult: 1
    decay_mult: 1
  }
  param {
    lr_mult: 2
    decay_mult: 0
  }
  convolution_param {
    num_output: 512
    pad: 1
    kernel_size: 3
    group: 2
    weight_filler {
      type: "gaussian"
      std: 0.01
    }
    bias_filler {
      type: "constant"
      value: 0.1
    }
  }
}
layer {
  name: "relu4"
  type: "ReLU"
  bottom: "conv4"
  top: "conv4"
}
layer {
  name: "conv5"
  type: "Convolution"
  bottom: "conv4"
  top: "conv5"
  param {
    lr_mult: 1
    decay_mult: 1
  }
  param {
    lr_mult: 2
    decay_mult: 0
  }
  convolution_param {
    num_output: 384
    pad: 1
    kernel_size: 3
    group: 2
    weight_filler {
      type: "gaussian"
      std: 0.01
    }
    bias_filler {
      type: "constant"
      value: 0.1
    }
  }
}
layer {
  name: "relu5"
  type: "ReLU"
  bottom: "conv5"
  top: "conv5"
}
layer {
  name: "pool5"
  type: "Pooling"
  bottom: "conv5"
  top: "pool5"
  pooling_param {
    pool: MAX
    kernel_size: 3
    stride: 2
  }
}
layer {
  name: "fc6"
  type: "InnerProduct"
  bottom: "pool5"
  top: "fc6"
  param {
    lr_mult: 1
    decay_mult: 1
  }
  param {
    lr_mult: 2
    decay_mult: 0
  }
  inner_product_param {
    num_output: 4096
    weight_filler {
      type: "gaussian"
      std: 0.01
    }
    bias_filler {
      type: "constant"
      value: 0.1
    }
  }
}
layer {
  name: "relu6"
  type: "ReLU"
  bottom: "fc6"
  top: "fc6"
}
layer {
  name: "drop6"
  type: "Dropout"
  bottom: "fc6"
  top: "fc6"
  dropout_param {
    dropout_ratio: 0.9
  }
}
layer {
  name: "reshape-data"
  type: "Reshape"
  bottom: "fc6"
  top: "fc6-reshape"
  include {
    phase: TRAIN
  }
  reshape_param {
    shape {
      dim: 16
      dim: 10
      dim: 4096
    }
  }
}
layer {
  name: "reshape-label"
  type: "Reshape"
  bottom: "label"
  top: "reshape-label"
  include {
    phase: TRAIN
  }
  reshape_param {
    shape {
      dim: 16
      dim: 10
    }
  }
}
layer {
  name: "reshape-cm"
  type: "Reshape"
  bottom: "clip_markers"
  top: "reshape-cm"
  include {
    phase: TRAIN
  }
  reshape_param {
    shape {
      dim: 16
      dim: 10
    }
  }
}
layer {
  name: "lstm1"
  type: "LSTM"
  bottom: "fc6-reshape"
  bottom: "reshape-cm"
  top: "lstm1"
  recurrent_param {
    num_output: 256
    weight_filler {
      type: "uniform"
      min: -0.01
      max: 0.01
    }
    bias_filler {
      type: "constant"
      value: 0
    }
  }
}
layer {
  name: "lstm1-drop"
  type: "Dropout"
  bottom: "lstm1"
  top: "lstm1-drop"
  dropout_param {
    dropout_ratio: 0.5
  }
}
layer {
  name: "triplet_lstm"
  type: "Python"
  bottom: "lstm1-drop"
  bottom: "reshape-label"
  top: "anchor-lstm"
  top: "positive-lstm"
  top: "negative-lstm"
  python_param {
    module: "mylayers"
    layer: "TripletLSTMLayer"
  }
}
layer {
  name: "loss"
  type: "Python"
  bottom: "anchor-lstm"
  bottom: "positive-lstm"
  bottom: "negative-lstm"
  top: "loss"
  loss_weight: 1
  python_param {
    module: "mylayers"
    layer: "TripletLossLayer"
  }
}
I0927 18:58:37.382632  1548 layer_factory.hpp:74] Creating layer data
I0927 18:58:40.117636  1548 net.cpp:84] Creating Layer data
I0927 18:58:40.117683  1548 net.cpp:339] data -> data
I0927 18:58:40.117719  1548 net.cpp:339] data -> label
I0927 18:58:40.117741  1548 net.cpp:339] data -> clip_markers
I0927 18:58:40.117756  1548 net.cpp:113] Setting up data
I0927 18:58:44.049989  1548 net.cpp:120] Top shape: 160 3 227 227 (24733920)
I0927 18:58:44.050041  1548 net.cpp:120] Top shape: 160 (160)
I0927 18:58:44.050051  1548 net.cpp:120] Top shape: 160 (160)
I0927 18:58:44.050074  1548 layer_factory.hpp:74] Creating layer conv1
I0927 18:58:44.050148  1548 net.cpp:84] Creating Layer conv1
I0927 18:58:44.050164  1548 net.cpp:381] conv1 <- data
I0927 18:58:44.050227  1548 net.cpp:339] conv1 -> conv1
I0927 18:58:44.050257  1548 net.cpp:113] Setting up conv1
I0927 18:58:44.050854  1548 net.cpp:120] Top shape: 160 96 111 111 (189250560)
I0927 18:58:44.050894  1548 layer_factory.hpp:74] Creating layer relu1
I0927 18:58:44.050925  1548 net.cpp:84] Creating Layer relu1
I0927 18:58:44.050935  1548 net.cpp:381] relu1 <- conv1
I0927 18:58:44.050946  1548 net.cpp:328] relu1 -> conv1 (in-place)
I0927 18:58:44.050957  1548 net.cpp:113] Setting up relu1
I0927 18:58:44.050969  1548 net.cpp:120] Top shape: 160 96 111 111 (189250560)
I0927 18:58:44.050984  1548 layer_factory.hpp:74] Creating layer pool1
I0927 18:58:44.050997  1548 net.cpp:84] Creating Layer pool1
I0927 18:58:44.051005  1548 net.cpp:381] pool1 <- conv1
I0927 18:58:44.051014  1548 net.cpp:339] pool1 -> pool1
I0927 18:58:44.051029  1548 net.cpp:113] Setting up pool1
I0927 18:58:44.051062  1548 net.cpp:120] Top shape: 160 96 55 55 (46464000)
I0927 18:58:44.051081  1548 layer_factory.hpp:74] Creating layer norm1
I0927 18:58:44.051102  1548 net.cpp:84] Creating Layer norm1
I0927 18:58:44.051110  1548 net.cpp:381] norm1 <- pool1
I0927 18:58:44.051118  1548 net.cpp:339] norm1 -> norm1
I0927 18:58:44.051146  1548 net.cpp:113] Setting up norm1
I0927 18:58:44.051162  1548 net.cpp:120] Top shape: 160 96 55 55 (46464000)
I0927 18:58:44.051169  1548 layer_factory.hpp:74] Creating layer conv2
I0927 18:58:44.051187  1548 net.cpp:84] Creating Layer conv2
I0927 18:58:44.051194  1548 net.cpp:381] conv2 <- norm1
I0927 18:58:44.051209  1548 net.cpp:339] conv2 -> conv2
I0927 18:58:44.051224  1548 net.cpp:113] Setting up conv2
I0927 18:58:44.063995  1548 net.cpp:120] Top shape: 160 384 26 26 (41533440)
I0927 18:58:44.064021  1548 layer_factory.hpp:74] Creating layer relu2
I0927 18:58:44.064041  1548 net.cpp:84] Creating Layer relu2
I0927 18:58:44.064050  1548 net.cpp:381] relu2 <- conv2
I0927 18:58:44.064059  1548 net.cpp:328] relu2 -> conv2 (in-place)
I0927 18:58:44.064072  1548 net.cpp:113] Setting up relu2
I0927 18:58:44.064082  1548 net.cpp:120] Top shape: 160 384 26 26 (41533440)
I0927 18:58:44.064090  1548 layer_factory.hpp:74] Creating layer pool2
I0927 18:58:44.064100  1548 net.cpp:84] Creating Layer pool2
I0927 18:58:44.064107  1548 net.cpp:381] pool2 <- conv2
I0927 18:58:44.064116  1548 net.cpp:339] pool2 -> pool2
I0927 18:58:44.064128  1548 net.cpp:113] Setting up pool2
I0927 18:58:44.064143  1548 net.cpp:120] Top shape: 160 384 13 13 (10383360)
I0927 18:58:44.064152  1548 layer_factory.hpp:74] Creating layer norm2
I0927 18:58:44.064170  1548 net.cpp:84] Creating Layer norm2
I0927 18:58:44.064179  1548 net.cpp:381] norm2 <- pool2
I0927 18:58:44.064188  1548 net.cpp:339] norm2 -> norm2
I0927 18:58:44.064200  1548 net.cpp:113] Setting up norm2
I0927 18:58:44.064214  1548 net.cpp:120] Top shape: 160 384 13 13 (10383360)
I0927 18:58:44.064229  1548 layer_factory.hpp:74] Creating layer conv3
I0927 18:58:44.064249  1548 net.cpp:84] Creating Layer conv3
I0927 18:58:44.064260  1548 net.cpp:381] conv3 <- norm2
I0927 18:58:44.064275  1548 net.cpp:339] conv3 -> conv3
I0927 18:58:44.064288  1548 net.cpp:113] Setting up conv3
I0927 18:58:44.102483  1548 net.cpp:120] Top shape: 160 512 13 13 (13844480)
I0927 18:58:44.102504  1548 layer_factory.hpp:74] Creating layer relu3
I0927 18:58:44.102512  1548 net.cpp:84] Creating Layer relu3
I0927 18:58:44.102517  1548 net.cpp:381] relu3 <- conv3
I0927 18:58:44.102525  1548 net.cpp:328] relu3 -> conv3 (in-place)
I0927 18:58:44.102533  1548 net.cpp:113] Setting up relu3
I0927 18:58:44.102540  1548 net.cpp:120] Top shape: 160 512 13 13 (13844480)
I0927 18:58:44.102545  1548 layer_factory.hpp:74] Creating layer conv4
I0927 18:58:44.102560  1548 net.cpp:84] Creating Layer conv4
I0927 18:58:44.102566  1548 net.cpp:381] conv4 <- conv3
I0927 18:58:44.102573  1548 net.cpp:339] conv4 -> conv4
I0927 18:58:44.102581  1548 net.cpp:113] Setting up conv4
I0927 18:58:44.129191  1548 net.cpp:120] Top shape: 160 512 13 13 (13844480)
I0927 18:58:44.129209  1548 layer_factory.hpp:74] Creating layer relu4
I0927 18:58:44.129217  1548 net.cpp:84] Creating Layer relu4
I0927 18:58:44.129222  1548 net.cpp:381] relu4 <- conv4
I0927 18:58:44.129232  1548 net.cpp:328] relu4 -> conv4 (in-place)
I0927 18:58:44.129240  1548 net.cpp:113] Setting up relu4
I0927 18:58:44.129247  1548 net.cpp:120] Top shape: 160 512 13 13 (13844480)
I0927 18:58:44.129261  1548 layer_factory.hpp:74] Creating layer conv5
I0927 18:58:44.129281  1548 net.cpp:84] Creating Layer conv5
I0927 18:58:44.129287  1548 net.cpp:381] conv5 <- conv4
I0927 18:58:44.129298  1548 net.cpp:339] conv5 -> conv5
I0927 18:58:44.129308  1548 net.cpp:113] Setting up conv5
I0927 18:58:44.149016  1548 net.cpp:120] Top shape: 160 384 13 13 (10383360)
I0927 18:58:44.149034  1548 layer_factory.hpp:74] Creating layer relu5
I0927 18:58:44.149046  1548 net.cpp:84] Creating Layer relu5
I0927 18:58:44.149050  1548 net.cpp:381] relu5 <- conv5
I0927 18:58:44.149057  1548 net.cpp:328] relu5 -> conv5 (in-place)
I0927 18:58:44.149065  1548 net.cpp:113] Setting up relu5
I0927 18:58:44.149071  1548 net.cpp:120] Top shape: 160 384 13 13 (10383360)
I0927 18:58:44.149076  1548 layer_factory.hpp:74] Creating layer pool5
I0927 18:58:44.149085  1548 net.cpp:84] Creating Layer pool5
I0927 18:58:44.149090  1548 net.cpp:381] pool5 <- conv5
I0927 18:58:44.149098  1548 net.cpp:339] pool5 -> pool5
I0927 18:58:44.149106  1548 net.cpp:113] Setting up pool5
I0927 18:58:44.149119  1548 net.cpp:120] Top shape: 160 384 6 6 (2211840)
I0927 18:58:44.149125  1548 layer_factory.hpp:74] Creating layer fc6
I0927 18:58:44.149148  1548 net.cpp:84] Creating Layer fc6
I0927 18:58:44.149157  1548 net.cpp:381] fc6 <- pool5
I0927 18:58:44.149168  1548 net.cpp:339] fc6 -> fc6
I0927 18:58:44.149185  1548 net.cpp:113] Setting up fc6
I0927 18:58:45.355618  1548 net.cpp:120] Top shape: 160 4096 (655360)
I0927 18:58:45.355656  1548 layer_factory.hpp:74] Creating layer relu6
I0927 18:58:45.355675  1548 net.cpp:84] Creating Layer relu6
I0927 18:58:45.355681  1548 net.cpp:381] relu6 <- fc6
I0927 18:58:45.355691  1548 net.cpp:328] relu6 -> fc6 (in-place)
I0927 18:58:45.355701  1548 net.cpp:113] Setting up relu6
I0927 18:58:45.355710  1548 net.cpp:120] Top shape: 160 4096 (655360)
I0927 18:58:45.355726  1548 layer_factory.hpp:74] Creating layer drop6
I0927 18:58:45.355749  1548 net.cpp:84] Creating Layer drop6
I0927 18:58:45.355756  1548 net.cpp:381] drop6 <- fc6
I0927 18:58:45.355763  1548 net.cpp:328] drop6 -> fc6 (in-place)
I0927 18:58:45.355780  1548 net.cpp:113] Setting up drop6
I0927 18:58:45.355795  1548 net.cpp:120] Top shape: 160 4096 (655360)
I0927 18:58:45.355801  1548 layer_factory.hpp:74] Creating layer reshape-data
I0927 18:58:45.355813  1548 net.cpp:84] Creating Layer reshape-data
I0927 18:58:45.355819  1548 net.cpp:381] reshape-data <- fc6
I0927 18:58:45.355828  1548 net.cpp:339] reshape-data -> fc6-reshape
I0927 18:58:45.355845  1548 net.cpp:113] Setting up reshape-data
I0927 18:58:45.355865  1548 net.cpp:120] Top shape: 16 10 4096 (655360)
I0927 18:58:45.355871  1548 layer_factory.hpp:74] Creating layer reshape-label
I0927 18:58:45.355901  1548 net.cpp:84] Creating Layer reshape-label
I0927 18:58:45.355908  1548 net.cpp:381] reshape-label <- label
I0927 18:58:45.355918  1548 net.cpp:339] reshape-label -> reshape-label
I0927 18:58:45.355927  1548 net.cpp:113] Setting up reshape-label
I0927 18:58:45.355937  1548 net.cpp:120] Top shape: 16 10 (160)
I0927 18:58:45.355942  1548 layer_factory.hpp:74] Creating layer reshape-cm
I0927 18:58:45.355952  1548 net.cpp:84] Creating Layer reshape-cm
I0927 18:58:45.355958  1548 net.cpp:381] reshape-cm <- clip_markers
I0927 18:58:45.355967  1548 net.cpp:339] reshape-cm -> reshape-cm
I0927 18:58:45.355979  1548 net.cpp:113] Setting up reshape-cm
I0927 18:58:45.355988  1548 net.cpp:120] Top shape: 16 10 (160)
I0927 18:58:45.355993  1548 layer_factory.hpp:74] Creating layer lstm1
I0927 18:58:45.356015  1548 net.cpp:84] Creating Layer lstm1
I0927 18:58:45.356024  1548 net.cpp:381] lstm1 <- fc6-reshape
I0927 18:58:45.356030  1548 net.cpp:381] lstm1 <- reshape-cm
I0927 18:58:45.356039  1548 net.cpp:339] lstm1 -> lstm1
I0927 18:58:45.356051  1548 net.cpp:113] Setting up lstm1
I0927 18:58:45.356062  1548 recurrent_layer.cpp:27] Initializing recurrent layer: assuming input batch contains 16 timesteps of 10 independent streams.
I0927 18:58:45.357671  1548 net.cpp:42] Initializing net from parameters: 
input: "x"
input: "cont"
input: "c_0"
input: "h_0"
force_backward: true
input_shape {
  dim: 16
  dim: 10
  dim: 4096
}
input_shape {
  dim: 1
  dim: 16
  dim: 10
}
input_shape {
  dim: 1
  dim: 10
  dim: 256
}
input_shape {
  dim: 1
  dim: 10
  dim: 256
}
layer {
  name: "lstm1_cont_slice"
  type: "Slice"
  bottom: "cont"
  top: "cont_1"
  top: "cont_2"
  top: "cont_3"
  top: "cont_4"
  top: "cont_5"
  top: "cont_6"
  top: "cont_7"
  top: "cont_8"
  top: "cont_9"
  top: "cont_10"
  top: "cont_11"
  top: "cont_12"
  top: "cont_13"
  top: "cont_14"
  top: "cont_15"
  top: "cont_16"
  slice_param {
    axis: 1
  }
}
layer {
  name: "lstm1_x_transform"
  type: "InnerProduct"
  bottom: "x"
  top: "W_xc_x"
  param {
    name: "W_xc"
  }
  param {
    name: "b_c"
  }
  inner_product_param {
    num_output: 1024
    bias_term: true
    weight_filler {
      type: "uniform"
      min: -0.01
      max: 0.01
    }
    bias_filler {
      type: "constant"
      value: 0
    }
    axis: 2
  }
}
layer {
  name: "lstm1_W_xc_x_slice"
  type: "Slice"
  bottom: "W_xc_x"
  top: "W_xc_x_1"
  top: "W_xc_x_2"
  top: "W_xc_x_3"
  top: "W_xc_x_4"
  top: "W_xc_x_5"
  top: "W_xc_x_6"
  top: "W_xc_x_7"
  top: "W_xc_x_8"
  top: "W_xc_x_9"
  top: "W_xc_x_10"
  top: "W_xc_x_11"
  top: "W_xc_x_12"
  top: "W_xc_x_13"
  top: "W_xc_x_14"
  top: "W_xc_x_15"
  top: "W_xc_x_16"
  slice_param {
    axis: 0
  }
}
layer {
  name: "lstm1_h_conted_0"
  type: "Eltwise"
  bottom: "h_0"
  bottom: "cont_1"
  top: "h_conted_0"
  eltwise_param {
    operation: SUM
    coeff_blob: true
  }
}
layer {
  name: "lstm1_transform_1"
  type: "InnerProduct"
  bottom: "h_conted_0"
  top: "W_hc_h_0"
  param {
    name: "W_hc"
  }
  inner_product_param {
    num_output: 1024
    bias_term: false
    weight_filler {
      type: "uniform"
      min: -0.01
      max: 0.01
    }
    axis: 2
  }
}
layer {
  name: "lstm1_gate_input_1"
  type: "Eltwise"
  bottom: "W_hc_h_0"
  bottom: "W_xc_x_1"
  top: "gate_input_1"
  eltwise_param {
    operation: SUM
  }
}
layer {
  name: "lstm1_unit_1"
  type: "LSTMUnit"
  bottom: "c_0"
  bottom: "gate_input_1"
  bottom: "cont_1"
  top: "c_1"
  top: "h_1"
}
layer {
  name: "lstm1_h_conted_1"
  type: "Eltwise"
  bottom: "h_1"
  bottom: "cont_2"
  top: "h_conted_1"
  eltwise_param {
    operation: SUM
    coeff_blob: true
  }
}
layer {
  name: "lstm1_transform_2"
  type: "InnerProduct"
  bottom: "h_conted_1"
  top: "W_hc_h_1"
  param {
    name: "W_hc"
  }
  inner_product_param {
    num_output: 1024
    bias_term: false
    weight_filler {
      type: "uniform"
      min: -0.01
      max: 0.01
    }
    axis: 2
  }
}
layer {
  name: "lstm1_gate_input_2"
  type: "Eltwise"
  bottom: "W_hc_h_1"
  bottom: "W_xc_x_2"
  top: "gate_input_2"
  eltwise_param {
    operation: SUM
  }
}
layer {
  name: "lstm1_unit_2"
  type: "LSTMUnit"
  bottom: "c_1"
  bottom: "gate_input_2"
  bottom: "cont_2"
  top: "c_2"
  top: "h_2"
}
layer {
  name: "lstm1_h_conted_2"
  type: "Eltwise"
  bottom: "h_2"
  bottom: "cont_3"
  top: "h_conted_2"
  eltwise_param {
    operation: SUM
    coeff_blob: true
  }
}
layer {
  name: "lstm1_transform_3"
  type: "InnerProduct"
  bottom: "h_conted_2"
  top: "W_hc_h_2"
  param {
    name: "W_hc"
  }
  inner_product_param {
    num_output: 1024
    bias_term: false
    weight_filler {
      type: "uniform"
      min: -0.01
      max: 0.01
    }
    axis: 2
  }
}
layer {
  name: "lstm1_gate_input_3"
  type: "Eltwise"
  bottom: "W_hc_h_2"
  bottom: "W_xc_x_3"
  top: "gate_input_3"
  eltwise_param {
    operation: SUM
  }
}
layer {
  name: "lstm1_unit_3"
  type: "LSTMUnit"
  bottom: "c_2"
  bottom: "gate_input_3"
  bottom: "cont_3"
  top: "c_3"
  top: "h_3"
}
layer {
  name: "lstm1_h_conted_3"
  type: "Eltwise"
  bottom: "h_3"
  bottom: "cont_4"
  top: "h_conted_3"
  eltwise_param {
    operation: SUM
    coeff_blob: true
  }
}
layer {
  name: "lstm1_transform_4"
  type: "InnerProduct"
  bottom: "h_conted_3"
  top: "W_hc_h_3"
  param {
    name: "W_hc"
  }
  inner_product_param {
    num_output: 1024
    bias_term: false
    weight_filler {
      type: "uniform"
      min: -0.01
      max: 0.01
    }
    axis: 2
  }
}
layer {
  name: "lstm1_gate_input_4"
  type: "Eltwise"
  bottom: "W_hc_h_3"
  bottom: "W_xc_x_4"
  top: "gate_input_4"
  eltwise_param {
    operation: SUM
  }
}
layer {
  name: "lstm1_unit_4"
  type: "LSTMUnit"
  bottom: "c_3"
  bottom: "gate_input_4"
  bottom: "cont_4"
  top: "c_4"
  top: "h_4"
}
layer {
  name: "lstm1_h_conted_4"
  type: "Eltwise"
  bottom: "h_4"
  bottom: "cont_5"
  top: "h_conted_4"
  eltwise_param {
    operation: SUM
    coeff_blob: true
  }
}
layer {
  name: "lstm1_transform_5"
  type: "InnerProduct"
  bottom: "h_conted_4"
  top: "W_hc_h_4"
  param {
    name: "W_hc"
  }
  inner_product_param {
    num_output: 1024
    bias_term: false
    weight_filler {
      type: "uniform"
      min: -0.01
      max: 0.01
    }
    axis: 2
  }
}
layer {
  name: "lstm1_gate_input_5"
  type: "Eltwise"
  bottom: "W_hc_h_4"
  bottom: "W_xc_x_5"
  top: "gate_input_5"
  eltwise_param {
    operation: SUM
  }
}
layer {
  name: "lstm1_unit_5"
  type: "LSTMUnit"
  bottom: "c_4"
  bottom: "gate_input_5"
  bottom: "cont_5"
  top: "c_5"
  top: "h_5"
}
layer {
  name: "lstm1_h_conted_5"
  type: "Eltwise"
  bottom: "h_5"
  bottom: "cont_6"
  top: "h_conted_5"
  eltwise_param {
    operation: SUM
    coeff_blob: true
  }
}
layer {
  name: "lstm1_transform_6"
  type: "InnerProduct"
  bottom: "h_conted_5"
  top: "W_hc_h_5"
  param {
    name: "W_hc"
  }
  inner_product_param {
    num_output: 1024
    bias_term: false
    weight_filler {
      type: "uniform"
      min: -0.01
      max: 0.01
    }
    axis: 2
  }
}
layer {
  name: "lstm1_gate_input_6"
  type: "Eltwise"
  bottom: "W_hc_h_5"
  bottom: "W_xc_x_6"
  top: "gate_input_6"
  eltwise_param {
    operation: SUM
  }
}
layer {
  name: "lstm1_unit_6"
  type: "LSTMUnit"
  bottom: "c_5"
  bottom: "gate_input_6"
  bottom: "cont_6"
  top: "c_6"
  top: "h_6"
}
layer {
  name: "lstm1_h_conted_6"
  type: "Eltwise"
  bottom: "h_6"
  bottom: "cont_7"
  top: "h_conted_6"
  eltwise_param {
    operation: SUM
    coeff_blob: true
  }
}
layer {
  name: "lstm1_transform_7"
  type: "InnerProduct"
  bottom: "h_conted_6"
  top: "W_hc_h_6"
  param {
    name: "W_hc"
  }
  inner_product_param {
    num_output: 1024
    bias_term: false
    weight_filler {
      type: "uniform"
      min: -0.01
      max: 0.01
    }
    axis: 2
  }
}
layer {
  name: "lstm1_gate_input_7"
  type: "Eltwise"
  bottom: "W_hc_h_6"
  bottom: "W_xc_x_7"
  top: "gate_input_7"
  eltwise_param {
    operation: SUM
  }
}
layer {
  name: "lstm1_unit_7"
  type: "LSTMUnit"
  bottom: "c_6"
  bottom: "gate_input_7"
  bottom: "cont_7"
  top: "c_7"
  top: "h_7"
}
layer {
  name: "lstm1_h_conted_7"
  type: "Eltwise"
  bottom: "h_7"
  bottom: "cont_8"
  top: "h_conted_7"
  eltwise_param {
    operation: SUM
    coeff_blob: true
  }
}
layer {
  name: "lstm1_transform_8"
  type: "InnerProduct"
  bottom: "h_conted_7"
  top: "W_hc_h_7"
  param {
    name: "W_hc"
  }
  inner_product_param {
    num_output: 1024
    bias_term: false
    weight_filler {
      type: "uniform"
      min: -0.01
      max: 0.01
    }
    axis: 2
  }
}
layer {
  name: "lstm1_gate_input_8"
  type: "Eltwise"
  bottom: "W_hc_h_7"
  bottom: "W_xc_x_8"
  top: "gate_input_8"
  eltwise_param {
    operation: SUM
  }
}
layer {
  name: "lstm1_unit_8"
  type: "LSTMUnit"
  bottom: "c_7"
  bottom: "gate_input_8"
  bottom: "cont_8"
  top: "c_8"
  top: "h_8"
}
layer {
  name: "lstm1_h_conted_8"
  type: "Eltwise"
  bottom: "h_8"
  bottom: "cont_9"
  top: "h_conted_8"
  eltwise_param {
    operation: SUM
    coeff_blob: true
  }
}
layer {
  name: "lstm1_transform_9"
  type: "InnerProduct"
  bottom: "h_conted_8"
  top: "W_hc_h_8"
  param {
    name: "W_hc"
  }
  inner_product_param {
    num_output: 1024
    bias_term: false
    weight_filler {
      type: "uniform"
      min: -0.01
      max: 0.01
    }
    axis: 2
  }
}
layer {
  name: "lstm1_gate_input_9"
  type: "Eltwise"
  bottom: "W_hc_h_8"
  bottom: "W_xc_x_9"
  top: "gate_input_9"
  eltwise_param {
    operation: SUM
  }
}
layer {
  name: "lstm1_unit_9"
  type: "LSTMUnit"
  bottom: "c_8"
  bottom: "gate_input_9"
  bottom: "cont_9"
  top: "c_9"
  top: "h_9"
}
layer {
  name: "lstm1_h_conted_9"
  type: "Eltwise"
  bottom: "h_9"
  bottom: "cont_10"
  top: "h_conted_9"
  eltwise_param {
    operation: SUM
    coeff_blob: true
  }
}
layer {
  name: "lstm1_transform_10"
  type: "InnerProduct"
  bottom: "h_conted_9"
  top: "W_hc_h_9"
  param {
    name: "W_hc"
  }
  inner_product_param {
    num_output: 1024
    bias_term: false
    weight_filler {
      type: "uniform"
      min: -0.01
      max: 0.01
    }
    axis: 2
  }
}
layer {
  name: "lstm1_gate_input_10"
  type: "Eltwise"
  bottom: "W_hc_h_9"
  bottom: "W_xc_x_10"
  top: "gate_input_10"
  eltwise_param {
    operation: SUM
  }
}
layer {
  name: "lstm1_unit_10"
  type: "LSTMUnit"
  bottom: "c_9"
  bottom: "gate_input_10"
  bottom: "cont_10"
  top: "c_10"
  top: "h_10"
}
layer {
  name: "lstm1_h_conted_10"
  type: "Eltwise"
  bottom: "h_10"
  bottom: "cont_11"
  top: "h_conted_10"
  eltwise_param {
    operation: SUM
    coeff_blob: true
  }
}
layer {
  name: "lstm1_transform_11"
  type: "InnerProduct"
  bottom: "h_conted_10"
  top: "W_hc_h_10"
  param {
    name: "W_hc"
  }
  inner_product_param {
    num_output: 1024
    bias_term: false
    weight_filler {
      type: "uniform"
      min: -0.01
      max: 0.01
    }
    axis: 2
  }
}
layer {
  name: "lstm1_gate_input_11"
  type: "Eltwise"
  bottom: "W_hc_h_10"
  bottom: "W_xc_x_11"
  top: "gate_input_11"
  eltwise_param {
    operation: SUM
  }
}
layer {
  name: "lstm1_unit_11"
  type: "LSTMUnit"
  bottom: "c_10"
  bottom: "gate_input_11"
  bottom: "cont_11"
  top: "c_11"
  top: "h_11"
}
layer {
  name: "lstm1_h_conted_11"
  type: "Eltwise"
  bottom: "h_11"
  bottom: "cont_12"
  top: "h_conted_11"
  eltwise_param {
    operation: SUM
    coeff_blob: true
  }
}
layer {
  name: "lstm1_transform_12"
  type: "InnerProduct"
  bottom: "h_conted_11"
  top: "W_hc_h_11"
  param {
    name: "W_hc"
  }
  inner_product_param {
    num_output: 1024
    bias_term: false
    weight_filler {
      type: "uniform"
      min: -0.01
      max: 0.01
    }
    axis: 2
  }
}
layer {
  name: "lstm1_gate_input_12"
  type: "Eltwise"
  bottom: "W_hc_h_11"
  bottom: "W_xc_x_12"
  top: "gate_input_12"
  eltwise_param {
    operation: SUM
  }
}
layer {
  name: "lstm1_unit_12"
  type: "LSTMUnit"
  bottom: "c_11"
  bottom: "gate_input_12"
  bottom: "cont_12"
  top: "c_12"
  top: "h_12"
}
layer {
  name: "lstm1_h_conted_12"
  type: "Eltwise"
  bottom: "h_12"
  bottom: "cont_13"
  top: "h_conted_12"
  eltwise_param {
    operation: SUM
    coeff_blob: true
  }
}
layer {
  name: "lstm1_transform_13"
  type: "InnerProduct"
  bottom: "h_conted_12"
  top: "W_hc_h_12"
  param {
    name: "W_hc"
  }
  inner_product_param {
    num_output: 1024
    bias_term: false
    weight_filler {
      type: "uniform"
      min: -0.01
      max: 0.01
    }
    axis: 2
  }
}
layer {
  name: "lstm1_gate_input_13"
  type: "Eltwise"
  bottom: "W_hc_h_12"
  bottom: "W_xc_x_13"
  top: "gate_input_13"
  eltwise_param {
    operation: SUM
  }
}
layer {
  name: "lstm1_unit_13"
  type: "LSTMUnit"
  bottom: "c_12"
  bottom: "gate_input_13"
  bottom: "cont_13"
  top: "c_13"
  top: "h_13"
}
layer {
  name: "lstm1_h_conted_13"
  type: "Eltwise"
  bottom: "h_13"
  bottom: "cont_14"
  top: "h_conted_13"
  eltwise_param {
    operation: SUM
    coeff_blob: true
  }
}
layer {
  name: "lstm1_transform_14"
  type: "InnerProduct"
  bottom: "h_conted_13"
  top: "W_hc_h_13"
  param {
    name: "W_hc"
  }
  inner_product_param {
    num_output: 1024
    bias_term: false
    weight_filler {
      type: "uniform"
      min: -0.01
      max: 0.01
    }
    axis: 2
  }
}
layer {
  name: "lstm1_gate_input_14"
  type: "Eltwise"
  bottom: "W_hc_h_13"
  bottom: "W_xc_x_14"
  top: "gate_input_14"
  eltwise_param {
    operation: SUM
  }
}
layer {
  name: "lstm1_unit_14"
  type: "LSTMUnit"
  bottom: "c_13"
  bottom: "gate_input_14"
  bottom: "cont_14"
  top: "c_14"
  top: "h_14"
}
layer {
  name: "lstm1_h_conted_14"
  type: "Eltwise"
  bottom: "h_14"
  bottom: "cont_15"
  top: "h_conted_14"
  eltwise_param {
    operation: SUM
    coeff_blob: true
  }
}
layer {
  name: "lstm1_transform_15"
  type: "InnerProduct"
  bottom: "h_conted_14"
  top: "W_hc_h_14"
  param {
    name: "W_hc"
  }
  inner_product_param {
    num_output: 1024
    bias_term: false
    weight_filler {
      type: "uniform"
      min: -0.01
      max: 0.01
    }
    axis: 2
  }
}
layer {
  name: "lstm1_gate_input_15"
  type: "Eltwise"
  bottom: "W_hc_h_14"
  bottom: "W_xc_x_15"
  top: "gate_input_15"
  eltwise_param {
    operation: SUM
  }
}
layer {
  name: "lstm1_unit_15"
  type: "LSTMUnit"
  bottom: "c_14"
  bottom: "gate_input_15"
  bottom: "cont_15"
  top: "c_15"
  top: "h_15"
}
layer {
  name: "lstm1_h_conted_15"
  type: "Eltwise"
  bottom: "h_15"
  bottom: "cont_16"
  top: "h_conted_15"
  eltwise_param {
    operation: SUM
    coeff_blob: true
  }
}
layer {
  name: "lstm1_transform_16"
  type: "InnerProduct"
  bottom: "h_conted_15"
  top: "W_hc_h_15"
  param {
    name: "W_hc"
  }
  inner_product_param {
    num_output: 1024
    bias_term: false
    weight_filler {
      type: "uniform"
      min: -0.01
      max: 0.01
    }
    axis: 2
  }
}
layer {
  name: "lstm1_gate_input_16"
  type: "Eltwise"
  bottom: "W_hc_h_15"
  bottom: "W_xc_x_16"
  top: "gate_input_16"
  eltwise_param {
    operation: SUM
  }
}
layer {
  name: "lstm1_unit_16"
  type: "LSTMUnit"
  bottom: "c_15"
  bottom: "gate_input_16"
  bottom: "cont_16"
  top: "c_16"
  top: "h_16"
}
layer {
  name: "lstm1_"
  type: "Split"
  bottom: "c_16"
  top: "c_T"
}
layer {
  name: "lstm1_h_concat"
  type: "Concat"
  bottom: "h_1"
  bottom: "h_2"
  bottom: "h_3"
  bottom: "h_4"
  bottom: "h_5"
  bottom: "h_6"
  bottom: "h_7"
  bottom: "h_8"
  bottom: "h_9"
  bottom: "h_10"
  bottom: "h_11"
  bottom: "h_12"
  bottom: "h_13"
  bottom: "h_14"
  bottom: "h_15"
  bottom: "h_16"
  top: "h"
  concat_param {
    axis: 0
  }
}
I0927 18:58:45.358515  1548 net.cpp:341] Input 0 -> x
I0927 18:58:45.358531  1548 net.cpp:341] Input 1 -> cont
I0927 18:58:45.358541  1548 net.cpp:341] Input 2 -> c_0
I0927 18:58:45.358547  1548 net.cpp:341] Input 3 -> h_0
I0927 18:58:45.358570  1548 layer_factory.hpp:74] Creating layer lstm1_cont_slice
I0927 18:58:45.358585  1548 net.cpp:84] Creating Layer lstm1_cont_slice
…
I0927 18:58:45.358678  1548 net.cpp:339] lstm1_cont_slice -> cont_9
I0927 18:58:45.358687  1548 net.cpp:339] lstm1_cont_slice -> cont_10
I0927 18:58:45.358697  1548 net.cpp:339] lstm1_cont_slice -> cont_11
I0927 18:58:45.358705  1548 net.cpp:339] lstm1_cont_slice -> cont_12
I0927 18:58:45.358714  1548 net.cpp:339] lstm1_cont_slice -> cont_13
I0927 18:58:45.358726  1548 net.cpp:339] lstm1_cont_slice -> cont_14
I0927 18:58:45.358734  1548 net.cpp:339] lstm1_cont_slice -> cont_15
I0927 18:58:45.358742  1548 net.cpp:339] lstm1_cont_slice -> cont_16
I0927 18:58:45.358750  1548 net.cpp:113] Setting up lstm1_cont_slice
I0927 18:58:45.358767  1548 net.cpp:120] Top shape: 1 1 10 (10)
I0927 18:58:45.358773  1548 net.cpp:120] Top shape: 1 1 10 (10)
I0927 18:58:45.358779  1548 net.cpp:120] Top shape: 1 1 10 (10)
I0927 18:58:45.358784  1548 net.cpp:120] Top shape: 1 1 10 (10)
I0927 18:58:45.358789  1548 net.cpp:120] Top shape: 1 1 10 (10)
I0927 18:58:45.358794  1548 net.cpp:120] Top shape: 1 1 10 (10)
I0927 18:58:45.358800  1548 net.cpp:120] Top shape: 1 1 10 (10)
I0927 18:58:45.358806  1548 net.cpp:120] Top shape: 1 1 10 (10)
I0927 18:58:45.358811  1548 net.cpp:120] Top shape: 1 1 10 (10)
I0927 18:58:45.358816  1548 net.cpp:120] Top shape: 1 1 10 (10)
I0927 18:58:45.358821  1548 net.cpp:120] Top shape: 1 1 10 (10)
I0927 18:58:45.358826  1548 net.cpp:120] Top shape: 1 1 10 (10)
I0927 18:58:45.358831  1548 net.cpp:120] Top shape: 1 1 10 (10)
I0927 18:58:45.358836  1548 net.cpp:120] Top shape: 1 1 10 (10)
I0927 18:58:45.358841  1548 net.cpp:120] Top shape: 1 1 10 (10)
I0927 18:58:45.358846  1548 net.cpp:120] Top shape: 1 1 10 (10)
I0927 18:58:45.358851  1548 layer_factory.hpp:74] Creating layer cont_1_lstm1_cont_slice_0_split
I0927 18:58:45.358861  1548 net.cpp:84] Creating Layer cont_1_lstm1_cont_slice_0_split
I0927 18:58:45.358867  1548 net.cpp:381] cont_1_lstm1_cont_slice_0_split <- cont_1
I0927 18:58:45.358873  1548 net.cpp:339] cont_1_lstm1_cont_slice_0_split -> cont_1_lstm1_cont_slice_0_split_0
I0927 18:58:45.358882  1548 net.cpp:339] cont_1_lstm1_cont_slice_0_split -> cont_1_lstm1_cont_slice_0_split_1
I0927 18:58:45.358896  1548 net.cpp:113] Setting up cont_1_lstm1_cont_slice_0_split
I0927 18:58:45.358904  1548 net.cpp:120] Top shape: 1 1 10 (10)
I0927 18:58:45.358909  1548 net.cpp:120] Top shape: 1 1 10 (10)
I0927 18:58:45.358913  1548 layer_factory.hpp:74] Creating layer cont_2_lstm1_cont_slice_1_split
I0927 18:58:45.358922  1548 net.cpp:84] Creating Layer cont_2_lstm1_cont_slice_1_split
I0927 18:58:45.358925  1548 net.cpp:381] cont_2_lstm1_cont_slice_1_split <- cont_2
I0927 18:58:45.358932  1548 net.cpp:339] cont_2_lstm1_cont_slice_1_split -> cont_2_lstm1_cont_slice_1_split_0
I0927 18:58:45.358944  1548 net.cpp:339] cont_2_lstm1_cont_slice_1_split -> cont_2_lstm1_cont_slice_1_split_1
I0927 18:58:45.358952  1548 net.cpp:113] Setting up cont_2_lstm1_cont_slice_1_split
I0927 18:58:45.358959  1548 net.cpp:120] Top shape: 1 1 10 (10)
I0927 18:58:45.358964  1548 net.cpp:120] Top shape: 1 1 10 (10)
I0927 18:58:45.358969  1548 layer_factory.hpp:74] Creating layer cont_3_lstm1_cont_slice_2_split
I0927 18:58:45.358975  1548 net.cpp:84] Creating Layer cont_3_lstm1_cont_slice_2_split
I0927 18:58:45.358979  1548 net.cpp:381] cont_3_lstm1_cont_slice_2_split <- cont_3
I0927 18:58:45.358985  1548 net.cpp:339] cont_3_lstm1_cont_slice_2_split -> cont_3_lstm1_cont_slice_2_split_0
I0927 18:58:45.358994  1548 net.cpp:339] cont_3_lstm1_cont_slice_2_split -> cont_3_lstm1_cont_slice_2_split_1
I0927 18:58:45.358999  1548 net.cpp:113] Setting up cont_3_lstm1_cont_slice_2_split
I0927 18:58:45.359006  1548 net.cpp:120] Top shape: 1 1 10 (10)
I0927 18:58:45.359011  1548 net.cpp:120] Top shape: 1 1 10 (10)
I0927 18:58:45.359015  1548 layer_factory.hpp:74] Creating layer cont_4_lstm1_cont_slice_3_split
I0927 18:58:45.359025  1548 net.cpp:84] Creating Layer cont_4_lstm1_cont_slice_3_split
I0927 18:58:45.359030  1548 net.cpp:381] cont_4_lstm1_cont_slice_3_split <- cont_4
I0927 18:58:45.359036  1548 net.cpp:339] cont_4_lstm1_cont_slice_3_split -> cont_4_lstm1_cont_slice_3_split_0
I0927 18:58:45.359043  1548 net.cpp:339] cont_4_lstm1_cont_slice_3_split -> cont_4_lstm1_cont_slice_3_split_1
I0927 18:58:45.359050  1548 net.cpp:113] Setting up cont_4_lstm1_cont_slice_3_split
I0927 18:58:45.359061  1548 net.cpp:120] Top shape: 1 1 10 (10)
I0927 18:58:45.359066  1548 net.cpp:120] Top shape: 1 1 10 (10)
I0927 18:58:45.359069  1548 layer_factory.hpp:74] Creating layer cont_5_lstm1_cont_slice_4_split
I0927 18:58:45.359074  1548 net.cpp:84] Creating Layer cont_5_lstm1_cont_slice_4_split
I0927 18:58:45.359079  1548 net.cpp:381] cont_5_lstm1_cont_slice_4_split <- cont_5
I0927 18:58:45.359086  1548 net.cpp:339] cont_5_lstm1_cont_slice_4_split -> cont_5_lstm1_cont_slice_4_split_0
I0927 18:58:45.359092  1548 net.cpp:339] cont_5_lstm1_cont_slice_4_split -> cont_5_lstm1_cont_slice_4_split_1
I0927 18:58:45.359098  1548 net.cpp:113] Setting up cont_5_lstm1_cont_slice_4_split
I0927 18:58:45.359105  1548 net.cpp:120] Top shape: 1 1 10 (10)
I0927 18:58:45.359110  1548 net.cpp:120] Top shape: 1 1 10 (10)
I0927 18:58:45.359114  1548 layer_factory.hpp:74] Creating layer cont_6_lstm1_cont_slice_5_split
I0927 18:58:45.359119  1548 net.cpp:84] Creating Layer cont_6_lstm1_cont_slice_5_split
I0927 18:58:45.359124  1548 net.cpp:381] cont_6_lstm1_cont_slice_5_split <- cont_6
I0927 18:58:45.359133  1548 net.cpp:339] cont_6_lstm1_cont_slice_5_split -> cont_6_lstm1_cont_slice_5_split_0
I0927 18:58:45.359140  1548 net.cpp:339] cont_6_lstm1_cont_slice_5_split -> cont_6_lstm1_cont_slice_5_split_1
I0927 18:58:45.359148  1548 net.cpp:113] Setting up cont_6_lstm1_cont_slice_5_split
I0927 18:58:45.359154  1548 net.cpp:120] Top shape: 1 1 10 (10)
I0927 18:58:45.359159  1548 net.cpp:120] Top shape: 1 1 10 (10)
I0927 18:58:45.359163  1548 layer_factory.hpp:74] Creating layer cont_7_lstm1_cont_slice_6_split
I0927 18:58:45.359171  1548 net.cpp:84] Creating Layer cont_7_lstm1_cont_slice_6_split
I0927 18:58:45.359176  1548 net.cpp:381] cont_7_lstm1_cont_slice_6_split <- cont_7
I0927 18:58:45.359182  1548 net.cpp:339] cont_7_lstm1_cont_slice_6_split -> cont_7_lstm1_cont_slice_6_split_0
I0927 18:58:45.359192  1548 net.cpp:339] cont_7_lstm1_cont_slice_6_split -> cont_7_lstm1_cont_slice_6_split_1
I0927 18:58:45.359205  1548 net.cpp:113] Setting up cont_7_lstm1_cont_slice_6_split
I0927 18:58:45.359211  1548 net.cpp:120] Top shape: 1 1 10 (10)
I0927 18:58:45.359216  1548 net.cpp:120] Top shape: 1 1 10 (10)
I0927 18:58:45.359220  1548 layer_factory.hpp:74] Creating layer cont_8_lstm1_cont_slice_7_split
I0927 18:58:45.359231  1548 net.cpp:84] Creating Layer cont_8_lstm1_cont_slice_7_split
I0927 18:58:45.359236  1548 net.cpp:381] cont_8_lstm1_cont_slice_7_split <- cont_8
I0927 18:58:45.359242  1548 net.cpp:339] cont_8_lstm1_cont_slice_7_split -> cont_8_lstm1_cont_slice_7_split_0
I0927 18:58:45.359249  1548 net.cpp:339] cont_8_lstm1_cont_slice_7_split -> cont_8_lstm1_cont_slice_7_split_1
I0927 18:58:45.359256  1548 net.cpp:113] Setting up cont_8_lstm1_cont_slice_7_split
I0927 18:58:45.359267  1548 net.cpp:120] Top shape: 1 1 10 (10)
I0927 18:58:45.359272  1548 net.cpp:120] Top shape: 1 1 10 (10)
I0927 18:58:45.359277  1548 layer_factory.hpp:74] Creating layer cont_9_lstm1_cont_slice_8_split
I0927 18:58:45.359282  1548 net.cpp:84] Creating Layer cont_9_lstm1_cont_slice_8_split
I0927 18:58:45.359285  1548 net.cpp:381] cont_9_lstm1_cont_slice_8_split <- cont_9
I0927 18:58:45.359292  1548 net.cpp:339] cont_9_lstm1_cont_slice_8_split -> cont_9_lstm1_cont_slice_8_split_0
I0927 18:58:45.359298  1548 net.cpp:339] cont_9_lstm1_cont_slice_8_split -> cont_9_lstm1_cont_slice_8_split_1
I0927 18:58:45.359305  1548 net.cpp:113] Setting up cont_9_lstm1_cont_slice_8_split
I0927 18:58:45.359311  1548 net.cpp:120] Top shape: 1 1 10 (10)
I0927 18:58:45.359316  1548 net.cpp:120] Top shape: 1 1 10 (10)
I0927 18:58:45.359320  1548 layer_factory.hpp:74] Creating layer cont_10_lstm1_cont_slice_9_split
I0927 18:58:45.359325  1548 net.cpp:84] Creating Layer cont_10_lstm1_cont_slice_9_split
I0927 18:58:45.359330  1548 net.cpp:381] cont_10_lstm1_cont_slice_9_split <- cont_10
I0927 18:58:45.359339  1548 net.cpp:339] cont_10_lstm1_cont_slice_9_split -> cont_10_lstm1_cont_slice_9_split_0
I0927 18:58:45.359347  1548 net.cpp:339] cont_10_lstm1_cont_slice_9_split -> cont_10_lstm1_cont_slice_9_split_1
I0927 18:58:45.359354  1548 net.cpp:113] Setting up cont_10_lstm1_cont_slice_9_split
I0927 18:58:45.359360  1548 net.cpp:120] Top shape: 1 1 10 (10)
I0927 18:58:45.359365  1548 net.cpp:120] Top shape: 1 1 10 (10)
I0927 18:58:45.359369  1548 layer_factory.hpp:74] Creating layer cont_11_lstm1_cont_slice_10_split
I0927 18:58:45.359380  1548 net.cpp:84] Creating Layer cont_11_lstm1_cont_slice_10_split
I0927 18:58:45.359385  1548 net.cpp:381] cont_11_lstm1_cont_slice_10_split <- cont_11
I0927 18:58:45.359390  1548 net.cpp:339] cont_11_lstm1_cont_slice_10_split -> cont_11_lstm1_cont_slice_10_split_0
I0927 18:58:45.359403  1548 net.cpp:339] cont_11_lstm1_cont_slice_10_split -> cont_11_lstm1_cont_slice_10_split_1
I0927 18:58:45.359411  1548 net.cpp:113] Setting up cont_11_lstm1_cont_slice_10_split
I0927 18:58:45.359417  1548 net.cpp:120] Top shape: 1 1 10 (10)
I0927 18:58:45.359424  1548 net.cpp:120] Top shape: 1 1 10 (10)
I0927 18:58:45.359428  1548 layer_factory.hpp:74] Creating layer cont_12_lstm1_cont_slice_11_split
I0927 18:58:45.359434  1548 net.cpp:84] Creating Layer cont_12_lstm1_cont_slice_11_split
I0927 18:58:45.359439  1548 net.cpp:381] cont_12_lstm1_cont_slice_11_split <- cont_12
I0927 18:58:45.359449  1548 net.cpp:339] cont_12_lstm1_cont_slice_11_split -> cont_12_lstm1_cont_slice_11_split_0
I0927 18:58:45.359457  1548 net.cpp:339] cont_12_lstm1_cont_slice_11_split -> cont_12_lstm1_cont_slice_11_split_1
I0927 18:58:45.359463  1548 net.cpp:113] Setting up cont_12_lstm1_cont_slice_11_split
I0927 18:58:45.359470  1548 net.cpp:120] Top shape: 1 1 10 (10)
I0927 18:58:45.359475  1548 net.cpp:120] Top shape: 1 1 10 (10)
I0927 18:58:45.359479  1548 layer_factory.hpp:74] Creating layer cont_13_lstm1_cont_slice_12_split
I0927 18:58:45.359484  1548 net.cpp:84] Creating Layer cont_13_lstm1_cont_slice_12_split
I0927 18:58:45.359488  1548 net.cpp:381] cont_13_lstm1_cont_slice_12_split <- cont_13
I0927 18:58:45.359498  1548 net.cpp:339] cont_13_lstm1_cont_slice_12_split -> cont_13_lstm1_cont_slice_12_split_0
I0927 18:58:45.359506  1548 net.cpp:339] cont_13_lstm1_cont_slice_12_split -> cont_13_lstm1_cont_slice_12_split_1
I0927 18:58:45.359513  1548 net.cpp:113] Setting up cont_13_lstm1_cont_slice_12_split
I0927 18:58:45.359519  1548 net.cpp:120] Top shape: 1 1 10 (10)
I0927 18:58:45.359524  1548 net.cpp:120] Top shape: 1 1 10 (10)
I0927 18:58:45.359529  1548 layer_factory.hpp:74] Creating layer cont_14_lstm1_cont_slice_13_split
I0927 18:58:45.359534  1548 net.cpp:84] Creating Layer cont_14_lstm1_cont_slice_13_split
I0927 18:58:45.359537  1548 net.cpp:381] cont_14_lstm1_cont_slice_13_split <- cont_14
I0927 18:58:45.359542  1548 net.cpp:339] cont_14_lstm1_cont_slice_13_split -> cont_14_lstm1_cont_slice_13_split_0
I0927 18:58:45.359554  1548 net.cpp:339] cont_14_lstm1_cont_slice_13_split -> cont_14_lstm1_cont_slice_13_split_1
I0927 18:58:45.359560  1548 net.cpp:113] Setting up cont_14_lstm1_cont_slice_13_split
I0927 18:58:45.359566  1548 net.cpp:120] Top shape: 1 1 10 (10)
I0927 18:58:45.359575  1548 net.cpp:120] Top shape: 1 1 10 (10)
I0927 18:58:45.359578  1548 layer_factory.hpp:74] Creating layer cont_15_lstm1_cont_slice_14_split
I0927 18:58:45.359585  1548 net.cpp:84] Creating Layer cont_15_lstm1_cont_slice_14_split
I0927 18:58:45.359588  1548 net.cpp:381] cont_15_lstm1_cont_slice_14_split <- cont_15
I0927 18:58:45.359597  1548 net.cpp:339] cont_15_lstm1_cont_slice_14_split -> cont_15_lstm1_cont_slice_14_split_0
I0927 18:58:45.359608  1548 net.cpp:339] cont_15_lstm1_cont_slice_14_split -> cont_15_lstm1_cont_slice_14_split_1
I0927 18:58:45.359616  1548 net.cpp:113] Setting up cont_15_lstm1_cont_slice_14_split
I0927 18:58:45.359622  1548 net.cpp:120] Top shape: 1 1 10 (10)
I0927 18:58:45.359627  1548 net.cpp:120] Top shape: 1 1 10 (10)
I0927 18:58:45.359630  1548 layer_factory.hpp:74] Creating layer cont_16_lstm1_cont_slice_15_split
I0927 18:58:45.359637  1548 net.cpp:84] Creating Layer cont_16_lstm1_cont_slice_15_split
I0927 18:58:45.359642  1548 net.cpp:381] cont_16_lstm1_cont_slice_15_split <- cont_16
I0927 18:58:45.359648  1548 net.cpp:339] cont_16_lstm1_cont_slice_15_split -> cont_16_lstm1_cont_slice_15_split_0
I0927 18:58:45.359659  1548 net.cpp:339] cont_16_lstm1_cont_slice_15_split -> cont_16_lstm1_cont_slice_15_split_1
I0927 18:58:45.359666  1548 net.cpp:113] Setting up cont_16_lstm1_cont_slice_15_split
I0927 18:58:45.359675  1548 net.cpp:120] Top shape: 1 1 10 (10)
I0927 18:58:45.359680  1548 net.cpp:120] Top shape: 1 1 10 (10)
I0927 18:58:45.359684  1548 layer_factory.hpp:74] Creating layer lstm1_x_transform
I0927 18:58:45.359694  1548 net.cpp:84] Creating Layer lstm1_x_transform
I0927 18:58:45.359699  1548 net.cpp:381] lstm1_x_transform <- x
I0927 18:58:45.359706  1548 net.cpp:339] lstm1_x_transform -> W_xc_x
I0927 18:58:45.359714  1548 net.cpp:113] Setting up lstm1_x_transform
I0927 18:58:45.412389  1548 net.cpp:120] Top shape: 16 10 1024 (163840)
I0927 18:58:45.412425  1548 layer_factory.hpp:74] Creating layer lstm1_W_xc_x_slice
I0927 18:58:45.412447  1548 net.cpp:84] Creating Layer lstm1_W_xc_x_slice
I0927 18:58:45.412454  1548 net.cpp:381] lstm1_W_xc_x_slice <- W_xc_x
I0927 18:58:45.412466  1548 net.cpp:339] lstm1_W_xc_x_slice -> W_xc_x_1
I0927 18:58:45.412478  1548 net.cpp:339] lstm1_W_xc_x_slice -> W_xc_x_2
I0927 18:58:45.412490  1548 net.cpp:339] lstm1_W_xc_x_slice -> W_xc_x_3
…
I0927 18:58:45.412570  1548 net.cpp:339] lstm1_W_xc_x_slice -> W_xc_x_10
I0927 18:58:45.412582  1548 net.cpp:339] lstm1_W_xc_x_slice -> W_xc_x_11
I0927 18:58:45.412593  1548 net.cpp:339] lstm1_W_xc_x_slice -> W_xc_x_12
I0927 18:58:45.412616  1548 net.cpp:339] lstm1_W_xc_x_slice -> W_xc_x_13
I0927 18:58:45.412627  1548 net.cpp:339] lstm1_W_xc_x_slice -> W_xc_x_14
I0927 18:58:45.412638  1548 net.cpp:339] lstm1_W_xc_x_slice -> W_xc_x_15
I0927 18:58:45.412648  1548 net.cpp:339] lstm1_W_xc_x_slice -> W_xc_x_16
I0927 18:58:45.412658  1548 net.cpp:113] Setting up lstm1_W_xc_x_slice
I0927 18:58:45.412683  1548 net.cpp:120] Top shape: 1 10 1024 (10240)
I0927 18:58:45.412688  1548 net.cpp:120] Top shape: 1 10 1024 (10240)
I0927 18:58:45.412693  1548 net.cpp:120] Top shape: 1 10 1024 (10240)
I0927 18:58:45.412698  1548 net.cpp:120] Top shape: 1 10 1024 (10240)
I0927 18:58:45.412704  1548 net.cpp:120] Top shape: 1 10 1024 (10240)
I0927 18:58:45.412709  1548 net.cpp:120] Top shape: 1 10 1024 (10240)
I0927 18:58:45.412714  1548 net.cpp:120] Top shape: 1 10 1024 (10240)
I0927 18:58:45.412719  1548 net.cpp:120] Top shape: 1 10 1024 (10240)
I0927 18:58:45.412724  1548 net.cpp:120] Top shape: 1 10 1024 (10240)
I0927 18:58:45.412729  1548 net.cpp:120] Top shape: 1 10 1024 (10240)
I0927 18:58:45.412734  1548 net.cpp:120] Top shape: 1 10 1024 (10240)
I0927 18:58:45.412739  1548 net.cpp:120] Top shape: 1 10 1024 (10240)
I0927 18:58:45.412745  1548 net.cpp:120] Top shape: 1 10 1024 (10240)
I0927 18:58:45.412750  1548 net.cpp:120] Top shape: 1 10 1024 (10240)
I0927 18:58:45.412755  1548 net.cpp:120] Top shape: 1 10 1024 (10240)
I0927 18:58:45.412760  1548 net.cpp:120] Top shape: 1 10 1024 (10240)
I0927 18:58:45.412765  1548 layer_factory.hpp:74] Creating layer lstm1_h_conted_0
I0927 18:58:45.412775  1548 net.cpp:84] Creating Layer lstm1_h_conted_0
I0927 18:58:45.412782  1548 net.cpp:381] lstm1_h_conted_0 <- h_0
I0927 18:58:45.412789  1548 net.cpp:381] lstm1_h_conted_0 <- cont_1_lstm1_cont_slice_0_split_0
I0927 18:58:45.412798  1548 net.cpp:339] lstm1_h_conted_0 -> h_conted_0
I0927 18:58:45.412808  1548 net.cpp:113] Setting up lstm1_h_conted_0
I0927 18:58:45.412823  1548 net.cpp:120] Top shape: 1 10 256 (2560)
I0927 18:58:45.412830  1548 layer_factory.hpp:74] Creating layer lstm1_transform_1
I0927 18:58:45.412844  1548 net.cpp:84] Creating Layer lstm1_transform_1
I0927 18:58:45.412850  1548 net.cpp:381] lstm1_transform_1 <- h_conted_0
I0927 18:58:45.412858  1548 net.cpp:339] lstm1_transform_1 -> W_hc_h_0
I0927 18:58:45.412869  1548 net.cpp:113] Setting up lstm1_transform_1
I0927 18:58:45.416224  1548 net.cpp:120] Top shape: 1 10 1024 (10240)
I0927 18:58:45.416239  1548 layer_factory.hpp:74] Creating layer lstm1_gate_input_1
I0927 18:58:45.416249  1548 net.cpp:84] Creating Layer lstm1_gate_input_1
I0927 18:58:45.416254  1548 net.cpp:381] lstm1_gate_input_1 <- W_hc_h_0
I0927 18:58:45.416260  1548 net.cpp:381] lstm1_gate_input_1 <- W_xc_x_1
I0927 18:58:45.416267  1548 net.cpp:339] lstm1_gate_input_1 -> gate_input_1
I0927 18:58:45.416276  1548 net.cpp:113] Setting up lstm1_gate_input_1
I0927 18:58:45.416286  1548 net.cpp:120] Top shape: 1 10 1024 (10240)
I0927 18:58:45.416291  1548 layer_factory.hpp:74] Creating layer lstm1_unit_1
I0927 18:58:45.416299  1548 net.cpp:84] Creating Layer lstm1_unit_1
I0927 18:58:45.416306  1548 net.cpp:381] lstm1_unit_1 <- c_0
I0927 18:58:45.416312  1548 net.cpp:381] lstm1_unit_1 <- gate_input_1
I0927 18:58:45.416319  1548 net.cpp:381] lstm1_unit_1 <- cont_1_lstm1_cont_slice_0_split_1
I0927 18:58:45.416332  1548 net.cpp:339] lstm1_unit_1 -> c_1
I0927 18:58:45.416342  1548 net.cpp:339] lstm1_unit_1 -> h_1
I0927 18:58:45.416352  1548 net.cpp:113] Setting up lstm1_unit_1
I0927 18:58:45.416363  1548 net.cpp:120] Top shape: 1 10 256 (2560)
I0927 18:58:45.416369  1548 net.cpp:120] Top shape: 1 10 256 (2560)
I0927 18:58:45.416374  1548 layer_factory.hpp:74] Creating layer h_1_lstm1_unit_1_1_split
I0927 18:58:45.416381  1548 net.cpp:84] Creating Layer h_1_lstm1_unit_1_1_split
I0927 18:58:45.416391  1548 net.cpp:381] h_1_lstm1_unit_1_1_split <- h_1
I0927 18:58:45.416399  1548 net.cpp:339] h_1_lstm1_unit_1_1_split -> h_1_lstm1_unit_1_1_split_0
I0927 18:58:45.416406  1548 net.cpp:339] h_1_lstm1_unit_1_1_split -> h_1_lstm1_unit_1_1_split_1
I0927 18:58:45.416415  1548 net.cpp:113] Setting up h_1_lstm1_unit_1_1_split
I0927 18:58:45.416425  1548 net.cpp:120] Top shape: 1 10 256 (2560)
I0927 18:58:45.416432  1548 net.cpp:120] Top shape: 1 10 256 (2560)
I0927 18:58:45.416436  1548 layer_factory.hpp:74] Creating layer lstm1_h_conted_1
I0927 18:58:45.416443  1548 net.cpp:84] Creating Layer lstm1_h_conted_1
I0927 18:58:45.416447  1548 net.cpp:381] lstm1_h_conted_1 <- h_1_lstm1_unit_1_1_split_0
I0927 18:58:45.416455  1548 net.cpp:381] lstm1_h_conted_1 <- cont_2_lstm1_cont_slice_1_split_0
I0927 18:58:45.416465  1548 net.cpp:339] lstm1_h_conted_1 -> h_conted_1
I0927 18:58:45.416473  1548 net.cpp:113] Setting up lstm1_h_conted_1
I0927 18:58:45.416482  1548 net.cpp:120] Top shape: 1 10 256 (2560)
I0927 18:58:45.416488  1548 layer_factory.hpp:74] Creating layer lstm1_transform_2
I0927 18:58:45.416497  1548 net.cpp:84] Creating Layer lstm1_transform_2
I0927 18:58:45.416503  1548 net.cpp:381] lstm1_transform_2 <- h_conted_1
I0927 18:58:45.416515  1548 net.cpp:339] lstm1_transform_2 -> W_hc_h_1
I0927 18:58:45.416525  1548 net.cpp:113] Setting up lstm1_transform_2
I0927 18:58:45.419868  1548 net.cpp:120] Top shape: 1 10 1024 (10240)
I0927 18:58:45.419879  1548 net.cpp:425] Sharing parameters 'W_hc' owned by layer 'lstm1_transform_1', param index 0
I0927 18:58:45.419888  1548 layer_factory.hpp:74] Creating layer lstm1_gate_input_2
I0927 18:58:45.419896  1548 net.cpp:84] Creating Layer lstm1_gate_input_2
I0927 18:58:45.419900  1548 net.cpp:381] lstm1_gate_input_2 <- W_hc_h_1
I0927 18:58:45.419908  1548 net.cpp:381] lstm1_gate_input_2 <- W_xc_x_2
I0927 18:58:45.419925  1548 net.cpp:339] lstm1_gate_input_2 -> gate_input_2
I0927 18:58:45.419934  1548 net.cpp:113] Setting up lstm1_gate_input_2
I0927 18:58:45.419942  1548 net.cpp:120] Top shape: 1 10 1024 (10240)
I0927 18:58:45.419946  1548 layer_factory.hpp:74] Creating layer lstm1_unit_2
I0927 18:58:45.419953  1548 net.cpp:84] Creating Layer lstm1_unit_2
I0927 18:58:45.419960  1548 net.cpp:381] lstm1_unit_2 <- c_1
I0927 18:58:45.419965  1548 net.cpp:381] lstm1_unit_2 <- gate_input_2
I0927 18:58:45.419975  1548 net.cpp:381] lstm1_unit_2 <- cont_2_lstm1_cont_slice_1_split_1
I0927 18:58:45.419981  1548 net.cpp:339] lstm1_unit_2 -> c_2
I0927 18:58:45.419994  1548 net.cpp:339] lstm1_unit_2 -> h_2
I0927 18:58:45.420004  1548 net.cpp:113] Setting up lstm1_unit_2
I0927 18:58:45.420014  1548 net.cpp:120] Top shape: 1 10 256 (2560)
I0927 18:58:45.420022  1548 net.cpp:120] Top shape: 1 10 256 (2560)
I0927 18:58:45.420027  1548 layer_factory.hpp:74] Creating layer h_2_lstm1_unit_2_1_split
I0927 18:58:45.420032  1548 net.cpp:84] Creating Layer h_2_lstm1_unit_2_1_split
I0927 18:58:45.420038  1548 net.cpp:381] h_2_lstm1_unit_2_1_split <- h_2
I0927 18:58:45.420045  1548 net.cpp:339] h_2_lstm1_unit_2_1_split -> h_2_lstm1_unit_2_1_split_0
I0927 18:58:45.420054  1548 net.cpp:339] h_2_lstm1_unit_2_1_split -> h_2_lstm1_unit_2_1_split_1
I0927 18:58:45.420066  1548 net.cpp:113] Setting up h_2_lstm1_unit_2_1_split
I0927 18:58:45.420075  1548 net.cpp:120] Top shape: 1 10 256 (2560)
I0927 18:58:45.420083  1548 net.cpp:120] Top shape: 1 10 256 (2560)
I0927 18:58:45.420087  1548 layer_factory.hpp:74] Creating layer lstm1_h_conted_2
I0927 18:58:45.420094  1548 net.cpp:84] Creating Layer lstm1_h_conted_2
I0927 18:58:45.420100  1548 net.cpp:381] lstm1_h_conted_2 <- h_2_lstm1_unit_2_1_split_0
I0927 18:58:45.420106  1548 net.cpp:381] lstm1_h_conted_2 <- cont_3_lstm1_cont_slice_2_split_0
I0927 18:58:45.420114  1548 net.cpp:339] lstm1_h_conted_2 -> h_conted_2
I0927 18:58:45.420125  1548 net.cpp:113] Setting up lstm1_h_conted_2
I0927 18:58:45.420133  1548 net.cpp:120] Top shape: 1 10 256 (2560)
I0927 18:58:45.420138  1548 layer_factory.hpp:74] Creating layer lstm1_transform_3
I0927 18:58:45.420147  1548 net.cpp:84] Creating Layer lstm1_transform_3
I0927 18:58:45.420152  1548 net.cpp:381] lstm1_transform_3 <- h_conted_2
I0927 18:58:45.420159  1548 net.cpp:339] lstm1_transform_3 -> W_hc_h_2
I0927 18:58:45.420168  1548 net.cpp:113] Setting up lstm1_transform_3
I0927 18:58:45.423496  1548 net.cpp:120] Top shape: 1 10 1024 (10240)
I0927 18:58:45.423508  1548 net.cpp:425] Sharing parameters 'W_hc' owned by layer 'lstm1_transform_1', param index 0
I0927 18:58:45.423513  1548 layer_factory.hpp:74] Creating layer lstm1_gate_input_3
I0927 18:58:45.423524  1548 net.cpp:84] Creating Layer lstm1_gate_input_3
I0927 18:58:45.423529  1548 net.cpp:381] lstm1_gate_input_3 <- W_hc_h_2
I0927 18:58:45.423535  1548 net.cpp:381] lstm1_gate_input_3 <- W_xc_x_3
I0927 18:58:45.423542  1548 net.cpp:339] lstm1_gate_input_3 -> gate_input_3
I0927 18:58:45.423550  1548 net.cpp:113] Setting up lstm1_gate_input_3
I0927 18:58:45.423558  1548 net.cpp:120] Top shape: 1 10 1024 (10240)
I0927 18:58:45.423564  1548 layer_factory.hpp:74] Creating layer lstm1_unit_3
I0927 18:58:45.423580  1548 net.cpp:84] Creating Layer lstm1_unit_3
I0927 18:58:45.423586  1548 net.cpp:381] lstm1_unit_3 <- c_2
I0927 18:58:45.423593  1548 net.cpp:381] lstm1_unit_3 <- gate_input_3
I0927 18:58:45.423599  1548 net.cpp:381] lstm1_unit_3 <- cont_3_lstm1_cont_slice_2_split_1
I0927 18:58:45.423609  1548 net.cpp:339] lstm1_unit_3 -> c_3
I0927 18:58:45.423617  1548 net.cpp:339] lstm1_unit_3 -> h_3
I0927 18:58:45.423626  1548 net.cpp:113] Setting up lstm1_unit_3
I0927 18:58:45.423637  1548 net.cpp:120] Top shape: 1 10 256 (2560)
I0927 18:58:45.423643  1548 net.cpp:120] Top shape: 1 10 256 (2560)
I0927 18:58:45.423648  1548 layer_factory.hpp:74] Creating layer h_3_lstm1_unit_3_1_split
I0927 18:58:45.423658  1548 net.cpp:84] Creating Layer h_3_lstm1_unit_3_1_split
I0927 18:58:45.423665  1548 net.cpp:381] h_3_lstm1_unit_3_1_split <- h_3
I0927 18:58:45.423671  1548 net.cpp:339] h_3_lstm1_unit_3_1_split -> h_3_lstm1_unit_3_1_split_0
I0927 18:58:45.423683  1548 net.cpp:339] h_3_lstm1_unit_3_1_split -> h_3_lstm1_unit_3_1_split_1
I0927 18:58:45.423693  1548 net.cpp:113] Setting up h_3_lstm1_unit_3_1_split
I0927 18:58:45.423701  1548 net.cpp:120] Top shape: 1 10 256 (2560)
I0927 18:58:45.423705  1548 net.cpp:120] Top shape: 1 10 256 (2560)
I0927 18:58:45.423710  1548 layer_factory.hpp:74] Creating layer lstm1_h_conted_3
I0927 18:58:45.423717  1548 net.cpp:84] Creating Layer lstm1_h_conted_3
I0927 18:58:45.423722  1548 net.cpp:381] lstm1_h_conted_3 <- h_3_lstm1_unit_3_1_split_0
I0927 18:58:45.423727  1548 net.cpp:381] lstm1_h_conted_3 <- cont_4_lstm1_cont_slice_3_split_0
I0927 18:58:45.423734  1548 net.cpp:339] lstm1_h_conted_3 -> h_conted_3
I0927 18:58:45.423741  1548 net.cpp:113] Setting up lstm1_h_conted_3
I0927 18:58:45.423748  1548 net.cpp:120] Top shape: 1 10 256 (2560)
I0927 18:58:45.423753  1548 layer_factory.hpp:74] Creating layer lstm1_transform_4
I0927 18:58:45.423764  1548 net.cpp:84] Creating Layer lstm1_transform_4
I0927 18:58:45.423768  1548 net.cpp:381] lstm1_transform_4 <- h_conted_3
I0927 18:58:45.423775  1548 net.cpp:339] lstm1_transform_4 -> W_hc_h_3
I0927 18:58:45.423784  1548 net.cpp:113] Setting up lstm1_transform_4
I0927 18:58:45.427132  1548 net.cpp:120] Top shape: 1 10 1024 (10240)
I0927 18:58:45.427144  1548 net.cpp:425] Sharing parameters 'W_hc' owned by layer 'lstm1_transform_1', param index 0
I0927 18:58:45.427150  1548 layer_factory.hpp:74] Creating layer lstm1_gate_input_4
I0927 18:58:45.427156  1548 net.cpp:84] Creating Layer lstm1_gate_input_4
I0927 18:58:45.427161  1548 net.cpp:381] lstm1_gate_input_4 <- W_hc_h_3
I0927 18:58:45.427168  1548 net.cpp:381] lstm1_gate_input_4 <- W_xc_x_4
I0927 18:58:45.427175  1548 net.cpp:339] lstm1_gate_input_4 -> gate_input_4
I0927 18:58:45.427183  1548 net.cpp:113] Setting up lstm1_gate_input_4
I0927 18:58:45.427191  1548 net.cpp:120] Top shape: 1 10 1024 (10240)
I0927 18:58:45.427196  1548 layer_factory.hpp:74] Creating layer lstm1_unit_4
I0927 18:58:45.427203  1548 net.cpp:84] Creating Layer lstm1_unit_4
I0927 18:58:45.427208  1548 net.cpp:381] lstm1_unit_4 <- c_3
I0927 18:58:45.427217  1548 net.cpp:381] lstm1_unit_4 <- gate_input_4
I0927 18:58:45.427222  1548 net.cpp:381] lstm1_unit_4 <- cont_4_lstm1_cont_slice_3_split_1
I0927 18:58:45.427229  1548 net.cpp:339] lstm1_unit_4 -> c_4
I0927 18:58:45.427238  1548 net.cpp:339] lstm1_unit_4 -> h_4
I0927 18:58:45.427248  1548 net.cpp:113] Setting up lstm1_unit_4
I0927 18:58:45.427255  1548 net.cpp:120] Top shape: 1 10 256 (2560)
I0927 18:58:45.427263  1548 net.cpp:120] Top shape: 1 10 256 (2560)
I0927 18:58:45.427268  1548 layer_factory.hpp:74] Creating layer h_4_lstm1_unit_4_1_split
I0927 18:58:45.427276  1548 net.cpp:84] Creating Layer h_4_lstm1_unit_4_1_split
I0927 18:58:45.427283  1548 net.cpp:381] h_4_lstm1_unit_4_1_split <- h_4
I0927 18:58:45.427289  1548 net.cpp:339] h_4_lstm1_unit_4_1_split -> h_4_lstm1_unit_4_1_split_0
I0927 18:58:45.427297  1548 net.cpp:339] h_4_lstm1_unit_4_1_split -> h_4_lstm1_unit_4_1_split_1
I0927 18:58:45.427305  1548 net.cpp:113] Setting up h_4_lstm1_unit_4_1_split
I0927 18:58:45.427314  1548 net.cpp:120] Top shape: 1 10 256 (2560)
I0927 18:58:45.427321  1548 net.cpp:120] Top shape: 1 10 256 (2560)
I0927 18:58:45.427326  1548 layer_factory.hpp:74] Creating layer lstm1_h_conted_4
I0927 18:58:45.427332  1548 net.cpp:84] Creating Layer lstm1_h_conted_4
I0927 18:58:45.427337  1548 net.cpp:381] lstm1_h_conted_4 <- h_4_lstm1_unit_4_1_split_0
I0927 18:58:45.427343  1548 net.cpp:381] lstm1_h_conted_4 <- cont_5_lstm1_cont_slice_4_split_0
I0927 18:58:45.427355  1548 net.cpp:339] lstm1_h_conted_4 -> h_conted_4
I0927 18:58:45.427363  1548 net.cpp:113] Setting up lstm1_h_conted_4
I0927 18:58:45.427373  1548 net.cpp:120] Top shape: 1 10 256 (2560)
I0927 18:58:45.427379  1548 layer_factory.hpp:74] Creating layer lstm1_transform_5
I0927 18:58:45.427387  1548 net.cpp:84] Creating Layer lstm1_transform_5
I0927 18:58:45.427393  1548 net.cpp:381] lstm1_transform_5 <- h_conted_4
I0927 18:58:45.427404  1548 net.cpp:339] lstm1_transform_5 -> W_hc_h_4
I0927 18:58:45.427413  1548 net.cpp:113] Setting up lstm1_transform_5
I0927 18:58:45.430748  1548 net.cpp:120] Top shape: 1 10 1024 (10240)
I0927 18:58:45.430758  1548 net.cpp:425] Sharing parameters 'W_hc' owned by layer 'lstm1_transform_1', param index 0
I0927 18:58:45.430763  1548 layer_factory.hpp:74] Creating layer lstm1_gate_input_5
I0927 18:58:45.430770  1548 net.cpp:84] Creating Layer lstm1_gate_input_5
I0927 18:58:45.430775  1548 net.cpp:381] lstm1_gate_input_5 <- W_hc_h_4
I0927 18:58:45.430781  1548 net.cpp:381] lstm1_gate_input_5 <- W_xc_x_5
I0927 18:58:45.430799  1548 net.cpp:339] lstm1_gate_input_5 -> gate_input_5
I0927 18:58:45.430807  1548 net.cpp:113] Setting up lstm1_gate_input_5
I0927 18:58:45.430815  1548 net.cpp:120] Top shape: 1 10 1024 (10240)
I0927 18:58:45.430819  1548 layer_factory.hpp:74] Creating layer lstm1_unit_5
I0927 18:58:45.430826  1548 net.cpp:84] Creating Layer lstm1_unit_5
I0927 18:58:45.430835  1548 net.cpp:381] lstm1_unit_5 <- c_4
I0927 18:58:45.430841  1548 net.cpp:381] lstm1_unit_5 <- gate_input_5
I0927 18:58:45.430846  1548 net.cpp:381] lstm1_unit_5 <- cont_5_lstm1_cont_slice_4_split_1
I0927 18:58:45.430853  1548 net.cpp:339] lstm1_unit_5 -> c_5
I0927 18:58:45.430867  1548 net.cpp:339] lstm1_unit_5 -> h_5
I0927 18:58:45.430876  1548 net.cpp:113] Setting up lstm1_unit_5
I0927 18:58:45.430889  1548 net.cpp:120] Top shape: 1 10 256 (2560)
I0927 18:58:45.430896  1548 net.cpp:120] Top shape: 1 10 256 (2560)
I0927 18:58:45.430901  1548 layer_factory.hpp:74] Creating layer h_5_lstm1_unit_5_1_split
I0927 18:58:45.430907  1548 net.cpp:84] Creating Layer h_5_lstm1_unit_5_1_split
I0927 18:58:45.430912  1548 net.cpp:381] h_5_lstm1_unit_5_1_split <- h_5
I0927 18:58:45.430917  1548 net.cpp:339] h_5_lstm1_unit_5_1_split -> h_5_lstm1_unit_5_1_split_0
I0927 18:58:45.430927  1548 net.cpp:339] h_5_lstm1_unit_5_1_split -> h_5_lstm1_unit_5_1_split_1
I0927 18:58:45.430934  1548 net.cpp:113] Setting up h_5_lstm1_unit_5_1_split
I0927 18:58:45.430941  1548 net.cpp:120] Top shape: 1 10 256 (2560)
I0927 18:58:45.430948  1548 net.cpp:120] Top shape: 1 10 256 (2560)
I0927 18:58:45.430951  1548 layer_factory.hpp:74] Creating layer lstm1_h_conted_5
I0927 18:58:45.430960  1548 net.cpp:84] Creating Layer lstm1_h_conted_5
I0927 18:58:45.430965  1548 net.cpp:381] lstm1_h_conted_5 <- h_5_lstm1_unit_5_1_split_0
I0927 18:58:45.430971  1548 net.cpp:381] lstm1_h_conted_5 <- cont_6_lstm1_cont_slice_5_split_0
I0927 18:58:45.430980  1548 net.cpp:339] lstm1_h_conted_5 -> h_conted_5
I0927 18:58:45.430990  1548 net.cpp:113] Setting up lstm1_h_conted_5
I0927 18:58:45.430999  1548 net.cpp:120] Top shape: 1 10 256 (2560)
I0927 18:58:45.431005  1548 layer_factory.hpp:74] Creating layer lstm1_transform_6
I0927 18:58:45.431016  1548 net.cpp:84] Creating Layer lstm1_transform_6
I0927 18:58:45.431022  1548 net.cpp:381] lstm1_transform_6 <- h_conted_5
I0927 18:58:45.431030  1548 net.cpp:339] lstm1_transform_6 -> W_hc_h_5
I0927 18:58:45.431040  1548 net.cpp:113] Setting up lstm1_transform_6
I0927 18:58:45.434365  1548 net.cpp:120] Top shape: 1 10 1024 (10240)
I0927 18:58:45.434376  1548 net.cpp:425] Sharing parameters 'W_hc' owned by layer 'lstm1_transform_1', param index 0
I0927 18:58:45.434381  1548 layer_factory.hpp:74] Creating layer lstm1_gate_input_6
I0927 18:58:45.434392  1548 net.cpp:84] Creating Layer lstm1_gate_input_6
I0927 18:58:45.434397  1548 net.cpp:381] lstm1_gate_input_6 <- W_hc_h_5
I0927 18:58:45.434403  1548 net.cpp:381] lstm1_gate_input_6 <- W_xc_x_6
I0927 18:58:45.434412  1548 net.cpp:339] lstm1_gate_input_6 -> gate_input_6
I0927 18:58:45.434419  1548 net.cpp:113] Setting up lstm1_gate_input_6
I0927 18:58:45.434427  1548 net.cpp:120] Top shape: 1 10 1024 (10240)
I0927 18:58:45.434432  1548 layer_factory.hpp:74] Creating layer lstm1_unit_6
I0927 18:58:45.434442  1548 net.cpp:84] Creating Layer lstm1_unit_6
I0927 18:58:45.434445  1548 net.cpp:381] lstm1_unit_6 <- c_5
I0927 18:58:45.434451  1548 net.cpp:381] lstm1_unit_6 <- gate_input_6
I0927 18:58:45.434456  1548 net.cpp:381] lstm1_unit_6 <- cont_6_lstm1_cont_slice_5_split_1
I0927 18:58:45.434463  1548 net.cpp:339] lstm1_unit_6 -> c_6
I0927 18:58:45.434471  1548 net.cpp:339] lstm1_unit_6 -> h_6
I0927 18:58:45.434481  1548 net.cpp:113] Setting up lstm1_unit_6
I0927 18:58:45.434491  1548 net.cpp:120] Top shape: 1 10 256 (2560)
I0927 18:58:45.434499  1548 net.cpp:120] Top shape: 1 10 256 (2560)
I0927 18:58:45.434504  1548 layer_factory.hpp:74] Creating layer h_6_lstm1_unit_6_1_split
I0927 18:58:45.434509  1548 net.cpp:84] Creating Layer h_6_lstm1_unit_6_1_split
I0927 18:58:45.434514  1548 net.cpp:381] h_6_lstm1_unit_6_1_split <- h_6
I0927 18:58:45.434522  1548 net.cpp:339] h_6_lstm1_unit_6_1_split -> h_6_lstm1_unit_6_1_split_0
I0927 18:58:45.434532  1548 net.cpp:339] h_6_lstm1_unit_6_1_split -> h_6_lstm1_unit_6_1_split_1
I0927 18:58:45.434541  1548 net.cpp:113] Setting up h_6_lstm1_unit_6_1_split
I0927 18:58:45.434548  1548 net.cpp:120] Top shape: 1 10 256 (2560)
I0927 18:58:45.434556  1548 net.cpp:120] Top shape: 1 10 256 (2560)
I0927 18:58:45.434559  1548 layer_factory.hpp:74] Creating layer lstm1_h_conted_6
I0927 18:58:45.434569  1548 net.cpp:84] Creating Layer lstm1_h_conted_6
I0927 18:58:45.434576  1548 net.cpp:381] lstm1_h_conted_6 <- h_6_lstm1_unit_6_1_split_0
I0927 18:58:45.434581  1548 net.cpp:381] lstm1_h_conted_6 <- cont_7_lstm1_cont_slice_6_split_0
I0927 18:58:45.434588  1548 net.cpp:339] lstm1_h_conted_6 -> h_conted_6
I0927 18:58:45.434597  1548 net.cpp:113] Setting up lstm1_h_conted_6
I0927 18:58:45.434605  1548 net.cpp:120] Top shape: 1 10 256 (2560)
I0927 18:58:45.434610  1548 layer_factory.hpp:74] Creating layer lstm1_transform_7
I0927 18:58:45.434618  1548 net.cpp:84] Creating Layer lstm1_transform_7
I0927 18:58:45.434624  1548 net.cpp:381] lstm1_transform_7 <- h_conted_6
I0927 18:58:45.434634  1548 net.cpp:339] lstm1_transform_7 -> W_hc_h_6
I0927 18:58:45.434643  1548 net.cpp:113] Setting up lstm1_transform_7
I0927 18:58:45.437965  1548 net.cpp:120] Top shape: 1 10 1024 (10240)
I0927 18:58:45.437979  1548 net.cpp:425] Sharing parameters 'W_hc' owned by layer 'lstm1_transform_1', param index 0
I0927 18:58:45.437984  1548 layer_factory.hpp:74] Creating layer lstm1_gate_input_7
I0927 18:58:45.437993  1548 net.cpp:84] Creating Layer lstm1_gate_input_7
I0927 18:58:45.438000  1548 net.cpp:381] lstm1_gate_input_7 <- W_hc_h_6
I0927 18:58:45.438007  1548 net.cpp:381] lstm1_gate_input_7 <- W_xc_x_7
I0927 18:58:45.438014  1548 net.cpp:339] lstm1_gate_input_7 -> gate_input_7
I0927 18:58:45.438022  1548 net.cpp:113] Setting up lstm1_gate_input_7
I0927 18:58:45.438030  1548 net.cpp:120] Top shape: 1 10 1024 (10240)
I0927 18:58:45.438035  1548 layer_factory.hpp:74] Creating layer lstm1_unit_7
I0927 18:58:45.438042  1548 net.cpp:84] Creating Layer lstm1_unit_7
I0927 18:58:45.438047  1548 net.cpp:381] lstm1_unit_7 <- c_6
I0927 18:58:45.438053  1548 net.cpp:381] lstm1_unit_7 <- gate_input_7
I0927 18:58:45.438063  1548 net.cpp:381] lstm1_unit_7 <- cont_7_lstm1_cont_slice_6_split_1
I0927 18:58:45.438069  1548 net.cpp:339] lstm1_unit_7 -> c_7
I0927 18:58:45.438083  1548 net.cpp:339] lstm1_unit_7 -> h_7
I0927 18:58:45.438092  1548 net.cpp:113] Setting up lstm1_unit_7
I0927 18:58:45.438102  1548 net.cpp:120] Top shape: 1 10 256 (2560)
I0927 18:58:45.438109  1548 net.cpp:120] Top shape: 1 10 256 (2560)
I0927 18:58:45.438114  1548 layer_factory.hpp:74] Creating layer h_7_lstm1_unit_7_1_split
I0927 18:58:45.438120  1548 net.cpp:84] Creating Layer h_7_lstm1_unit_7_1_split
I0927 18:58:45.438127  1548 net.cpp:381] h_7_lstm1_unit_7_1_split <- h_7
I0927 18:58:45.438136  1548 net.cpp:339] h_7_lstm1_unit_7_1_split -> h_7_lstm1_unit_7_1_split_0
I0927 18:58:45.438146  1548 net.cpp:339] h_7_lstm1_unit_7_1_split -> h_7_lstm1_unit_7_1_split_1
I0927 18:58:45.438155  1548 net.cpp:113] Setting up h_7_lstm1_unit_7_1_split
I0927 18:58:45.438164  1548 net.cpp:120] Top shape: 1 10 256 (2560)
I0927 18:58:45.438171  1548 net.cpp:120] Top shape: 1 10 256 (2560)
I0927 18:58:45.438175  1548 layer_factory.hpp:74] Creating layer lstm1_h_conted_7
I0927 18:58:45.438182  1548 net.cpp:84] Creating Layer lstm1_h_conted_7
I0927 18:58:45.438187  1548 net.cpp:381] lstm1_h_conted_7 <- h_7_lstm1_unit_7_1_split_0
I0927 18:58:45.438192  1548 net.cpp:381] lstm1_h_conted_7 <- cont_8_lstm1_cont_slice_7_split_0
I0927 18:58:45.438199  1548 net.cpp:339] lstm1_h_conted_7 -> h_conted_7
I0927 18:58:45.438208  1548 net.cpp:113] Setting up lstm1_h_conted_7
I0927 18:58:45.438217  1548 net.cpp:120] Top shape: 1 10 256 (2560)
I0927 18:58:45.438223  1548 layer_factory.hpp:74] Creating layer lstm1_transform_8
I0927 18:58:45.438235  1548 net.cpp:84] Creating Layer lstm1_transform_8
I0927 18:58:45.438241  1548 net.cpp:381] lstm1_transform_8 <- h_conted_7
I0927 18:58:45.438251  1548 net.cpp:339] lstm1_transform_8 -> W_hc_h_7
I0927 18:58:45.438261  1548 net.cpp:113] Setting up lstm1_transform_8
I0927 18:58:45.441584  1548 net.cpp:120] Top shape: 1 10 1024 (10240)
I0927 18:58:45.441594  1548 net.cpp:425] Sharing parameters 'W_hc' owned by layer 'lstm1_transform_1', param index 0
I0927 18:58:45.441599  1548 layer_factory.hpp:74] Creating layer lstm1_gate_input_8
I0927 18:58:45.441607  1548 net.cpp:84] Creating Layer lstm1_gate_input_8
I0927 18:58:45.441612  1548 net.cpp:381] lstm1_gate_input_8 <- W_hc_h_7
I0927 18:58:45.441618  1548 net.cpp:381] lstm1_gate_input_8 <- W_xc_x_8
I0927 18:58:45.441625  1548 net.cpp:339] lstm1_gate_input_8 -> gate_input_8
I0927 18:58:45.441634  1548 net.cpp:113] Setting up lstm1_gate_input_8
I0927 18:58:45.441642  1548 net.cpp:120] Top shape: 1 10 1024 (10240)
I0927 18:58:45.441646  1548 layer_factory.hpp:74] Creating layer lstm1_unit_8
I0927 18:58:45.441663  1548 net.cpp:84] Creating Layer lstm1_unit_8
I0927 18:58:45.441671  1548 net.cpp:381] lstm1_unit_8 <- c_7
I0927 18:58:45.441678  1548 net.cpp:381] lstm1_unit_8 <- gate_input_8
I0927 18:58:45.441684  1548 net.cpp:381] lstm1_unit_8 <- cont_8_lstm1_cont_slice_7_split_1
I0927 18:58:45.441691  1548 net.cpp:339] lstm1_unit_8 -> c_8
I0927 18:58:45.441699  1548 net.cpp:339] lstm1_unit_8 -> h_8
I0927 18:58:45.441707  1548 net.cpp:113] Setting up lstm1_unit_8
I0927 18:58:45.441721  1548 net.cpp:120] Top shape: 1 10 256 (2560)
I0927 18:58:45.441727  1548 net.cpp:120] Top shape: 1 10 256 (2560)
I0927 18:58:45.441731  1548 layer_factory.hpp:74] Creating layer h_8_lstm1_unit_8_1_split
I0927 18:58:45.441738  1548 net.cpp:84] Creating Layer h_8_lstm1_unit_8_1_split
I0927 18:58:45.441742  1548 net.cpp:381] h_8_lstm1_unit_8_1_split <- h_8
I0927 18:58:45.441750  1548 net.cpp:339] h_8_lstm1_unit_8_1_split -> h_8_lstm1_unit_8_1_split_0
I0927 18:58:45.441757  1548 net.cpp:339] h_8_lstm1_unit_8_1_split -> h_8_lstm1_unit_8_1_split_1
I0927 18:58:45.441766  1548 net.cpp:113] Setting up h_8_lstm1_unit_8_1_split
I0927 18:58:45.441773  1548 net.cpp:120] Top shape: 1 10 256 (2560)
I0927 18:58:45.441781  1548 net.cpp:120] Top shape: 1 10 256 (2560)
I0927 18:58:45.441784  1548 layer_factory.hpp:74] Creating layer lstm1_h_conted_8
I0927 18:58:45.441794  1548 net.cpp:84] Creating Layer lstm1_h_conted_8
I0927 18:58:45.441800  1548 net.cpp:381] lstm1_h_conted_8 <- h_8_lstm1_unit_8_1_split_0
I0927 18:58:45.441807  1548 net.cpp:381] lstm1_h_conted_8 <- cont_9_lstm1_cont_slice_8_split_0
I0927 18:58:45.441813  1548 net.cpp:339] lstm1_h_conted_8 -> h_conted_8
I0927 18:58:45.441820  1548 net.cpp:113] Setting up lstm1_h_conted_8
I0927 18:58:45.441830  1548 net.cpp:120] Top shape: 1 10 256 (2560)
I0927 18:58:45.441835  1548 layer_factory.hpp:74] Creating layer lstm1_transform_9
I0927 18:58:45.441848  1548 net.cpp:84] Creating Layer lstm1_transform_9
I0927 18:58:45.441859  1548 net.cpp:381] lstm1_transform_9 <- h_conted_8
I0927 18:58:45.441867  1548 net.cpp:339] lstm1_transform_9 -> W_hc_h_8
I0927 18:58:45.441877  1548 net.cpp:113] Setting up lstm1_transform_9
I0927 18:58:45.445211  1548 net.cpp:120] Top shape: 1 10 1024 (10240)
I0927 18:58:45.445221  1548 net.cpp:425] Sharing parameters 'W_hc' owned by layer 'lstm1_transform_1', param index 0
I0927 18:58:45.445226  1548 layer_factory.hpp:74] Creating layer lstm1_gate_input_9
I0927 18:58:45.445235  1548 net.cpp:84] Creating Layer lstm1_gate_input_9
I0927 18:58:45.445240  1548 net.cpp:381] lstm1_gate_input_9 <- W_hc_h_8
I0927 18:58:45.445245  1548 net.cpp:381] lstm1_gate_input_9 <- W_xc_x_9
I0927 18:58:45.445256  1548 net.cpp:339] lstm1_gate_input_9 -> gate_input_9
I0927 18:58:45.445266  1548 net.cpp:113] Setting up lstm1_gate_input_9
I0927 18:58:45.445274  1548 net.cpp:120] Top shape: 1 10 1024 (10240)
I0927 18:58:45.445278  1548 layer_factory.hpp:74] Creating layer lstm1_unit_9
I0927 18:58:45.445286  1548 net.cpp:84] Creating Layer lstm1_unit_9
I0927 18:58:45.445293  1548 net.cpp:381] lstm1_unit_9 <- c_8
I0927 18:58:45.445299  1548 net.cpp:381] lstm1_unit_9 <- gate_input_9
I0927 18:58:45.445305  1548 net.cpp:381] lstm1_unit_9 <- cont_9_lstm1_cont_slice_8_split_1
I0927 18:58:45.445317  1548 net.cpp:339] lstm1_unit_9 -> c_9
I0927 18:58:45.445348  1548 net.cpp:339] lstm1_unit_9 -> h_9
I0927 18:58:45.445358  1548 net.cpp:113] Setting up lstm1_unit_9
I0927 18:58:45.445368  1548 net.cpp:120] Top shape: 1 10 256 (2560)
I0927 18:58:45.445374  1548 net.cpp:120] Top shape: 1 10 256 (2560)
I0927 18:58:45.445379  1548 layer_factory.hpp:74] Creating layer h_9_lstm1_unit_9_1_split
I0927 18:58:45.445386  1548 net.cpp:84] Creating Layer h_9_lstm1_unit_9_1_split
I0927 18:58:45.445391  1548 net.cpp:381] h_9_lstm1_unit_9_1_split <- h_9
I0927 18:58:45.445399  1548 net.cpp:339] h_9_lstm1_unit_9_1_split -> h_9_lstm1_unit_9_1_split_0
I0927 18:58:45.445406  1548 net.cpp:339] h_9_lstm1_unit_9_1_split -> h_9_lstm1_unit_9_1_split_1
I0927 18:58:45.445415  1548 net.cpp:113] Setting up h_9_lstm1_unit_9_1_split
I0927 18:58:45.445423  1548 net.cpp:120] Top shape: 1 10 256 (2560)
I0927 18:58:45.445430  1548 net.cpp:120] Top shape: 1 10 256 (2560)
I0927 18:58:45.445436  1548 layer_factory.hpp:74] Creating layer lstm1_h_conted_9
I0927 18:58:45.445454  1548 net.cpp:84] Creating Layer lstm1_h_conted_9
I0927 18:58:45.445461  1548 net.cpp:381] lstm1_h_conted_9 <- h_9_lstm1_unit_9_1_split_0
I0927 18:58:45.445467  1548 net.cpp:381] lstm1_h_conted_9 <- cont_10_lstm1_cont_slice_9_split_0
I0927 18:58:45.445474  1548 net.cpp:339] lstm1_h_conted_9 -> h_conted_9
I0927 18:58:45.445482  1548 net.cpp:113] Setting up lstm1_h_conted_9
I0927 18:58:45.445489  1548 net.cpp:120] Top shape: 1 10 256 (2560)
I0927 18:58:45.445494  1548 layer_factory.hpp:74] Creating layer lstm1_transform_10
I0927 18:58:45.445503  1548 net.cpp:84] Creating Layer lstm1_transform_10
I0927 18:58:45.445509  1548 net.cpp:381] lstm1_transform_10 <- h_conted_9
I0927 18:58:45.445520  1548 net.cpp:339] lstm1_transform_10 -> W_hc_h_9
I0927 18:58:45.445529  1548 net.cpp:113] Setting up lstm1_transform_10
I0927 18:58:45.448861  1548 net.cpp:120] Top shape: 1 10 1024 (10240)
I0927 18:58:45.448871  1548 net.cpp:425] Sharing parameters 'W_hc' owned by layer 'lstm1_transform_1', param index 0
I0927 18:58:45.448876  1548 layer_factory.hpp:74] Creating layer lstm1_gate_input_10
I0927 18:58:45.448887  1548 net.cpp:84] Creating Layer lstm1_gate_input_10
I0927 18:58:45.448892  1548 net.cpp:381] lstm1_gate_input_10 <- W_hc_h_9
I0927 18:58:45.448899  1548 net.cpp:381] lstm1_gate_input_10 <- W_xc_x_10
I0927 18:58:45.448909  1548 net.cpp:339] lstm1_gate_input_10 -> gate_input_10
I0927 18:58:45.448920  1548 net.cpp:113] Setting up lstm1_gate_input_10
I0927 18:58:45.448930  1548 net.cpp:120] Top shape: 1 10 1024 (10240)
I0927 18:58:45.448935  1548 layer_factory.hpp:74] Creating layer lstm1_unit_10
I0927 18:58:45.448943  1548 net.cpp:84] Creating Layer lstm1_unit_10
I0927 18:58:45.448948  1548 net.cpp:381] lstm1_unit_10 <- c_9
I0927 18:58:45.448954  1548 net.cpp:381] lstm1_unit_10 <- gate_input_10
I0927 18:58:45.448961  1548 net.cpp:381] lstm1_unit_10 <- cont_10_lstm1_cont_slice_9_split_1
I0927 18:58:45.448969  1548 net.cpp:339] lstm1_unit_10 -> c_10
I0927 18:58:45.448979  1548 net.cpp:339] lstm1_unit_10 -> h_10
I0927 18:58:45.448988  1548 net.cpp:113] Setting up lstm1_unit_10
I0927 18:58:45.448997  1548 net.cpp:120] Top shape: 1 10 256 (2560)
I0927 18:58:45.449004  1548 net.cpp:120] Top shape: 1 10 256 (2560)
I0927 18:58:45.449008  1548 layer_factory.hpp:74] Creating layer h_10_lstm1_unit_10_1_split
I0927 18:58:45.449020  1548 net.cpp:84] Creating Layer h_10_lstm1_unit_10_1_split
I0927 18:58:45.449026  1548 net.cpp:381] h_10_lstm1_unit_10_1_split <- h_10
I0927 18:58:45.449033  1548 net.cpp:339] h_10_lstm1_unit_10_1_split -> h_10_lstm1_unit_10_1_split_0
I0927 18:58:45.449041  1548 net.cpp:339] h_10_lstm1_unit_10_1_split -> h_10_lstm1_unit_10_1_split_1
I0927 18:58:45.449050  1548 net.cpp:113] Setting up h_10_lstm1_unit_10_1_split
I0927 18:58:45.449062  1548 net.cpp:120] Top shape: 1 10 256 (2560)
I0927 18:58:45.449069  1548 net.cpp:120] Top shape: 1 10 256 (2560)
I0927 18:58:45.449074  1548 layer_factory.hpp:74] Creating layer lstm1_h_conted_10
I0927 18:58:45.449081  1548 net.cpp:84] Creating Layer lstm1_h_conted_10
I0927 18:58:45.449087  1548 net.cpp:381] lstm1_h_conted_10 <- h_10_lstm1_unit_10_1_split_0
I0927 18:58:45.449095  1548 net.cpp:381] lstm1_h_conted_10 <- cont_11_lstm1_cont_slice_10_split_0
I0927 18:58:45.449102  1548 net.cpp:339] lstm1_h_conted_10 -> h_conted_10
I0927 18:58:45.449110  1548 net.cpp:113] Setting up lstm1_h_conted_10
I0927 18:58:45.449120  1548 net.cpp:120] Top shape: 1 10 256 (2560)
I0927 18:58:45.449126  1548 layer_factory.hpp:74] Creating layer lstm1_transform_11
I0927 18:58:45.449137  1548 net.cpp:84] Creating Layer lstm1_transform_11
I0927 18:58:45.449143  1548 net.cpp:381] lstm1_transform_11 <- h_conted_10
I0927 18:58:45.449151  1548 net.cpp:339] lstm1_transform_11 -> W_hc_h_10
I0927 18:58:45.449159  1548 net.cpp:113] Setting up lstm1_transform_11
I0927 18:58:45.452497  1548 net.cpp:120] Top shape: 1 10 1024 (10240)
I0927 18:58:45.452507  1548 net.cpp:425] Sharing parameters 'W_hc' owned by layer 'lstm1_transform_1', param index 0
I0927 18:58:45.452512  1548 layer_factory.hpp:74] Creating layer lstm1_gate_input_11
I0927 18:58:45.452519  1548 net.cpp:84] Creating Layer lstm1_gate_input_11
I0927 18:58:45.452524  1548 net.cpp:381] lstm1_gate_input_11 <- W_hc_h_10
I0927 18:58:45.452531  1548 net.cpp:381] lstm1_gate_input_11 <- W_xc_x_11
I0927 18:58:45.452538  1548 net.cpp:339] lstm1_gate_input_11 -> gate_input_11
I0927 18:58:45.452546  1548 net.cpp:113] Setting up lstm1_gate_input_11
I0927 18:58:45.452553  1548 net.cpp:120] Top shape: 1 10 1024 (10240)
I0927 18:58:45.452558  1548 layer_factory.hpp:74] Creating layer lstm1_unit_11
I0927 18:58:45.452565  1548 net.cpp:84] Creating Layer lstm1_unit_11
I0927 18:58:45.452570  1548 net.cpp:381] lstm1_unit_11 <- c_10
I0927 18:58:45.452577  1548 net.cpp:381] lstm1_unit_11 <- gate_input_11
I0927 18:58:45.452582  1548 net.cpp:381] lstm1_unit_11 <- cont_11_lstm1_cont_slice_10_split_1
I0927 18:58:45.452594  1548 net.cpp:339] lstm1_unit_11 -> c_11
I0927 18:58:45.452605  1548 net.cpp:339] lstm1_unit_11 -> h_11
I0927 18:58:45.452613  1548 net.cpp:113] Setting up lstm1_unit_11
I0927 18:58:45.452623  1548 net.cpp:120] Top shape: 1 10 256 (2560)
I0927 18:58:45.452630  1548 net.cpp:120] Top shape: 1 10 256 (2560)
I0927 18:58:45.452635  1548 layer_factory.hpp:74] Creating layer h_11_lstm1_unit_11_1_split
I0927 18:58:45.452641  1548 net.cpp:84] Creating Layer h_11_lstm1_unit_11_1_split
I0927 18:58:45.452646  1548 net.cpp:381] h_11_lstm1_unit_11_1_split <- h_11
I0927 18:58:45.452656  1548 net.cpp:339] h_11_lstm1_unit_11_1_split -> h_11_lstm1_unit_11_1_split_0
I0927 18:58:45.452666  1548 net.cpp:339] h_11_lstm1_unit_11_1_split -> h_11_lstm1_unit_11_1_split_1
I0927 18:58:45.452674  1548 net.cpp:113] Setting up h_11_lstm1_unit_11_1_split
I0927 18:58:45.452687  1548 net.cpp:120] Top shape: 1 10 256 (2560)
I0927 18:58:45.452692  1548 net.cpp:120] Top shape: 1 10 256 (2560)
I0927 18:58:45.452697  1548 layer_factory.hpp:74] Creating layer lstm1_h_conted_11
I0927 18:58:45.452703  1548 net.cpp:84] Creating Layer lstm1_h_conted_11
I0927 18:58:45.452708  1548 net.cpp:381] lstm1_h_conted_11 <- h_11_lstm1_unit_11_1_split_0
I0927 18:58:45.452715  1548 net.cpp:381] lstm1_h_conted_11 <- cont_12_lstm1_cont_slice_11_split_0
I0927 18:58:45.452725  1548 net.cpp:339] lstm1_h_conted_11 -> h_conted_11
I0927 18:58:45.452734  1548 net.cpp:113] Setting up lstm1_h_conted_11
I0927 18:58:45.452744  1548 net.cpp:120] Top shape: 1 10 256 (2560)
I0927 18:58:45.452749  1548 layer_factory.hpp:74] Creating layer lstm1_transform_12
I0927 18:58:45.452756  1548 net.cpp:84] Creating Layer lstm1_transform_12
I0927 18:58:45.452762  1548 net.cpp:381] lstm1_transform_12 <- h_conted_11
I0927 18:58:45.452772  1548 net.cpp:339] lstm1_transform_12 -> W_hc_h_11
I0927 18:58:45.452782  1548 net.cpp:113] Setting up lstm1_transform_12
I0927 18:58:45.456117  1548 net.cpp:120] Top shape: 1 10 1024 (10240)
I0927 18:58:45.456128  1548 net.cpp:425] Sharing parameters 'W_hc' owned by layer 'lstm1_transform_1', param index 0
I0927 18:58:45.456133  1548 layer_factory.hpp:74] Creating layer lstm1_gate_input_12
I0927 18:58:45.456141  1548 net.cpp:84] Creating Layer lstm1_gate_input_12
I0927 18:58:45.456146  1548 net.cpp:381] lstm1_gate_input_12 <- W_hc_h_11
I0927 18:58:45.456151  1548 net.cpp:381] lstm1_gate_input_12 <- W_xc_x_12
I0927 18:58:45.456159  1548 net.cpp:339] lstm1_gate_input_12 -> gate_input_12
I0927 18:58:45.456167  1548 net.cpp:113] Setting up lstm1_gate_input_12
I0927 18:58:45.456176  1548 net.cpp:120] Top shape: 1 10 1024 (10240)
I0927 18:58:45.456179  1548 layer_factory.hpp:74] Creating layer lstm1_unit_12
I0927 18:58:45.456190  1548 net.cpp:84] Creating Layer lstm1_unit_12
I0927 18:58:45.456197  1548 net.cpp:381] lstm1_unit_12 <- c_11
I0927 18:58:45.456203  1548 net.cpp:381] lstm1_unit_12 <- gate_input_12
I0927 18:58:45.456209  1548 net.cpp:381] lstm1_unit_12 <- cont_12_lstm1_cont_slice_11_split_1
I0927 18:58:45.456219  1548 net.cpp:339] lstm1_unit_12 -> c_12
I0927 18:58:45.456229  1548 net.cpp:339] lstm1_unit_12 -> h_12
I0927 18:58:45.456243  1548 net.cpp:113] Setting up lstm1_unit_12
I0927 18:58:45.456251  1548 net.cpp:120] Top shape: 1 10 256 (2560)
I0927 18:58:45.456259  1548 net.cpp:120] Top shape: 1 10 256 (2560)
I0927 18:58:45.456264  1548 layer_factory.hpp:74] Creating layer h_12_lstm1_unit_12_1_split
I0927 18:58:45.456269  1548 net.cpp:84] Creating Layer h_12_lstm1_unit_12_1_split
I0927 18:58:45.456274  1548 net.cpp:381] h_12_lstm1_unit_12_1_split <- h_12
I0927 18:58:45.456281  1548 net.cpp:339] h_12_lstm1_unit_12_1_split -> h_12_lstm1_unit_12_1_split_0
I0927 18:58:45.456290  1548 net.cpp:339] h_12_lstm1_unit_12_1_split -> h_12_lstm1_unit_12_1_split_1
I0927 18:58:45.456296  1548 net.cpp:113] Setting up h_12_lstm1_unit_12_1_split
I0927 18:58:45.456303  1548 net.cpp:120] Top shape: 1 10 256 (2560)
I0927 18:58:45.456310  1548 net.cpp:120] Top shape: 1 10 256 (2560)
I0927 18:58:45.456315  1548 layer_factory.hpp:74] Creating layer lstm1_h_conted_12
I0927 18:58:45.456324  1548 net.cpp:84] Creating Layer lstm1_h_conted_12
I0927 18:58:45.456331  1548 net.cpp:381] lstm1_h_conted_12 <- h_12_lstm1_unit_12_1_split_0
I0927 18:58:45.456337  1548 net.cpp:381] lstm1_h_conted_12 <- cont_13_lstm1_cont_slice_12_split_0
I0927 18:58:45.456346  1548 net.cpp:339] lstm1_h_conted_12 -> h_conted_12
I0927 18:58:45.456353  1548 net.cpp:113] Setting up lstm1_h_conted_12
I0927 18:58:45.456362  1548 net.cpp:120] Top shape: 1 10 256 (2560)
I0927 18:58:45.456368  1548 layer_factory.hpp:74] Creating layer lstm1_transform_13
I0927 18:58:45.456382  1548 net.cpp:84] Creating Layer lstm1_transform_13
I0927 18:58:45.456387  1548 net.cpp:381] lstm1_transform_13 <- h_conted_12
I0927 18:58:45.456395  1548 net.cpp:339] lstm1_transform_13 -> W_hc_h_12
I0927 18:58:45.456404  1548 net.cpp:113] Setting up lstm1_transform_13
I0927 18:58:45.459733  1548 net.cpp:120] Top shape: 1 10 1024 (10240)
I0927 18:58:45.459743  1548 net.cpp:425] Sharing parameters 'W_hc' owned by layer 'lstm1_transform_1', param index 0
I0927 18:58:45.459748  1548 layer_factory.hpp:74] Creating layer lstm1_gate_input_13
I0927 18:58:45.459760  1548 net.cpp:84] Creating Layer lstm1_gate_input_13
I0927 18:58:45.459765  1548 net.cpp:381] lstm1_gate_input_13 <- W_hc_h_12
I0927 18:58:45.459771  1548 net.cpp:381] lstm1_gate_input_13 <- W_xc_x_13
I0927 18:58:45.459779  1548 net.cpp:339] lstm1_gate_input_13 -> gate_input_13
I0927 18:58:45.459786  1548 net.cpp:113] Setting up lstm1_gate_input_13
I0927 18:58:45.459794  1548 net.cpp:120] Top shape: 1 10 1024 (10240)
I0927 18:58:45.459799  1548 layer_factory.hpp:74] Creating layer lstm1_unit_13
I0927 18:58:45.459805  1548 net.cpp:84] Creating Layer lstm1_unit_13
I0927 18:58:45.459810  1548 net.cpp:381] lstm1_unit_13 <- c_12
I0927 18:58:45.459820  1548 net.cpp:381] lstm1_unit_13 <- gate_input_13
I0927 18:58:45.459830  1548 net.cpp:381] lstm1_unit_13 <- cont_13_lstm1_cont_slice_12_split_1
I0927 18:58:45.459836  1548 net.cpp:339] lstm1_unit_13 -> c_13
I0927 18:58:45.459846  1548 net.cpp:339] lstm1_unit_13 -> h_13
I0927 18:58:45.459856  1548 net.cpp:113] Setting up lstm1_unit_13
I0927 18:58:45.459866  1548 net.cpp:120] Top shape: 1 10 256 (2560)
I0927 18:58:45.459872  1548 net.cpp:120] Top shape: 1 10 256 (2560)
I0927 18:58:45.459877  1548 layer_factory.hpp:74] Creating layer h_13_lstm1_unit_13_1_split
I0927 18:58:45.459882  1548 net.cpp:84] Creating Layer h_13_lstm1_unit_13_1_split
I0927 18:58:45.459892  1548 net.cpp:381] h_13_lstm1_unit_13_1_split <- h_13
I0927 18:58:45.459903  1548 net.cpp:339] h_13_lstm1_unit_13_1_split -> h_13_lstm1_unit_13_1_split_0
I0927 18:58:45.459913  1548 net.cpp:339] h_13_lstm1_unit_13_1_split -> h_13_lstm1_unit_13_1_split_1
I0927 18:58:45.459920  1548 net.cpp:113] Setting up h_13_lstm1_unit_13_1_split
I0927 18:58:45.459928  1548 net.cpp:120] Top shape: 1 10 256 (2560)
I0927 18:58:45.459933  1548 net.cpp:120] Top shape: 1 10 256 (2560)
I0927 18:58:45.459939  1548 layer_factory.hpp:74] Creating layer lstm1_h_conted_13
I0927 18:58:45.459945  1548 net.cpp:84] Creating Layer lstm1_h_conted_13
I0927 18:58:45.459950  1548 net.cpp:381] lstm1_h_conted_13 <- h_13_lstm1_unit_13_1_split_0
I0927 18:58:45.459956  1548 net.cpp:381] lstm1_h_conted_13 <- cont_14_lstm1_cont_slice_13_split_0
I0927 18:58:45.459969  1548 net.cpp:339] lstm1_h_conted_13 -> h_conted_13
I0927 18:58:45.459977  1548 net.cpp:113] Setting up lstm1_h_conted_13
I0927 18:58:45.459985  1548 net.cpp:120] Top shape: 1 10 256 (2560)
I0927 18:58:45.459990  1548 layer_factory.hpp:74] Creating layer lstm1_transform_14
I0927 18:58:45.459998  1548 net.cpp:84] Creating Layer lstm1_transform_14
I0927 18:58:45.460003  1548 net.cpp:381] lstm1_transform_14 <- h_conted_13
I0927 18:58:45.460014  1548 net.cpp:339] lstm1_transform_14 -> W_hc_h_13
I0927 18:58:45.460023  1548 net.cpp:113] Setting up lstm1_transform_14
I0927 18:58:45.463345  1548 net.cpp:120] Top shape: 1 10 1024 (10240)
I0927 18:58:45.463354  1548 net.cpp:425] Sharing parameters 'W_hc' owned by layer 'lstm1_transform_1', param index 0
I0927 18:58:45.463361  1548 layer_factory.hpp:74] Creating layer lstm1_gate_input_14
I0927 18:58:45.463378  1548 net.cpp:84] Creating Layer lstm1_gate_input_14
I0927 18:58:45.463383  1548 net.cpp:381] lstm1_gate_input_14 <- W_hc_h_13
I0927 18:58:45.463389  1548 net.cpp:381] lstm1_gate_input_14 <- W_xc_x_14
I0927 18:58:45.463395  1548 net.cpp:339] lstm1_gate_input_14 -> gate_input_14
I0927 18:58:45.463408  1548 net.cpp:113] Setting up lstm1_gate_input_14
I0927 18:58:45.463418  1548 net.cpp:120] Top shape: 1 10 1024 (10240)
I0927 18:58:45.463423  1548 layer_factory.hpp:74] Creating layer lstm1_unit_14
I0927 18:58:45.463430  1548 net.cpp:84] Creating Layer lstm1_unit_14
I0927 18:58:45.463435  1548 net.cpp:381] lstm1_unit_14 <- c_13
I0927 18:58:45.463441  1548 net.cpp:381] lstm1_unit_14 <- gate_input_14
I0927 18:58:45.463449  1548 net.cpp:381] lstm1_unit_14 <- cont_14_lstm1_cont_slice_13_split_1
I0927 18:58:45.463456  1548 net.cpp:339] lstm1_unit_14 -> c_14
I0927 18:58:45.463469  1548 net.cpp:339] lstm1_unit_14 -> h_14
I0927 18:58:45.463479  1548 net.cpp:113] Setting up lstm1_unit_14
I0927 18:58:45.463487  1548 net.cpp:120] Top shape: 1 10 256 (2560)
I0927 18:58:45.463495  1548 net.cpp:120] Top shape: 1 10 256 (2560)
I0927 18:58:45.463500  1548 layer_factory.hpp:74] Creating layer h_14_lstm1_unit_14_1_split
I0927 18:58:45.463505  1548 net.cpp:84] Creating Layer h_14_lstm1_unit_14_1_split
I0927 18:58:45.463510  1548 net.cpp:381] h_14_lstm1_unit_14_1_split <- h_14
I0927 18:58:45.463520  1548 net.cpp:339] h_14_lstm1_unit_14_1_split -> h_14_lstm1_unit_14_1_split_0
I0927 18:58:45.463529  1548 net.cpp:339] h_14_lstm1_unit_14_1_split -> h_14_lstm1_unit_14_1_split_1
I0927 18:58:45.463537  1548 net.cpp:113] Setting up h_14_lstm1_unit_14_1_split
I0927 18:58:45.463546  1548 net.cpp:120] Top shape: 1 10 256 (2560)
I0927 18:58:45.463552  1548 net.cpp:120] Top shape: 1 10 256 (2560)
I0927 18:58:45.463557  1548 layer_factory.hpp:74] Creating layer lstm1_h_conted_14
I0927 18:58:45.463563  1548 net.cpp:84] Creating Layer lstm1_h_conted_14
I0927 18:58:45.463567  1548 net.cpp:381] lstm1_h_conted_14 <- h_14_lstm1_unit_14_1_split_0
I0927 18:58:45.463574  1548 net.cpp:381] lstm1_h_conted_14 <- cont_15_lstm1_cont_slice_14_split_0
I0927 18:58:45.463582  1548 net.cpp:339] lstm1_h_conted_14 -> h_conted_14
I0927 18:58:45.463593  1548 net.cpp:113] Setting up lstm1_h_conted_14
I0927 18:58:45.463601  1548 net.cpp:120] Top shape: 1 10 256 (2560)
I0927 18:58:45.463606  1548 layer_factory.hpp:74] Creating layer lstm1_transform_15
I0927 18:58:45.463618  1548 net.cpp:84] Creating Layer lstm1_transform_15
I0927 18:58:45.463624  1548 net.cpp:381] lstm1_transform_15 <- h_conted_14
I0927 18:58:45.463635  1548 net.cpp:339] lstm1_transform_15 -> W_hc_h_14
I0927 18:58:45.463645  1548 net.cpp:113] Setting up lstm1_transform_15
I0927 18:58:45.466989  1548 net.cpp:120] Top shape: 1 10 1024 (10240)
I0927 18:58:45.467005  1548 net.cpp:425] Sharing parameters 'W_hc' owned by layer 'lstm1_transform_1', param index 0
I0927 18:58:45.467010  1548 layer_factory.hpp:74] Creating layer lstm1_gate_input_15
I0927 18:58:45.467017  1548 net.cpp:84] Creating Layer lstm1_gate_input_15
I0927 18:58:45.467022  1548 net.cpp:381] lstm1_gate_input_15 <- W_hc_h_14
I0927 18:58:45.467030  1548 net.cpp:381] lstm1_gate_input_15 <- W_xc_x_15
I0927 18:58:45.467039  1548 net.cpp:339] lstm1_gate_input_15 -> gate_input_15
I0927 18:58:45.467047  1548 net.cpp:113] Setting up lstm1_gate_input_15
I0927 18:58:45.467056  1548 net.cpp:120] Top shape: 1 10 1024 (10240)
I0927 18:58:45.467061  1548 layer_factory.hpp:74] Creating layer lstm1_unit_15
I0927 18:58:45.467067  1548 net.cpp:84] Creating Layer lstm1_unit_15
I0927 18:58:45.467072  1548 net.cpp:381] lstm1_unit_15 <- c_14
I0927 18:58:45.467078  1548 net.cpp:381] lstm1_unit_15 <- gate_input_15
I0927 18:58:45.467084  1548 net.cpp:381] lstm1_unit_15 <- cont_15_lstm1_cont_slice_14_split_1
I0927 18:58:45.467090  1548 net.cpp:339] lstm1_unit_15 -> c_15
I0927 18:58:45.467103  1548 net.cpp:339] lstm1_unit_15 -> h_15
I0927 18:58:45.467111  1548 net.cpp:113] Setting up lstm1_unit_15
I0927 18:58:45.467120  1548 net.cpp:120] Top shape: 1 10 256 (2560)
I0927 18:58:45.467128  1548 net.cpp:120] Top shape: 1 10 256 (2560)
I0927 18:58:45.467131  1548 layer_factory.hpp:74] Creating layer h_15_lstm1_unit_15_1_split
I0927 18:58:45.467138  1548 net.cpp:84] Creating Layer h_15_lstm1_unit_15_1_split
I0927 18:58:45.467141  1548 net.cpp:381] h_15_lstm1_unit_15_1_split <- h_15
I0927 18:58:45.467149  1548 net.cpp:339] h_15_lstm1_unit_15_1_split -> h_15_lstm1_unit_15_1_split_0
I0927 18:58:45.467156  1548 net.cpp:339] h_15_lstm1_unit_15_1_split -> h_15_lstm1_unit_15_1_split_1
I0927 18:58:45.467164  1548 net.cpp:113] Setting up h_15_lstm1_unit_15_1_split
I0927 18:58:45.467171  1548 net.cpp:120] Top shape: 1 10 256 (2560)
I0927 18:58:45.467178  1548 net.cpp:120] Top shape: 1 10 256 (2560)
I0927 18:58:45.467182  1548 layer_factory.hpp:74] Creating layer lstm1_h_conted_15
I0927 18:58:45.467192  1548 net.cpp:84] Creating Layer lstm1_h_conted_15
I0927 18:58:45.467198  1548 net.cpp:381] lstm1_h_conted_15 <- h_15_lstm1_unit_15_1_split_0
I0927 18:58:45.467205  1548 net.cpp:381] lstm1_h_conted_15 <- cont_16_lstm1_cont_slice_15_split_0
I0927 18:58:45.467211  1548 net.cpp:339] lstm1_h_conted_15 -> h_conted_15
I0927 18:58:45.467221  1548 net.cpp:113] Setting up lstm1_h_conted_15
I0927 18:58:45.467229  1548 net.cpp:120] Top shape: 1 10 256 (2560)
I0927 18:58:45.467234  1548 layer_factory.hpp:74] Creating layer lstm1_transform_16
I0927 18:58:45.467247  1548 net.cpp:84] Creating Layer lstm1_transform_16
I0927 18:58:45.467252  1548 net.cpp:381] lstm1_transform_16 <- h_conted_15
I0927 18:58:45.467259  1548 net.cpp:339] lstm1_transform_16 -> W_hc_h_15
I0927 18:58:45.467268  1548 net.cpp:113] Setting up lstm1_transform_16
I0927 18:58:45.470582  1548 net.cpp:120] Top shape: 1 10 1024 (10240)
I0927 18:58:45.470592  1548 net.cpp:425] Sharing parameters 'W_hc' owned by layer 'lstm1_transform_1', param index 0
I0927 18:58:45.470597  1548 layer_factory.hpp:74] Creating layer lstm1_gate_input_16
I0927 18:58:45.470607  1548 net.cpp:84] Creating Layer lstm1_gate_input_16
I0927 18:58:45.470613  1548 net.cpp:381] lstm1_gate_input_16 <- W_hc_h_15
I0927 18:58:45.470620  1548 net.cpp:381] lstm1_gate_input_16 <- W_xc_x_16
I0927 18:58:45.470628  1548 net.cpp:339] lstm1_gate_input_16 -> gate_input_16
I0927 18:58:45.470635  1548 net.cpp:113] Setting up lstm1_gate_input_16
I0927 18:58:45.470643  1548 net.cpp:120] Top shape: 1 10 1024 (10240)
I0927 18:58:45.470648  1548 layer_factory.hpp:74] Creating layer lstm1_unit_16
I0927 18:58:45.470657  1548 net.cpp:84] Creating Layer lstm1_unit_16
I0927 18:58:45.470666  1548 net.cpp:381] lstm1_unit_16 <- c_15
I0927 18:58:45.470672  1548 net.cpp:381] lstm1_unit_16 <- gate_input_16
I0927 18:58:45.470677  1548 net.cpp:381] lstm1_unit_16 <- cont_16_lstm1_cont_slice_15_split_1
I0927 18:58:45.470685  1548 net.cpp:339] lstm1_unit_16 -> c_16
I0927 18:58:45.470698  1548 net.cpp:339] lstm1_unit_16 -> h_16
I0927 18:58:45.470705  1548 net.cpp:113] Setting up lstm1_unit_16
I0927 18:58:45.470713  1548 net.cpp:120] Top shape: 1 10 256 (2560)
I0927 18:58:45.470719  1548 net.cpp:120] Top shape: 1 10 256 (2560)
I0927 18:58:45.470726  1548 layer_factory.hpp:74] Creating layer lstm1_
I0927 18:58:45.470732  1548 net.cpp:84] Creating Layer lstm1_
I0927 18:58:45.470736  1548 net.cpp:381] lstm1_ <- c_16
I0927 18:58:45.470746  1548 net.cpp:339] lstm1_ -> c_T
I0927 18:58:45.470753  1548 net.cpp:113] Setting up lstm1_
I0927 18:58:45.470760  1548 net.cpp:120] Top shape: 1 10 256 (2560)
I0927 18:58:45.470764  1548 layer_factory.hpp:74] Creating layer lstm1_h_concat
I0927 18:58:45.470775  1548 net.cpp:84] Creating Layer lstm1_h_concat
I0927 18:58:45.470782  1548 net.cpp:381] lstm1_h_concat <- h_1_lstm1_unit_1_1_split_1
I0927 18:58:45.470789  1548 net.cpp:381] lstm1_h_concat <- h_2_lstm1_unit_2_1_split_1
I0927 18:58:45.470799  1548 net.cpp:381] lstm1_h_concat <- h_3_lstm1_unit_3_1_split_1
…
