…
I0930 10:28:04.734927  1561 net.cpp:258] The NetState phase (0) differed from the phase (1) specified by a rule in layer reshape-label
I0930 10:28:04.734932  1561 net.cpp:258] The NetState phase (0) differed from the phase (1) specified by a rule in layer reshape-cm
I0930 10:28:04.735371  1561 net.cpp:42] Initializing net from parameters: 
name: "lstm_joints"
state {
  phase: TRAIN
}
layer {
  name: "data"
  type: "Python"
  top: "data"
  top: "label"
  top: "clip_markers"
  include {
    phase: TRAIN
  }
  python_param {
    module: "sequence_input_layer"
    layer: "videoReadTrain_RGB"
  }
}
layer {
  name: "conv1"
  type: "Convolution"
  bottom: "data"
  top: "conv1"
  param {
    lr_mult: 1
    decay_mult: 1
  }
  param {
    lr_mult: 2
    decay_mult: 0
  }
  convolution_param {
    num_output: 96
    kernel_size: 7
    stride: 2
    weight_filler {
      type: "gaussian"
      std: 0.01
    }
    bias_filler {
      type: "constant"
      value: 0.1
    }
  }
}
layer {
  name: "relu1"
  type: "ReLU"
  bottom: "conv1"
  top: "conv1"
}
layer {
  name: "pool1"
  type: "Pooling"
  bottom: "conv1"
  top: "pool1"
  pooling_param {
    pool: MAX
    kernel_size: 3
    stride: 2
  }
}
layer {
  name: "norm1"
  type: "LRN"
  bottom: "pool1"
  top: "norm1"
  lrn_param {
    local_size: 5
    alpha: 0.0001
    beta: 0.75
  }
}
layer {
  name: "conv2"
  type: "Convolution"
  bottom: "norm1"
  top: "conv2"
  param {
    lr_mult: 1
    decay_mult: 1
  }
  param {
    lr_mult: 2
    decay_mult: 0
  }
  convolution_param {
    num_output: 384
    kernel_size: 5
    group: 2
    stride: 2
    weight_filler {
      type: "gaussian"
      std: 0.01
    }
    bias_filler {
      type: "constant"
      value: 0.1
    }
  }
}
layer {
  name: "relu2"
  type: "ReLU"
  bottom: "conv2"
  top: "conv2"
}
layer {
  name: "pool2"
  type: "Pooling"
  bottom: "conv2"
  top: "pool2"
  pooling_param {
    pool: MAX
    kernel_size: 3
    stride: 2
  }
}
layer {
  name: "norm2"
  type: "LRN"
  bottom: "pool2"
  top: "norm2"
  lrn_param {
    local_size: 5
    alpha: 0.0001
    beta: 0.75
  }
}
layer {
  name: "conv3"
  type: "Convolution"
  bottom: "norm2"
  top: "conv3"
  param {
    lr_mult: 1
    decay_mult: 1
  }
  param {
    lr_mult: 2
    decay_mult: 0
  }
  convolution_param {
    num_output: 512
    pad: 1
    kernel_size: 3
    weight_filler {
      type: "gaussian"
      std: 0.01
    }
    bias_filler {
      type: "constant"
      value: 0.1
    }
  }
}
layer {
  name: "relu3"
  type: "ReLU"
  bottom: "conv3"
  top: "conv3"
}
layer {
  name: "conv4"
  type: "Convolution"
  bottom: "conv3"
  top: "conv4"
  param {
    lr_mult: 1
    decay_mult: 1
  }
  param {
    lr_mult: 2
    decay_mult: 0
  }
  convolution_param {
    num_output: 512
    pad: 1
    kernel_size: 3
    group: 2
    weight_filler {
      type: "gaussian"
      std: 0.01
    }
    bias_filler {
      type: "constant"
      value: 0.1
    }
  }
}
layer {
  name: "relu4"
  type: "ReLU"
  bottom: "conv4"
  top: "conv4"
}
layer {
  name: "conv5"
  type: "Convolution"
  bottom: "conv4"
  top: "conv5"
  param {
    lr_mult: 1
    decay_mult: 1
  }
  param {
    lr_mult: 2
    decay_mult: 0
  }
  convolution_param {
    num_output: 384
    pad: 1
    kernel_size: 3
    group: 2
    weight_filler {
      type: "gaussian"
      std: 0.01
    }
    bias_filler {
      type: "constant"
      value: 0.1
    }
  }
}
layer {
  name: "relu5"
  type: "ReLU"
  bottom: "conv5"
  top: "conv5"
}
layer {
  name: "pool5"
  type: "Pooling"
  bottom: "conv5"
  top: "pool5"
  pooling_param {
    pool: MAX
    kernel_size: 3
    stride: 2
  }
}
layer {
  name: "fc6"
  type: "InnerProduct"
  bottom: "pool5"
  top: "fc6"
  param {
    lr_mult: 1
    decay_mult: 1
  }
  param {
    lr_mult: 2
    decay_mult: 0
  }
  inner_product_param {
    num_output: 4096
    weight_filler {
      type: "gaussian"
      std: 0.01
    }
    bias_filler {
      type: "constant"
      value: 0.1
    }
  }
}
layer {
  name: "relu6"
  type: "ReLU"
  bottom: "fc6"
  top: "fc6"
}
layer {
  name: "drop6"
  type: "Dropout"
  bottom: "fc6"
  top: "fc6"
  dropout_param {
    dropout_ratio: 0.9
  }
}
layer {
  name: "reshape-data"
  type: "Reshape"
  bottom: "fc6"
  top: "fc6-reshape"
  include {
    phase: TRAIN
  }
  reshape_param {
    shape {
      dim: 16
      dim: 15
      dim: 4096
    }
  }
}
layer {
  name: "reshape-label"
  type: "Reshape"
  bottom: "label"
  top: "reshape-label"
  include {
    phase: TRAIN
  }
  reshape_param {
    shape {
      dim: 16
      dim: 15
    }
  }
}
layer {
  name: "reshape-cm"
  type: "Reshape"
  bottom: "clip_markers"
  top: "reshape-cm"
  include {
    phase: TRAIN
  }
  reshape_param {
    shape {
      dim: 16
      dim: 15
    }
  }
}
layer {
  name: "lstm1"
  type: "LSTM"
  bottom: "fc6-reshape"
  bottom: "reshape-cm"
  top: "lstm1"
  recurrent_param {
    num_output: 256
    weight_filler {
      type: "uniform"
      min: -0.01
      max: 0.01
    }
    bias_filler {
      type: "constant"
      value: 0
    }
  }
}
layer {
  name: "lstm1-drop"
  type: "Dropout"
  bottom: "lstm1"
  top: "lstm1-drop"
  dropout_param {
    dropout_ratio: 0.5
  }
}
layer {
  name: "triplet_lstm"
  type: "Python"
  bottom: "lstm1-drop"
  bottom: "reshape-label"
  top: "anchor-lstm"
  top: "positive-lstm"
  top: "negative-lstm"
  python_param {
    module: "mylayers"
    layer: "TripletLSTMLayer"
  }
}
layer {
  name: "loss"
  type: "Python"
  bottom: "anchor-lstm"
  bottom: "positive-lstm"
  bottom: "negative-lstm"
  top: "loss"
  python_param {
    module: "mylayers"
    layer: "TripletLossLayer"
  }
}
I0930 10:28:04.735589  1561 layer_factory.hpp:74] Creating layer data
I0930 10:28:07.636078  1561 net.cpp:84] Creating Layer data
I0930 10:28:07.636137  1561 net.cpp:339] data -> data
I0930 10:28:07.636175  1561 net.cpp:339] data -> label
I0930 10:28:07.636198  1561 net.cpp:339] data -> clip_markers
I0930 10:28:07.636212  1561 net.cpp:113] Setting up data
I0930 10:28:11.767109  1561 net.cpp:120] Top shape: 240 3 227 227 (37100880)
I0930 10:28:11.767159  1561 net.cpp:120] Top shape: 240 (240)
I0930 10:28:11.767168  1561 net.cpp:120] Top shape: 240 (240)
I0930 10:28:11.767190  1561 layer_factory.hpp:74] Creating layer conv1
I0930 10:28:11.767246  1561 net.cpp:84] Creating Layer conv1
I0930 10:28:11.767261  1561 net.cpp:381] conv1 <- data
I0930 10:28:11.767307  1561 net.cpp:339] conv1 -> conv1
I0930 10:28:11.767341  1561 net.cpp:113] Setting up conv1
I0930 10:28:11.767951  1561 net.cpp:120] Top shape: 240 96 111 111 (283875840)
I0930 10:28:11.767985  1561 layer_factory.hpp:74] Creating layer relu1
I0930 10:28:11.767998  1561 net.cpp:84] Creating Layer relu1
I0930 10:28:11.768004  1561 net.cpp:381] relu1 <- conv1
I0930 10:28:11.768013  1561 net.cpp:328] relu1 -> conv1 (in-place)
I0930 10:28:11.768023  1561 net.cpp:113] Setting up relu1
I0930 10:28:11.768038  1561 net.cpp:120] Top shape: 240 96 111 111 (283875840)
I0930 10:28:11.768054  1561 layer_factory.hpp:74] Creating layer pool1
I0930 10:28:11.768067  1561 net.cpp:84] Creating Layer pool1
I0930 10:28:11.768074  1561 net.cpp:381] pool1 <- conv1
I0930 10:28:11.768084  1561 net.cpp:339] pool1 -> pool1
I0930 10:28:11.768100  1561 net.cpp:113] Setting up pool1
I0930 10:28:11.768134  1561 net.cpp:120] Top shape: 240 96 55 55 (69696000)
I0930 10:28:11.768141  1561 layer_factory.hpp:74] Creating layer norm1
I0930 10:28:11.768163  1561 net.cpp:84] Creating Layer norm1
I0930 10:28:11.768170  1561 net.cpp:381] norm1 <- pool1
I0930 10:28:11.768179  1561 net.cpp:339] norm1 -> norm1
I0930 10:28:11.768193  1561 net.cpp:113] Setting up norm1
I0930 10:28:11.768209  1561 net.cpp:120] Top shape: 240 96 55 55 (69696000)
I0930 10:28:11.768215  1561 layer_factory.hpp:74] Creating layer conv2
I0930 10:28:11.768231  1561 net.cpp:84] Creating Layer conv2
I0930 10:28:11.768237  1561 net.cpp:381] conv2 <- norm1
I0930 10:28:11.768246  1561 net.cpp:339] conv2 -> conv2
I0930 10:28:11.768260  1561 net.cpp:113] Setting up conv2
I0930 10:28:11.780994  1561 net.cpp:120] Top shape: 240 384 26 26 (62300160)
I0930 10:28:11.781018  1561 layer_factory.hpp:74] Creating layer relu2
I0930 10:28:11.781028  1561 net.cpp:84] Creating Layer relu2
I0930 10:28:11.781034  1561 net.cpp:381] relu2 <- conv2
I0930 10:28:11.781044  1561 net.cpp:328] relu2 -> conv2 (in-place)
I0930 10:28:11.781052  1561 net.cpp:113] Setting up relu2
I0930 10:28:11.781061  1561 net.cpp:120] Top shape: 240 384 26 26 (62300160)
I0930 10:28:11.781066  1561 layer_factory.hpp:74] Creating layer pool2
I0930 10:28:11.781080  1561 net.cpp:84] Creating Layer pool2
I0930 10:28:11.781087  1561 net.cpp:381] pool2 <- conv2
I0930 10:28:11.781096  1561 net.cpp:339] pool2 -> pool2
I0930 10:28:11.781107  1561 net.cpp:113] Setting up pool2
I0930 10:28:11.781122  1561 net.cpp:120] Top shape: 240 384 13 13 (15575040)
I0930 10:28:11.781134  1561 layer_factory.hpp:74] Creating layer norm2
I0930 10:28:11.781152  1561 net.cpp:84] Creating Layer norm2
I0930 10:28:11.781159  1561 net.cpp:381] norm2 <- pool2
I0930 10:28:11.781168  1561 net.cpp:339] norm2 -> norm2
I0930 10:28:11.781180  1561 net.cpp:113] Setting up norm2
I0930 10:28:11.781193  1561 net.cpp:120] Top shape: 240 384 13 13 (15575040)
I0930 10:28:11.781201  1561 layer_factory.hpp:74] Creating layer conv3
I0930 10:28:11.781211  1561 net.cpp:84] Creating Layer conv3
I0930 10:28:11.781219  1561 net.cpp:381] conv3 <- norm2
I0930 10:28:11.781232  1561 net.cpp:339] conv3 -> conv3
I0930 10:28:11.781245  1561 net.cpp:113] Setting up conv3
I0930 10:28:11.817947  1561 net.cpp:120] Top shape: 240 512 13 13 (20766720)
I0930 10:28:11.817970  1561 layer_factory.hpp:74] Creating layer relu3
I0930 10:28:11.817978  1561 net.cpp:84] Creating Layer relu3
I0930 10:28:11.817983  1561 net.cpp:381] relu3 <- conv3
I0930 10:28:11.817991  1561 net.cpp:328] relu3 -> conv3 (in-place)
I0930 10:28:11.817999  1561 net.cpp:113] Setting up relu3
I0930 10:28:11.818006  1561 net.cpp:120] Top shape: 240 512 13 13 (20766720)
I0930 10:28:11.818011  1561 layer_factory.hpp:74] Creating layer conv4
I0930 10:28:11.818032  1561 net.cpp:84] Creating Layer conv4
I0930 10:28:11.818039  1561 net.cpp:381] conv4 <- conv3
I0930 10:28:11.818048  1561 net.cpp:339] conv4 -> conv4
I0930 10:28:11.818055  1561 net.cpp:113] Setting up conv4
I0930 10:28:11.843029  1561 net.cpp:120] Top shape: 240 512 13 13 (20766720)
I0930 10:28:11.843055  1561 layer_factory.hpp:74] Creating layer relu4
I0930 10:28:11.843065  1561 net.cpp:84] Creating Layer relu4
I0930 10:28:11.843070  1561 net.cpp:381] relu4 <- conv4
I0930 10:28:11.843078  1561 net.cpp:328] relu4 -> conv4 (in-place)
I0930 10:28:11.843086  1561 net.cpp:113] Setting up relu4
I0930 10:28:11.843092  1561 net.cpp:120] Top shape: 240 512 13 13 (20766720)
I0930 10:28:11.843096  1561 layer_factory.hpp:74] Creating layer conv5
I0930 10:28:11.843106  1561 net.cpp:84] Creating Layer conv5
I0930 10:28:11.843109  1561 net.cpp:381] conv5 <- conv4
I0930 10:28:11.843121  1561 net.cpp:339] conv5 -> conv5
I0930 10:28:11.843130  1561 net.cpp:113] Setting up conv5
I0930 10:28:11.861749  1561 net.cpp:120] Top shape: 240 384 13 13 (15575040)
I0930 10:28:11.861770  1561 layer_factory.hpp:74] Creating layer relu5
I0930 10:28:11.861780  1561 net.cpp:84] Creating Layer relu5
I0930 10:28:11.861785  1561 net.cpp:381] relu5 <- conv5
I0930 10:28:11.861793  1561 net.cpp:328] relu5 -> conv5 (in-place)
I0930 10:28:11.861799  1561 net.cpp:113] Setting up relu5
I0930 10:28:11.861806  1561 net.cpp:120] Top shape: 240 384 13 13 (15575040)
I0930 10:28:11.861810  1561 layer_factory.hpp:74] Creating layer pool5
I0930 10:28:11.861824  1561 net.cpp:84] Creating Layer pool5
I0930 10:28:11.861827  1561 net.cpp:381] pool5 <- conv5
I0930 10:28:11.861836  1561 net.cpp:339] pool5 -> pool5
I0930 10:28:11.861845  1561 net.cpp:113] Setting up pool5
I0930 10:28:11.861857  1561 net.cpp:120] Top shape: 240 384 6 6 (3317760)
I0930 10:28:11.861865  1561 layer_factory.hpp:74] Creating layer fc6
I0930 10:28:11.861878  1561 net.cpp:84] Creating Layer fc6
I0930 10:28:11.861888  1561 net.cpp:381] fc6 <- pool5
I0930 10:28:11.861901  1561 net.cpp:339] fc6 -> fc6
I0930 10:28:11.861918  1561 net.cpp:113] Setting up fc6
I0930 10:28:13.009428  1561 net.cpp:120] Top shape: 240 4096 (983040)
I0930 10:28:13.009474  1561 layer_factory.hpp:74] Creating layer relu6
I0930 10:28:13.009491  1561 net.cpp:84] Creating Layer relu6
I0930 10:28:13.009497  1561 net.cpp:381] relu6 <- fc6
I0930 10:28:13.009505  1561 net.cpp:328] relu6 -> fc6 (in-place)
I0930 10:28:13.009516  1561 net.cpp:113] Setting up relu6
I0930 10:28:13.009523  1561 net.cpp:120] Top shape: 240 4096 (983040)
I0930 10:28:13.009527  1561 layer_factory.hpp:74] Creating layer drop6
I0930 10:28:13.009548  1561 net.cpp:84] Creating Layer drop6
I0930 10:28:13.009554  1561 net.cpp:381] drop6 <- fc6
I0930 10:28:13.009562  1561 net.cpp:328] drop6 -> fc6 (in-place)
I0930 10:28:13.009577  1561 net.cpp:113] Setting up drop6
I0930 10:28:13.009590  1561 net.cpp:120] Top shape: 240 4096 (983040)
I0930 10:28:13.009596  1561 layer_factory.hpp:74] Creating layer reshape-data
I0930 10:28:13.009613  1561 net.cpp:84] Creating Layer reshape-data
I0930 10:28:13.009618  1561 net.cpp:381] reshape-data <- fc6
I0930 10:28:13.009625  1561 net.cpp:339] reshape-data -> fc6-reshape
I0930 10:28:13.009640  1561 net.cpp:113] Setting up reshape-data
I0930 10:28:13.009660  1561 net.cpp:120] Top shape: 16 15 4096 (983040)
I0930 10:28:13.009665  1561 layer_factory.hpp:74] Creating layer reshape-label
I0930 10:28:13.009672  1561 net.cpp:84] Creating Layer reshape-label
I0930 10:28:13.009676  1561 net.cpp:381] reshape-label <- label
I0930 10:28:13.009686  1561 net.cpp:339] reshape-label -> reshape-label
I0930 10:28:13.009696  1561 net.cpp:113] Setting up reshape-label
I0930 10:28:13.009706  1561 net.cpp:120] Top shape: 16 15 (240)
I0930 10:28:13.009711  1561 layer_factory.hpp:74] Creating layer reshape-cm
I0930 10:28:13.009730  1561 net.cpp:84] Creating Layer reshape-cm
I0930 10:28:13.009737  1561 net.cpp:381] reshape-cm <- clip_markers
I0930 10:28:13.009744  1561 net.cpp:339] reshape-cm -> reshape-cm
I0930 10:28:13.009757  1561 net.cpp:113] Setting up reshape-cm
I0930 10:28:13.009768  1561 net.cpp:120] Top shape: 16 15 (240)
I0930 10:28:13.009778  1561 layer_factory.hpp:74] Creating layer lstm1
I0930 10:28:13.009799  1561 net.cpp:84] Creating Layer lstm1
I0930 10:28:13.009806  1561 net.cpp:381] lstm1 <- fc6-reshape
I0930 10:28:13.009812  1561 net.cpp:381] lstm1 <- reshape-cm
I0930 10:28:13.009820  1561 net.cpp:339] lstm1 -> lstm1
I0930 10:28:13.009834  1561 net.cpp:113] Setting up lstm1
I0930 10:28:13.009842  1561 recurrent_layer.cpp:27] Initializing recurrent layer: assuming input batch contains 16 timesteps of 15 independent streams.
I0930 10:28:13.011340  1561 net.cpp:42] Initializing net from parameters: 
input: "x"
input: "cont"
input: "c_0"
input: "h_0"
force_backward: true
input_shape {
  dim: 16
  dim: 15
  dim: 4096
}
input_shape {
  dim: 1
  dim: 16
  dim: 15
}
input_shape {
  dim: 1
  dim: 15
  dim: 256
}
input_shape {
  dim: 1
  dim: 15
  dim: 256
}
layer {
  name: "lstm1_cont_slice"
  type: "Slice"
  bottom: "cont"
  top: "cont_1"
  top: "cont_2"
  top: "cont_3"
  top: "cont_4"
  top: "cont_5"
  top: "cont_6"
  top: "cont_7"
  top: "cont_8"
  top: "cont_9"
  top: "cont_10"
  top: "cont_11"
  top: "cont_12"
  top: "cont_13"
  top: "cont_14"
  top: "cont_15"
  top: "cont_16"
  slice_param {
    axis: 1
  }
}
layer {
  name: "lstm1_x_transform"
  type: "InnerProduct"
  bottom: "x"
  top: "W_xc_x"
  param {
    name: "W_xc"
  }
  param {
    name: "b_c"
  }
  inner_product_param {
    num_output: 1024
    bias_term: true
    weight_filler {
      type: "uniform"
      min: -0.01
      max: 0.01
    }
    bias_filler {
      type: "constant"
      value: 0
    }
    axis: 2
  }
}
layer {
  name: "lstm1_W_xc_x_slice"
  type: "Slice"
  bottom: "W_xc_x"
  top: "W_xc_x_1"
  top: "W_xc_x_2"
  top: "W_xc_x_3"
  top: "W_xc_x_4"
  top: "W_xc_x_5"
  top: "W_xc_x_6"
  top: "W_xc_x_7"
  top: "W_xc_x_8"
  top: "W_xc_x_9"
  top: "W_xc_x_10"
  top: "W_xc_x_11"
  top: "W_xc_x_12"
  top: "W_xc_x_13"
  top: "W_xc_x_14"
  top: "W_xc_x_15"
  top: "W_xc_x_16"
  slice_param {
    axis: 0
  }
}
layer {
  name: "lstm1_h_conted_0"
  type: "Eltwise"
  bottom: "h_0"
  bottom: "cont_1"
  top: "h_conted_0"
  eltwise_param {
    operation: SUM
    coeff_blob: true
  }
}
layer {
  name: "lstm1_transform_1"
  type: "InnerProduct"
  bottom: "h_conted_0"
  top: "W_hc_h_0"
  param {
    name: "W_hc"
  }
  inner_product_param {
    num_output: 1024
    bias_term: false
    weight_filler {
      type: "uniform"
      min: -0.01
      max: 0.01
    }
    axis: 2
  }
}
layer {
  name: "lstm1_gate_input_1"
  type: "Eltwise"
  bottom: "W_hc_h_0"
  bottom: "W_xc_x_1"
  top: "gate_input_1"
  eltwise_param {
    operation: SUM
  }
}
layer {
  name: "lstm1_unit_1"
  type: "LSTMUnit"
  bottom: "c_0"
  bottom: "gate_input_1"
  bottom: "cont_1"
  top: "c_1"
  top: "h_1"
}
layer {
  name: "lstm1_h_conted_1"
  type: "Eltwise"
  bottom: "h_1"
  bottom: "cont_2"
  top: "h_conted_1"
  eltwise_param {
    operation: SUM
    coeff_blob: true
  }
}
layer {
  name: "lstm1_transform_2"
  type: "InnerProduct"
  bottom: "h_conted_1"
  top: "W_hc_h_1"
  param {
    name: "W_hc"
  }
  inner_product_param {
    num_output: 1024
    bias_term: false
    weight_filler {
      type: "uniform"
      min: -0.01
      max: 0.01
    }
    axis: 2
  }
}
layer {
  name: "lstm1_gate_input_2"
  type: "Eltwise"
  bottom: "W_hc_h_1"
  bottom: "W_xc_x_2"
  top: "gate_input_2"
  eltwise_param {
    operation: SUM
  }
}
layer {
  name: "lstm1_unit_2"
  type: "LSTMUnit"
  bottom: "c_1"
  bottom: "gate_input_2"
  bottom: "cont_2"
  top: "c_2"
  top: "h_2"
}
layer {
  name: "lstm1_h_conted_2"
  type: "Eltwise"
  bottom: "h_2"
  bottom: "cont_3"
  top: "h_conted_2"
  eltwise_param {
    operation: SUM
    coeff_blob: true
  }
}
layer {
  name: "lstm1_transform_3"
  type: "InnerProduct"
  bottom: "h_conted_2"
  top: "W_hc_h_2"
  param {
    name: "W_hc"
  }
  inner_product_param {
    num_output: 1024
    bias_term: false
    weight_filler {
      type: "uniform"
      min: -0.01
      max: 0.01
    }
    axis: 2
  }
}
layer {
  name: "lstm1_gate_input_3"
  type: "Eltwise"
  bottom: "W_hc_h_2"
  bottom: "W_xc_x_3"
  top: "gate_input_3"
  eltwise_param {
    operation: SUM
  }
}
layer {
  name: "lstm1_unit_3"
  type: "LSTMUnit"
  bottom: "c_2"
  bottom: "gate_input_3"
  bottom: "cont_3"
  top: "c_3"
  top: "h_3"
}
layer {
  name: "lstm1_h_conted_3"
  type: "Eltwise"
  bottom: "h_3"
  bottom: "cont_4"
  top: "h_conted_3"
  eltwise_param {
    operation: SUM
    coeff_blob: true
  }
}
layer {
  name: "lstm1_transform_4"
  type: "InnerProduct"
  bottom: "h_conted_3"
  top: "W_hc_h_3"
  param {
    name: "W_hc"
  }
  inner_product_param {
    num_output: 1024
    bias_term: false
    weight_filler {
      type: "uniform"
      min: -0.01
      max: 0.01
    }
    axis: 2
  }
}
layer {
  name: "lstm1_gate_input_4"
  type: "Eltwise"
  bottom: "W_hc_h_3"
  bottom: "W_xc_x_4"
  top: "gate_input_4"
  eltwise_param {
    operation: SUM
  }
}
layer {
  name: "lstm1_unit_4"
  type: "LSTMUnit"
  bottom: "c_3"
  bottom: "gate_input_4"
  bottom: "cont_4"
  top: "c_4"
  top: "h_4"
}
layer {
  name: "lstm1_h_conted_4"
  type: "Eltwise"
  bottom: "h_4"
  bottom: "cont_5"
  top: "h_conted_4"
  eltwise_param {
    operation: SUM
    coeff_blob: true
  }
}
layer {
  name: "lstm1_transform_5"
  type: "InnerProduct"
  bottom: "h_conted_4"
  top: "W_hc_h_4"
  param {
    name: "W_hc"
  }
  inner_product_param {
    num_output: 1024
    bias_term: false
    weight_filler {
      type: "uniform"
      min: -0.01
      max: 0.01
    }
    axis: 2
  }
}
layer {
  name: "lstm1_gate_input_5"
  type: "Eltwise"
  bottom: "W_hc_h_4"
  bottom: "W_xc_x_5"
  top: "gate_input_5"
  eltwise_param {
    operation: SUM
  }
}
layer {
  name: "lstm1_unit_5"
  type: "LSTMUnit"
  bottom: "c_4"
  bottom: "gate_input_5"
  bottom: "cont_5"
  top: "c_5"
  top: "h_5"
}
layer {
  name: "lstm1_h_conted_5"
  type: "Eltwise"
  bottom: "h_5"
  bottom: "cont_6"
  top: "h_conted_5"
  eltwise_param {
    operation: SUM
    coeff_blob: true
  }
}
layer {
  name: "lstm1_transform_6"
  type: "InnerProduct"
  bottom: "h_conted_5"
  top: "W_hc_h_5"
  param {
    name: "W_hc"
  }
  inner_product_param {
    num_output: 1024
    bias_term: false
    weight_filler {
      type: "uniform"
      min: -0.01
      max: 0.01
    }
    axis: 2
  }
}
layer {
  name: "lstm1_gate_input_6"
  type: "Eltwise"
  bottom: "W_hc_h_5"
  bottom: "W_xc_x_6"
  top: "gate_input_6"
  eltwise_param {
    operation: SUM
  }
}
layer {
  name: "lstm1_unit_6"
  type: "LSTMUnit"
  bottom: "c_5"
  bottom: "gate_input_6"
  bottom: "cont_6"
  top: "c_6"
  top: "h_6"
}
layer {
  name: "lstm1_h_conted_6"
  type: "Eltwise"
  bottom: "h_6"
  bottom: "cont_7"
  top: "h_conted_6"
  eltwise_param {
    operation: SUM
    coeff_blob: true
  }
}
layer {
  name: "lstm1_transform_7"
  type: "InnerProduct"
  bottom: "h_conted_6"
  top: "W_hc_h_6"
  param {
    name: "W_hc"
  }
  inner_product_param {
    num_output: 1024
    bias_term: false
    weight_filler {
      type: "uniform"
      min: -0.01
      max: 0.01
    }
    axis: 2
  }
}
layer {
  name: "lstm1_gate_input_7"
  type: "Eltwise"
  bottom: "W_hc_h_6"
  bottom: "W_xc_x_7"
  top: "gate_input_7"
  eltwise_param {
    operation: SUM
  }
}
layer {
  name: "lstm1_unit_7"
  type: "LSTMUnit"
  bottom: "c_6"
  bottom: "gate_input_7"
  bottom: "cont_7"
  top: "c_7"
  top: "h_7"
}
layer {
  name: "lstm1_h_conted_7"
  type: "Eltwise"
  bottom: "h_7"
  bottom: "cont_8"
  top: "h_conted_7"
  eltwise_param {
    operation: SUM
    coeff_blob: true
  }
}
layer {
  name: "lstm1_transform_8"
  type: "InnerProduct"
  bottom: "h_conted_7"
  top: "W_hc_h_7"
  param {
    name: "W_hc"
  }
  inner_product_param {
    num_output: 1024
    bias_term: false
    weight_filler {
      type: "uniform"
      min: -0.01
      max: 0.01
    }
    axis: 2
  }
}
layer {
  name: "lstm1_gate_input_8"
  type: "Eltwise"
  bottom: "W_hc_h_7"
  bottom: "W_xc_x_8"
  top: "gate_input_8"
  eltwise_param {
    operation: SUM
  }
}
layer {
  name: "lstm1_unit_8"
  type: "LSTMUnit"
  bottom: "c_7"
  bottom: "gate_input_8"
  bottom: "cont_8"
  top: "c_8"
  top: "h_8"
}
layer {
  name: "lstm1_h_conted_8"
  type: "Eltwise"
  bottom: "h_8"
  bottom: "cont_9"
  top: "h_conted_8"
  eltwise_param {
    operation: SUM
    coeff_blob: true
  }
}
layer {
  name: "lstm1_transform_9"
  type: "InnerProduct"
  bottom: "h_conted_8"
  top: "W_hc_h_8"
  param {
    name: "W_hc"
  }
  inner_product_param {
    num_output: 1024
    bias_term: false
    weight_filler {
      type: "uniform"
      min: -0.01
      max: 0.01
    }
    axis: 2
  }
}
layer {
  name: "lstm1_gate_input_9"
  type: "Eltwise"
  bottom: "W_hc_h_8"
  bottom: "W_xc_x_9"
  top: "gate_input_9"
  eltwise_param {
    operation: SUM
  }
}
layer {
  name: "lstm1_unit_9"
  type: "LSTMUnit"
  bottom: "c_8"
  bottom: "gate_input_9"
  bottom: "cont_9"
  top: "c_9"
  top: "h_9"
}
layer {
  name: "lstm1_h_conted_9"
  type: "Eltwise"
  bottom: "h_9"
  bottom: "cont_10"
  top: "h_conted_9"
  eltwise_param {
    operation: SUM
    coeff_blob: true
  }
}
layer {
  name: "lstm1_transform_10"
  type: "InnerProduct"
  bottom: "h_conted_9"
  top: "W_hc_h_9"
  param {
    name: "W_hc"
  }
  inner_product_param {
    num_output: 1024
    bias_term: false
    weight_filler {
      type: "uniform"
      min: -0.01
      max: 0.01
    }
    axis: 2
  }
}
layer {
  name: "lstm1_gate_input_10"
  type: "Eltwise"
  bottom: "W_hc_h_9"
  bottom: "W_xc_x_10"
  top: "gate_input_10"
  eltwise_param {
    operation: SUM
  }
}
layer {
  name: "lstm1_unit_10"
  type: "LSTMUnit"
  bottom: "c_9"
  bottom: "gate_input_10"
  bottom: "cont_10"
  top: "c_10"
  top: "h_10"
}
layer {
  name: "lstm1_h_conted_10"
  type: "Eltwise"
  bottom: "h_10"
  bottom: "cont_11"
  top: "h_conted_10"
  eltwise_param {
    operation: SUM
    coeff_blob: true
  }
}
layer {
  name: "lstm1_transform_11"
  type: "InnerProduct"
  bottom: "h_conted_10"
  top: "W_hc_h_10"
  param {
    name: "W_hc"
  }
  inner_product_param {
    num_output: 1024
    bias_term: false
    weight_filler {
      type: "uniform"
      min: -0.01
      max: 0.01
    }
    axis: 2
  }
}
layer {
  name: "lstm1_gate_input_11"
  type: "Eltwise"
  bottom: "W_hc_h_10"
  bottom: "W_xc_x_11"
  top: "gate_input_11"
  eltwise_param {
    operation: SUM
  }
}
layer {
  name: "lstm1_unit_11"
  type: "LSTMUnit"
  bottom: "c_10"
  bottom: "gate_input_11"
  bottom: "cont_11"
  top: "c_11"
  top: "h_11"
}
layer {
  name: "lstm1_h_conted_11"
  type: "Eltwise"
  bottom: "h_11"
  bottom: "cont_12"
  top: "h_conted_11"
  eltwise_param {
    operation: SUM
    coeff_blob: true
  }
}
layer {
  name: "lstm1_transform_12"
  type: "InnerProduct"
  bottom: "h_conted_11"
  top: "W_hc_h_11"
  param {
    name: "W_hc"
  }
  inner_product_param {
    num_output: 1024
    bias_term: false
    weight_filler {
      type: "uniform"
      min: -0.01
      max: 0.01
    }
    axis: 2
  }
}
layer {
  name: "lstm1_gate_input_12"
  type: "Eltwise"
  bottom: "W_hc_h_11"
  bottom: "W_xc_x_12"
  top: "gate_input_12"
  eltwise_param {
    operation: SUM
  }
}
layer {
  name: "lstm1_unit_12"
  type: "LSTMUnit"
  bottom: "c_11"
  bottom: "gate_input_12"
  bottom: "cont_12"
  top: "c_12"
  top: "h_12"
}
layer {
  name: "lstm1_h_conted_12"
  type: "Eltwise"
  bottom: "h_12"
  bottom: "cont_13"
  top: "h_conted_12"
  eltwise_param {
    operation: SUM
    coeff_blob: true
  }
}
layer {
  name: "lstm1_transform_13"
  type: "InnerProduct"
  bottom: "h_conted_12"
  top: "W_hc_h_12"
  param {
    name: "W_hc"
  }
  inner_product_param {
    num_output: 1024
    bias_term: false
    weight_filler {
      type: "uniform"
      min: -0.01
      max: 0.01
    }
    axis: 2
  }
}
layer {
  name: "lstm1_gate_input_13"
  type: "Eltwise"
  bottom: "W_hc_h_12"
  bottom: "W_xc_x_13"
  top: "gate_input_13"
  eltwise_param {
    operation: SUM
  }
}
layer {
  name: "lstm1_unit_13"
  type: "LSTMUnit"
  bottom: "c_12"
  bottom: "gate_input_13"
  bottom: "cont_13"
  top: "c_13"
  top: "h_13"
}
layer {
  name: "lstm1_h_conted_13"
  type: "Eltwise"
  bottom: "h_13"
  bottom: "cont_14"
  top: "h_conted_13"
  eltwise_param {
    operation: SUM
    coeff_blob: true
  }
}
layer {
  name: "lstm1_transform_14"
  type: "InnerProduct"
  bottom: "h_conted_13"
  top: "W_hc_h_13"
  param {
    name: "W_hc"
  }
  inner_product_param {
    num_output: 1024
    bias_term: false
    weight_filler {
      type: "uniform"
      min: -0.01
      max: 0.01
    }
    axis: 2
  }
}
layer {
  name: "lstm1_gate_input_14"
  type: "Eltwise"
  bottom: "W_hc_h_13"
  bottom: "W_xc_x_14"
  top: "gate_input_14"
  eltwise_param {
    operation: SUM
  }
}
layer {
  name: "lstm1_unit_14"
  type: "LSTMUnit"
  bottom: "c_13"
  bottom: "gate_input_14"
  bottom: "cont_14"
  top: "c_14"
  top: "h_14"
}
layer {
  name: "lstm1_h_conted_14"
  type: "Eltwise"
  bottom: "h_14"
  bottom: "cont_15"
  top: "h_conted_14"
  eltwise_param {
    operation: SUM
    coeff_blob: true
  }
}
layer {
  name: "lstm1_transform_15"
  type: "InnerProduct"
  bottom: "h_conted_14"
  top: "W_hc_h_14"
  param {
    name: "W_hc"
  }
  inner_product_param {
    num_output: 1024
    bias_term: false
    weight_filler {
      type: "uniform"
      min: -0.01
      max: 0.01
    }
    axis: 2
  }
}
layer {
  name: "lstm1_gate_input_15"
  type: "Eltwise"
  bottom: "W_hc_h_14"
  bottom: "W_xc_x_15"
  top: "gate_input_15"
  eltwise_param {
    operation: SUM
  }
}
layer {
  name: "lstm1_unit_15"
  type: "LSTMUnit"
  bottom: "c_14"
  bottom: "gate_input_15"
  bottom: "cont_15"
  top: "c_15"
  top: "h_15"
}
layer {
  name: "lstm1_h_conted_15"
  type: "Eltwise"
  bottom: "h_15"
  bottom: "cont_16"
  top: "h_conted_15"
  eltwise_param {
    operation: SUM
    coeff_blob: true
  }
}
layer {
  name: "lstm1_transform_16"
  type: "InnerProduct"
  bottom: "h_conted_15"
  top: "W_hc_h_15"
  param {
    name: "W_hc"
  }
  inner_product_param {
    num_output: 1024
    bias_term: false
    weight_filler {
      type: "uniform"
      min: -0.01
      max: 0.01
    }
    axis: 2
  }
}
layer {
  name: "lstm1_gate_input_16"
  type: "Eltwise"
  bottom: "W_hc_h_15"
  bottom: "W_xc_x_16"
  top: "gate_input_16"
  eltwise_param {
    operation: SUM
  }
}
layer {
  name: "lstm1_unit_16"
  type: "LSTMUnit"
  bottom: "c_15"
  bottom: "gate_input_16"
  bottom: "cont_16"
  top: "c_16"
  top: "h_16"
}
layer {
  name: "lstm1_"
  type: "Split"
  bottom: "c_16"
  top: "c_T"
}
layer {
  name: "lstm1_h_concat"
  type: "Concat"
  bottom: "h_1"
  bottom: "h_2"
  bottom: "h_3"
  bottom: "h_4"
  bottom: "h_5"
  bottom: "h_6"
  bottom: "h_7"
  bottom: "h_8"
  bottom: "h_9"
  bottom: "h_10"
  bottom: "h_11"
  bottom: "h_12"
  bottom: "h_13"
  bottom: "h_14"
  bottom: "h_15"
  bottom: "h_16"
  top: "h"
  concat_param {
    axis: 0
  }
}
I0930 10:28:13.012166  1561 net.cpp:341] Input 0 -> x
I0930 10:28:13.012181  1561 net.cpp:341] Input 1 -> cont
I0930 10:28:13.012189  1561 net.cpp:341] Input 2 -> c_0
I0930 10:28:13.012197  1561 net.cpp:341] Input 3 -> h_0
I0930 10:28:13.012218  1561 layer_factory.hpp:74] Creating layer lstm1_cont_slice
I0930 10:28:13.012233  1561 net.cpp:84] Creating Layer lstm1_cont_slice
…
I0930 10:28:13.012318  1561 net.cpp:339] lstm1_cont_slice -> cont_9
I0930 10:28:13.012326  1561 net.cpp:339] lstm1_cont_slice -> cont_10
I0930 10:28:13.012336  1561 net.cpp:339] lstm1_cont_slice -> cont_11
I0930 10:28:13.012343  1561 net.cpp:339] lstm1_cont_slice -> cont_12
I0930 10:28:13.012352  1561 net.cpp:339] lstm1_cont_slice -> cont_13
I0930 10:28:13.012362  1561 net.cpp:339] lstm1_cont_slice -> cont_14
I0930 10:28:13.012370  1561 net.cpp:339] lstm1_cont_slice -> cont_15
I0930 10:28:13.012378  1561 net.cpp:339] lstm1_cont_slice -> cont_16
I0930 10:28:13.012385  1561 net.cpp:113] Setting up lstm1_cont_slice
I0930 10:28:13.012400  1561 net.cpp:120] Top shape: 1 1 15 (15)
I0930 10:28:13.012406  1561 net.cpp:120] Top shape: 1 1 15 (15)
I0930 10:28:13.012411  1561 net.cpp:120] Top shape: 1 1 15 (15)
I0930 10:28:13.012416  1561 net.cpp:120] Top shape: 1 1 15 (15)
I0930 10:28:13.012420  1561 net.cpp:120] Top shape: 1 1 15 (15)
I0930 10:28:13.012425  1561 net.cpp:120] Top shape: 1 1 15 (15)
I0930 10:28:13.012431  1561 net.cpp:120] Top shape: 1 1 15 (15)
I0930 10:28:13.012436  1561 net.cpp:120] Top shape: 1 1 15 (15)
I0930 10:28:13.012440  1561 net.cpp:120] Top shape: 1 1 15 (15)
I0930 10:28:13.012445  1561 net.cpp:120] Top shape: 1 1 15 (15)
I0930 10:28:13.012450  1561 net.cpp:120] Top shape: 1 1 15 (15)
I0930 10:28:13.012454  1561 net.cpp:120] Top shape: 1 1 15 (15)
I0930 10:28:13.012459  1561 net.cpp:120] Top shape: 1 1 15 (15)
I0930 10:28:13.012465  1561 net.cpp:120] Top shape: 1 1 15 (15)
I0930 10:28:13.012468  1561 net.cpp:120] Top shape: 1 1 15 (15)
I0930 10:28:13.012473  1561 net.cpp:120] Top shape: 1 1 15 (15)
I0930 10:28:13.012478  1561 layer_factory.hpp:74] Creating layer cont_1_lstm1_cont_slice_0_split
I0930 10:28:13.012488  1561 net.cpp:84] Creating Layer cont_1_lstm1_cont_slice_0_split
I0930 10:28:13.012492  1561 net.cpp:381] cont_1_lstm1_cont_slice_0_split <- cont_1
I0930 10:28:13.012498  1561 net.cpp:339] cont_1_lstm1_cont_slice_0_split -> cont_1_lstm1_cont_slice_0_split_0
I0930 10:28:13.012506  1561 net.cpp:339] cont_1_lstm1_cont_slice_0_split -> cont_1_lstm1_cont_slice_0_split_1
I0930 10:28:13.012513  1561 net.cpp:113] Setting up cont_1_lstm1_cont_slice_0_split
I0930 10:28:13.012521  1561 net.cpp:120] Top shape: 1 1 15 (15)
I0930 10:28:13.012526  1561 net.cpp:120] Top shape: 1 1 15 (15)
I0930 10:28:13.012531  1561 layer_factory.hpp:74] Creating layer cont_2_lstm1_cont_slice_1_split
I0930 10:28:13.012537  1561 net.cpp:84] Creating Layer cont_2_lstm1_cont_slice_1_split
I0930 10:28:13.012542  1561 net.cpp:381] cont_2_lstm1_cont_slice_1_split <- cont_2
I0930 10:28:13.012552  1561 net.cpp:339] cont_2_lstm1_cont_slice_1_split -> cont_2_lstm1_cont_slice_1_split_0
I0930 10:28:13.012559  1561 net.cpp:339] cont_2_lstm1_cont_slice_1_split -> cont_2_lstm1_cont_slice_1_split_1
I0930 10:28:13.012565  1561 net.cpp:113] Setting up cont_2_lstm1_cont_slice_1_split
I0930 10:28:13.012573  1561 net.cpp:120] Top shape: 1 1 15 (15)
I0930 10:28:13.012578  1561 net.cpp:120] Top shape: 1 1 15 (15)
I0930 10:28:13.012581  1561 layer_factory.hpp:74] Creating layer cont_3_lstm1_cont_slice_2_split
I0930 10:28:13.012586  1561 net.cpp:84] Creating Layer cont_3_lstm1_cont_slice_2_split
I0930 10:28:13.012590  1561 net.cpp:381] cont_3_lstm1_cont_slice_2_split <- cont_3
I0930 10:28:13.012596  1561 net.cpp:339] cont_3_lstm1_cont_slice_2_split -> cont_3_lstm1_cont_slice_2_split_0
I0930 10:28:13.012603  1561 net.cpp:339] cont_3_lstm1_cont_slice_2_split -> cont_3_lstm1_cont_slice_2_split_1
I0930 10:28:13.012609  1561 net.cpp:113] Setting up cont_3_lstm1_cont_slice_2_split
I0930 10:28:13.012615  1561 net.cpp:120] Top shape: 1 1 15 (15)
I0930 10:28:13.012620  1561 net.cpp:120] Top shape: 1 1 15 (15)
I0930 10:28:13.012624  1561 layer_factory.hpp:74] Creating layer cont_4_lstm1_cont_slice_3_split
I0930 10:28:13.012632  1561 net.cpp:84] Creating Layer cont_4_lstm1_cont_slice_3_split
I0930 10:28:13.012639  1561 net.cpp:381] cont_4_lstm1_cont_slice_3_split <- cont_4
I0930 10:28:13.012645  1561 net.cpp:339] cont_4_lstm1_cont_slice_3_split -> cont_4_lstm1_cont_slice_3_split_0
I0930 10:28:13.012655  1561 net.cpp:339] cont_4_lstm1_cont_slice_3_split -> cont_4_lstm1_cont_slice_3_split_1
I0930 10:28:13.012665  1561 net.cpp:113] Setting up cont_4_lstm1_cont_slice_3_split
I0930 10:28:13.012671  1561 net.cpp:120] Top shape: 1 1 15 (15)
I0930 10:28:13.012676  1561 net.cpp:120] Top shape: 1 1 15 (15)
I0930 10:28:13.012679  1561 layer_factory.hpp:74] Creating layer cont_5_lstm1_cont_slice_4_split
I0930 10:28:13.012684  1561 net.cpp:84] Creating Layer cont_5_lstm1_cont_slice_4_split
I0930 10:28:13.012688  1561 net.cpp:381] cont_5_lstm1_cont_slice_4_split <- cont_5
I0930 10:28:13.012696  1561 net.cpp:339] cont_5_lstm1_cont_slice_4_split -> cont_5_lstm1_cont_slice_4_split_0
I0930 10:28:13.012701  1561 net.cpp:339] cont_5_lstm1_cont_slice_4_split -> cont_5_lstm1_cont_slice_4_split_1
I0930 10:28:13.012707  1561 net.cpp:113] Setting up cont_5_lstm1_cont_slice_4_split
I0930 10:28:13.012714  1561 net.cpp:120] Top shape: 1 1 15 (15)
I0930 10:28:13.012719  1561 net.cpp:120] Top shape: 1 1 15 (15)
I0930 10:28:13.012722  1561 layer_factory.hpp:74] Creating layer cont_6_lstm1_cont_slice_5_split
I0930 10:28:13.012730  1561 net.cpp:84] Creating Layer cont_6_lstm1_cont_slice_5_split
I0930 10:28:13.012734  1561 net.cpp:381] cont_6_lstm1_cont_slice_5_split <- cont_6
I0930 10:28:13.012739  1561 net.cpp:339] cont_6_lstm1_cont_slice_5_split -> cont_6_lstm1_cont_slice_5_split_0
I0930 10:28:13.012747  1561 net.cpp:339] cont_6_lstm1_cont_slice_5_split -> cont_6_lstm1_cont_slice_5_split_1
I0930 10:28:13.012753  1561 net.cpp:113] Setting up cont_6_lstm1_cont_slice_5_split
I0930 10:28:13.012761  1561 net.cpp:120] Top shape: 1 1 15 (15)
I0930 10:28:13.012768  1561 net.cpp:120] Top shape: 1 1 15 (15)
I0930 10:28:13.012773  1561 layer_factory.hpp:74] Creating layer cont_7_lstm1_cont_slice_6_split
I0930 10:28:13.012778  1561 net.cpp:84] Creating Layer cont_7_lstm1_cont_slice_6_split
I0930 10:28:13.012781  1561 net.cpp:381] cont_7_lstm1_cont_slice_6_split <- cont_7
I0930 10:28:13.012786  1561 net.cpp:339] cont_7_lstm1_cont_slice_6_split -> cont_7_lstm1_cont_slice_6_split_0
I0930 10:28:13.012796  1561 net.cpp:339] cont_7_lstm1_cont_slice_6_split -> cont_7_lstm1_cont_slice_6_split_1
I0930 10:28:13.012804  1561 net.cpp:113] Setting up cont_7_lstm1_cont_slice_6_split
I0930 10:28:13.012811  1561 net.cpp:120] Top shape: 1 1 15 (15)
I0930 10:28:13.012817  1561 net.cpp:120] Top shape: 1 1 15 (15)
I0930 10:28:13.012821  1561 layer_factory.hpp:74] Creating layer cont_8_lstm1_cont_slice_7_split
I0930 10:28:13.012830  1561 net.cpp:84] Creating Layer cont_8_lstm1_cont_slice_7_split
I0930 10:28:13.012836  1561 net.cpp:381] cont_8_lstm1_cont_slice_7_split <- cont_8
I0930 10:28:13.012842  1561 net.cpp:339] cont_8_lstm1_cont_slice_7_split -> cont_8_lstm1_cont_slice_7_split_0
I0930 10:28:13.012852  1561 net.cpp:339] cont_8_lstm1_cont_slice_7_split -> cont_8_lstm1_cont_slice_7_split_1
I0930 10:28:13.012861  1561 net.cpp:113] Setting up cont_8_lstm1_cont_slice_7_split
I0930 10:28:13.012867  1561 net.cpp:120] Top shape: 1 1 15 (15)
I0930 10:28:13.012873  1561 net.cpp:120] Top shape: 1 1 15 (15)
I0930 10:28:13.012877  1561 layer_factory.hpp:74] Creating layer cont_9_lstm1_cont_slice_8_split
I0930 10:28:13.012882  1561 net.cpp:84] Creating Layer cont_9_lstm1_cont_slice_8_split
I0930 10:28:13.012892  1561 net.cpp:381] cont_9_lstm1_cont_slice_8_split <- cont_9
I0930 10:28:13.012897  1561 net.cpp:339] cont_9_lstm1_cont_slice_8_split -> cont_9_lstm1_cont_slice_8_split_0
I0930 10:28:13.012904  1561 net.cpp:339] cont_9_lstm1_cont_slice_8_split -> cont_9_lstm1_cont_slice_8_split_1
I0930 10:28:13.012912  1561 net.cpp:113] Setting up cont_9_lstm1_cont_slice_8_split
I0930 10:28:13.012918  1561 net.cpp:120] Top shape: 1 1 15 (15)
I0930 10:28:13.012923  1561 net.cpp:120] Top shape: 1 1 15 (15)
I0930 10:28:13.012928  1561 layer_factory.hpp:74] Creating layer cont_10_lstm1_cont_slice_9_split
I0930 10:28:13.012935  1561 net.cpp:84] Creating Layer cont_10_lstm1_cont_slice_9_split
I0930 10:28:13.012939  1561 net.cpp:381] cont_10_lstm1_cont_slice_9_split <- cont_10
I0930 10:28:13.012945  1561 net.cpp:339] cont_10_lstm1_cont_slice_9_split -> cont_10_lstm1_cont_slice_9_split_0
I0930 10:28:13.012953  1561 net.cpp:339] cont_10_lstm1_cont_slice_9_split -> cont_10_lstm1_cont_slice_9_split_1
I0930 10:28:13.012960  1561 net.cpp:113] Setting up cont_10_lstm1_cont_slice_9_split
I0930 10:28:13.012974  1561 net.cpp:120] Top shape: 1 1 15 (15)
I0930 10:28:13.012980  1561 net.cpp:120] Top shape: 1 1 15 (15)
I0930 10:28:13.012984  1561 layer_factory.hpp:74] Creating layer cont_11_lstm1_cont_slice_10_split
I0930 10:28:13.012989  1561 net.cpp:84] Creating Layer cont_11_lstm1_cont_slice_10_split
I0930 10:28:13.012994  1561 net.cpp:381] cont_11_lstm1_cont_slice_10_split <- cont_11
I0930 10:28:13.013000  1561 net.cpp:339] cont_11_lstm1_cont_slice_10_split -> cont_11_lstm1_cont_slice_10_split_0
I0930 10:28:13.013006  1561 net.cpp:339] cont_11_lstm1_cont_slice_10_split -> cont_11_lstm1_cont_slice_10_split_1
I0930 10:28:13.013012  1561 net.cpp:113] Setting up cont_11_lstm1_cont_slice_10_split
I0930 10:28:13.013020  1561 net.cpp:120] Top shape: 1 1 15 (15)
I0930 10:28:13.013025  1561 net.cpp:120] Top shape: 1 1 15 (15)
I0930 10:28:13.013030  1561 layer_factory.hpp:74] Creating layer cont_12_lstm1_cont_slice_11_split
I0930 10:28:13.013034  1561 net.cpp:84] Creating Layer cont_12_lstm1_cont_slice_11_split
I0930 10:28:13.013038  1561 net.cpp:381] cont_12_lstm1_cont_slice_11_split <- cont_12
I0930 10:28:13.013047  1561 net.cpp:339] cont_12_lstm1_cont_slice_11_split -> cont_12_lstm1_cont_slice_11_split_0
I0930 10:28:13.013056  1561 net.cpp:339] cont_12_lstm1_cont_slice_11_split -> cont_12_lstm1_cont_slice_11_split_1
I0930 10:28:13.013063  1561 net.cpp:113] Setting up cont_12_lstm1_cont_slice_11_split
I0930 10:28:13.013069  1561 net.cpp:120] Top shape: 1 1 15 (15)
I0930 10:28:13.013074  1561 net.cpp:120] Top shape: 1 1 15 (15)
I0930 10:28:13.013077  1561 layer_factory.hpp:74] Creating layer cont_13_lstm1_cont_slice_12_split
I0930 10:28:13.013085  1561 net.cpp:84] Creating Layer cont_13_lstm1_cont_slice_12_split
I0930 10:28:13.013089  1561 net.cpp:381] cont_13_lstm1_cont_slice_12_split <- cont_13
I0930 10:28:13.013095  1561 net.cpp:339] cont_13_lstm1_cont_slice_12_split -> cont_13_lstm1_cont_slice_12_split_0
I0930 10:28:13.013101  1561 net.cpp:339] cont_13_lstm1_cont_slice_12_split -> cont_13_lstm1_cont_slice_12_split_1
I0930 10:28:13.013108  1561 net.cpp:113] Setting up cont_13_lstm1_cont_slice_12_split
I0930 10:28:13.013113  1561 net.cpp:120] Top shape: 1 1 15 (15)
I0930 10:28:13.013118  1561 net.cpp:120] Top shape: 1 1 15 (15)
I0930 10:28:13.013123  1561 layer_factory.hpp:74] Creating layer cont_14_lstm1_cont_slice_13_split
I0930 10:28:13.013128  1561 net.cpp:84] Creating Layer cont_14_lstm1_cont_slice_13_split
I0930 10:28:13.013130  1561 net.cpp:381] cont_14_lstm1_cont_slice_13_split <- cont_14
I0930 10:28:13.013139  1561 net.cpp:339] cont_14_lstm1_cont_slice_13_split -> cont_14_lstm1_cont_slice_13_split_0
I0930 10:28:13.013145  1561 net.cpp:339] cont_14_lstm1_cont_slice_13_split -> cont_14_lstm1_cont_slice_13_split_1
I0930 10:28:13.013151  1561 net.cpp:113] Setting up cont_14_lstm1_cont_slice_13_split
I0930 10:28:13.013157  1561 net.cpp:120] Top shape: 1 1 15 (15)
I0930 10:28:13.013162  1561 net.cpp:120] Top shape: 1 1 15 (15)
I0930 10:28:13.013165  1561 layer_factory.hpp:74] Creating layer cont_15_lstm1_cont_slice_14_split
I0930 10:28:13.013170  1561 net.cpp:84] Creating Layer cont_15_lstm1_cont_slice_14_split
I0930 10:28:13.013175  1561 net.cpp:381] cont_15_lstm1_cont_slice_14_split <- cont_15
I0930 10:28:13.013183  1561 net.cpp:339] cont_15_lstm1_cont_slice_14_split -> cont_15_lstm1_cont_slice_14_split_0
I0930 10:28:13.013192  1561 net.cpp:339] cont_15_lstm1_cont_slice_14_split -> cont_15_lstm1_cont_slice_14_split_1
I0930 10:28:13.013200  1561 net.cpp:113] Setting up cont_15_lstm1_cont_slice_14_split
I0930 10:28:13.013206  1561 net.cpp:120] Top shape: 1 1 15 (15)
I0930 10:28:13.013213  1561 net.cpp:120] Top shape: 1 1 15 (15)
I0930 10:28:13.013216  1561 layer_factory.hpp:74] Creating layer cont_16_lstm1_cont_slice_15_split
I0930 10:28:13.013223  1561 net.cpp:84] Creating Layer cont_16_lstm1_cont_slice_15_split
I0930 10:28:13.013227  1561 net.cpp:381] cont_16_lstm1_cont_slice_15_split <- cont_16
I0930 10:28:13.013236  1561 net.cpp:339] cont_16_lstm1_cont_slice_15_split -> cont_16_lstm1_cont_slice_15_split_0
I0930 10:28:13.013244  1561 net.cpp:339] cont_16_lstm1_cont_slice_15_split -> cont_16_lstm1_cont_slice_15_split_1
I0930 10:28:13.013253  1561 net.cpp:113] Setting up cont_16_lstm1_cont_slice_15_split
I0930 10:28:13.013262  1561 net.cpp:120] Top shape: 1 1 15 (15)
I0930 10:28:13.013267  1561 net.cpp:120] Top shape: 1 1 15 (15)
I0930 10:28:13.013272  1561 layer_factory.hpp:74] Creating layer lstm1_x_transform
I0930 10:28:13.013280  1561 net.cpp:84] Creating Layer lstm1_x_transform
I0930 10:28:13.013286  1561 net.cpp:381] lstm1_x_transform <- x
I0930 10:28:13.013294  1561 net.cpp:339] lstm1_x_transform -> W_xc_x
I0930 10:28:13.013303  1561 net.cpp:113] Setting up lstm1_x_transform
I0930 10:28:13.065484  1561 net.cpp:120] Top shape: 16 15 1024 (245760)
I0930 10:28:13.065516  1561 layer_factory.hpp:74] Creating layer lstm1_W_xc_x_slice
I0930 10:28:13.065531  1561 net.cpp:84] Creating Layer lstm1_W_xc_x_slice
I0930 10:28:13.065537  1561 net.cpp:381] lstm1_W_xc_x_slice <- W_xc_x
I0930 10:28:13.065548  1561 net.cpp:339] lstm1_W_xc_x_slice -> W_xc_x_1
I0930 10:28:13.065562  1561 net.cpp:339] lstm1_W_xc_x_slice -> W_xc_x_2
I0930 10:28:13.065572  1561 net.cpp:339] lstm1_W_xc_x_slice -> W_xc_x_3
…
I0930 10:28:13.065644  1561 net.cpp:339] lstm1_W_xc_x_slice -> W_xc_x_10
I0930 10:28:13.065654  1561 net.cpp:339] lstm1_W_xc_x_slice -> W_xc_x_11
I0930 10:28:13.065665  1561 net.cpp:339] lstm1_W_xc_x_slice -> W_xc_x_12
I0930 10:28:13.065685  1561 net.cpp:339] lstm1_W_xc_x_slice -> W_xc_x_13
I0930 10:28:13.065696  1561 net.cpp:339] lstm1_W_xc_x_slice -> W_xc_x_14
I0930 10:28:13.065709  1561 net.cpp:339] lstm1_W_xc_x_slice -> W_xc_x_15
I0930 10:28:13.065719  1561 net.cpp:339] lstm1_W_xc_x_slice -> W_xc_x_16
I0930 10:28:13.065728  1561 net.cpp:113] Setting up lstm1_W_xc_x_slice
I0930 10:28:13.065745  1561 net.cpp:120] Top shape: 1 15 1024 (15360)
I0930 10:28:13.065752  1561 net.cpp:120] Top shape: 1 15 1024 (15360)
I0930 10:28:13.065757  1561 net.cpp:120] Top shape: 1 15 1024 (15360)
I0930 10:28:13.065762  1561 net.cpp:120] Top shape: 1 15 1024 (15360)
I0930 10:28:13.065768  1561 net.cpp:120] Top shape: 1 15 1024 (15360)
I0930 10:28:13.065773  1561 net.cpp:120] Top shape: 1 15 1024 (15360)
I0930 10:28:13.065778  1561 net.cpp:120] Top shape: 1 15 1024 (15360)
I0930 10:28:13.065783  1561 net.cpp:120] Top shape: 1 15 1024 (15360)
I0930 10:28:13.065786  1561 net.cpp:120] Top shape: 1 15 1024 (15360)
I0930 10:28:13.065791  1561 net.cpp:120] Top shape: 1 15 1024 (15360)
I0930 10:28:13.065796  1561 net.cpp:120] Top shape: 1 15 1024 (15360)
I0930 10:28:13.065801  1561 net.cpp:120] Top shape: 1 15 1024 (15360)
I0930 10:28:13.065806  1561 net.cpp:120] Top shape: 1 15 1024 (15360)
I0930 10:28:13.065810  1561 net.cpp:120] Top shape: 1 15 1024 (15360)
I0930 10:28:13.065815  1561 net.cpp:120] Top shape: 1 15 1024 (15360)
I0930 10:28:13.065820  1561 net.cpp:120] Top shape: 1 15 1024 (15360)
I0930 10:28:13.065824  1561 layer_factory.hpp:74] Creating layer lstm1_h_conted_0
I0930 10:28:13.065834  1561 net.cpp:84] Creating Layer lstm1_h_conted_0
I0930 10:28:13.065839  1561 net.cpp:381] lstm1_h_conted_0 <- h_0
I0930 10:28:13.065845  1561 net.cpp:381] lstm1_h_conted_0 <- cont_1_lstm1_cont_slice_0_split_0
I0930 10:28:13.065853  1561 net.cpp:339] lstm1_h_conted_0 -> h_conted_0
I0930 10:28:13.065861  1561 net.cpp:113] Setting up lstm1_h_conted_0
I0930 10:28:13.065876  1561 net.cpp:120] Top shape: 1 15 256 (3840)
I0930 10:28:13.065882  1561 layer_factory.hpp:74] Creating layer lstm1_transform_1
I0930 10:28:13.065906  1561 net.cpp:84] Creating Layer lstm1_transform_1
I0930 10:28:13.065912  1561 net.cpp:381] lstm1_transform_1 <- h_conted_0
I0930 10:28:13.065919  1561 net.cpp:339] lstm1_transform_1 -> W_hc_h_0
I0930 10:28:13.065927  1561 net.cpp:113] Setting up lstm1_transform_1
I0930 10:28:13.069092  1561 net.cpp:120] Top shape: 1 15 1024 (15360)
I0930 10:28:13.069105  1561 layer_factory.hpp:74] Creating layer lstm1_gate_input_1
I0930 10:28:13.069113  1561 net.cpp:84] Creating Layer lstm1_gate_input_1
I0930 10:28:13.069118  1561 net.cpp:381] lstm1_gate_input_1 <- W_hc_h_0
I0930 10:28:13.069124  1561 net.cpp:381] lstm1_gate_input_1 <- W_xc_x_1
I0930 10:28:13.069131  1561 net.cpp:339] lstm1_gate_input_1 -> gate_input_1
I0930 10:28:13.069139  1561 net.cpp:113] Setting up lstm1_gate_input_1
I0930 10:28:13.069146  1561 net.cpp:120] Top shape: 1 15 1024 (15360)
I0930 10:28:13.069150  1561 layer_factory.hpp:74] Creating layer lstm1_unit_1
I0930 10:28:13.069161  1561 net.cpp:84] Creating Layer lstm1_unit_1
I0930 10:28:13.069169  1561 net.cpp:381] lstm1_unit_1 <- c_0
I0930 10:28:13.069175  1561 net.cpp:381] lstm1_unit_1 <- gate_input_1
I0930 10:28:13.069180  1561 net.cpp:381] lstm1_unit_1 <- cont_1_lstm1_cont_slice_0_split_1
I0930 10:28:13.069190  1561 net.cpp:339] lstm1_unit_1 -> c_1
I0930 10:28:13.069200  1561 net.cpp:339] lstm1_unit_1 -> h_1
I0930 10:28:13.069207  1561 net.cpp:113] Setting up lstm1_unit_1
I0930 10:28:13.069223  1561 net.cpp:120] Top shape: 1 15 256 (3840)
I0930 10:28:13.069231  1561 net.cpp:120] Top shape: 1 15 256 (3840)
I0930 10:28:13.069234  1561 layer_factory.hpp:74] Creating layer h_1_lstm1_unit_1_1_split
I0930 10:28:13.069242  1561 net.cpp:84] Creating Layer h_1_lstm1_unit_1_1_split
I0930 10:28:13.069245  1561 net.cpp:381] h_1_lstm1_unit_1_1_split <- h_1
I0930 10:28:13.069252  1561 net.cpp:339] h_1_lstm1_unit_1_1_split -> h_1_lstm1_unit_1_1_split_0
I0930 10:28:13.069259  1561 net.cpp:339] h_1_lstm1_unit_1_1_split -> h_1_lstm1_unit_1_1_split_1
I0930 10:28:13.069268  1561 net.cpp:113] Setting up h_1_lstm1_unit_1_1_split
I0930 10:28:13.069277  1561 net.cpp:120] Top shape: 1 15 256 (3840)
I0930 10:28:13.069283  1561 net.cpp:120] Top shape: 1 15 256 (3840)
I0930 10:28:13.069288  1561 layer_factory.hpp:74] Creating layer lstm1_h_conted_1
I0930 10:28:13.069296  1561 net.cpp:84] Creating Layer lstm1_h_conted_1
I0930 10:28:13.069303  1561 net.cpp:381] lstm1_h_conted_1 <- h_1_lstm1_unit_1_1_split_0
I0930 10:28:13.069308  1561 net.cpp:381] lstm1_h_conted_1 <- cont_2_lstm1_cont_slice_1_split_0
I0930 10:28:13.069314  1561 net.cpp:339] lstm1_h_conted_1 -> h_conted_1
I0930 10:28:13.069324  1561 net.cpp:113] Setting up lstm1_h_conted_1
I0930 10:28:13.069332  1561 net.cpp:120] Top shape: 1 15 256 (3840)
I0930 10:28:13.069339  1561 layer_factory.hpp:74] Creating layer lstm1_transform_2
I0930 10:28:13.069349  1561 net.cpp:84] Creating Layer lstm1_transform_2
I0930 10:28:13.069355  1561 net.cpp:381] lstm1_transform_2 <- h_conted_1
I0930 10:28:13.069362  1561 net.cpp:339] lstm1_transform_2 -> W_hc_h_1
I0930 10:28:13.069371  1561 net.cpp:113] Setting up lstm1_transform_2
I0930 10:28:13.072540  1561 net.cpp:120] Top shape: 1 15 1024 (15360)
I0930 10:28:13.072549  1561 net.cpp:425] Sharing parameters 'W_hc' owned by layer 'lstm1_transform_1', param index 0
I0930 10:28:13.072556  1561 layer_factory.hpp:74] Creating layer lstm1_gate_input_2
I0930 10:28:13.072562  1561 net.cpp:84] Creating Layer lstm1_gate_input_2
I0930 10:28:13.072567  1561 net.cpp:381] lstm1_gate_input_2 <- W_hc_h_1
I0930 10:28:13.072573  1561 net.cpp:381] lstm1_gate_input_2 <- W_xc_x_2
I0930 10:28:13.072583  1561 net.cpp:339] lstm1_gate_input_2 -> gate_input_2
I0930 10:28:13.072590  1561 net.cpp:113] Setting up lstm1_gate_input_2
I0930 10:28:13.072597  1561 net.cpp:120] Top shape: 1 15 1024 (15360)
I0930 10:28:13.072602  1561 layer_factory.hpp:74] Creating layer lstm1_unit_2
I0930 10:28:13.072609  1561 net.cpp:84] Creating Layer lstm1_unit_2
I0930 10:28:13.072613  1561 net.cpp:381] lstm1_unit_2 <- c_1
I0930 10:28:13.072619  1561 net.cpp:381] lstm1_unit_2 <- gate_input_2
I0930 10:28:13.072630  1561 net.cpp:381] lstm1_unit_2 <- cont_2_lstm1_cont_slice_1_split_1
I0930 10:28:13.072638  1561 net.cpp:339] lstm1_unit_2 -> c_2
I0930 10:28:13.072649  1561 net.cpp:339] lstm1_unit_2 -> h_2
I0930 10:28:13.072657  1561 net.cpp:113] Setting up lstm1_unit_2
I0930 10:28:13.072666  1561 net.cpp:120] Top shape: 1 15 256 (3840)
I0930 10:28:13.072674  1561 net.cpp:120] Top shape: 1 15 256 (3840)
I0930 10:28:13.072679  1561 layer_factory.hpp:74] Creating layer h_2_lstm1_unit_2_1_split
I0930 10:28:13.072685  1561 net.cpp:84] Creating Layer h_2_lstm1_unit_2_1_split
I0930 10:28:13.072688  1561 net.cpp:381] h_2_lstm1_unit_2_1_split <- h_2
I0930 10:28:13.072697  1561 net.cpp:339] h_2_lstm1_unit_2_1_split -> h_2_lstm1_unit_2_1_split_0
I0930 10:28:13.072707  1561 net.cpp:339] h_2_lstm1_unit_2_1_split -> h_2_lstm1_unit_2_1_split_1
I0930 10:28:13.072715  1561 net.cpp:113] Setting up h_2_lstm1_unit_2_1_split
I0930 10:28:13.072722  1561 net.cpp:120] Top shape: 1 15 256 (3840)
I0930 10:28:13.072729  1561 net.cpp:120] Top shape: 1 15 256 (3840)
I0930 10:28:13.072733  1561 layer_factory.hpp:74] Creating layer lstm1_h_conted_2
I0930 10:28:13.072739  1561 net.cpp:84] Creating Layer lstm1_h_conted_2
I0930 10:28:13.072748  1561 net.cpp:381] lstm1_h_conted_2 <- h_2_lstm1_unit_2_1_split_0
I0930 10:28:13.072754  1561 net.cpp:381] lstm1_h_conted_2 <- cont_3_lstm1_cont_slice_2_split_0
I0930 10:28:13.072760  1561 net.cpp:339] lstm1_h_conted_2 -> h_conted_2
I0930 10:28:13.072769  1561 net.cpp:113] Setting up lstm1_h_conted_2
I0930 10:28:13.072777  1561 net.cpp:120] Top shape: 1 15 256 (3840)
I0930 10:28:13.072782  1561 layer_factory.hpp:74] Creating layer lstm1_transform_3
I0930 10:28:13.072789  1561 net.cpp:84] Creating Layer lstm1_transform_3
I0930 10:28:13.072795  1561 net.cpp:381] lstm1_transform_3 <- h_conted_2
I0930 10:28:13.072805  1561 net.cpp:339] lstm1_transform_3 -> W_hc_h_2
I0930 10:28:13.072813  1561 net.cpp:113] Setting up lstm1_transform_3
I0930 10:28:13.076009  1561 net.cpp:120] Top shape: 1 15 1024 (15360)
I0930 10:28:13.076022  1561 net.cpp:425] Sharing parameters 'W_hc' owned by layer 'lstm1_transform_1', param index 0
I0930 10:28:13.076027  1561 layer_factory.hpp:74] Creating layer lstm1_gate_input_3
I0930 10:28:13.076035  1561 net.cpp:84] Creating Layer lstm1_gate_input_3
I0930 10:28:13.076040  1561 net.cpp:381] lstm1_gate_input_3 <- W_hc_h_2
I0930 10:28:13.076047  1561 net.cpp:381] lstm1_gate_input_3 <- W_xc_x_3
I0930 10:28:13.076056  1561 net.cpp:339] lstm1_gate_input_3 -> gate_input_3
I0930 10:28:13.076064  1561 net.cpp:113] Setting up lstm1_gate_input_3
I0930 10:28:13.076072  1561 net.cpp:120] Top shape: 1 15 1024 (15360)
I0930 10:28:13.076076  1561 layer_factory.hpp:74] Creating layer lstm1_unit_3
I0930 10:28:13.076088  1561 net.cpp:84] Creating Layer lstm1_unit_3
I0930 10:28:13.076094  1561 net.cpp:381] lstm1_unit_3 <- c_2
I0930 10:28:13.076100  1561 net.cpp:381] lstm1_unit_3 <- gate_input_3
I0930 10:28:13.076107  1561 net.cpp:381] lstm1_unit_3 <- cont_3_lstm1_cont_slice_2_split_1
I0930 10:28:13.076115  1561 net.cpp:339] lstm1_unit_3 -> c_3
I0930 10:28:13.076125  1561 net.cpp:339] lstm1_unit_3 -> h_3
I0930 10:28:13.076134  1561 net.cpp:113] Setting up lstm1_unit_3
I0930 10:28:13.076144  1561 net.cpp:120] Top shape: 1 15 256 (3840)
I0930 10:28:13.076150  1561 net.cpp:120] Top shape: 1 15 256 (3840)
I0930 10:28:13.076154  1561 layer_factory.hpp:74] Creating layer h_3_lstm1_unit_3_1_split
I0930 10:28:13.076160  1561 net.cpp:84] Creating Layer h_3_lstm1_unit_3_1_split
I0930 10:28:13.076164  1561 net.cpp:381] h_3_lstm1_unit_3_1_split <- h_3
I0930 10:28:13.076174  1561 net.cpp:339] h_3_lstm1_unit_3_1_split -> h_3_lstm1_unit_3_1_split_0
I0930 10:28:13.076184  1561 net.cpp:339] h_3_lstm1_unit_3_1_split -> h_3_lstm1_unit_3_1_split_1
I0930 10:28:13.076190  1561 net.cpp:113] Setting up h_3_lstm1_unit_3_1_split
I0930 10:28:13.076197  1561 net.cpp:120] Top shape: 1 15 256 (3840)
I0930 10:28:13.076205  1561 net.cpp:120] Top shape: 1 15 256 (3840)
I0930 10:28:13.076208  1561 layer_factory.hpp:74] Creating layer lstm1_h_conted_3
I0930 10:28:13.076215  1561 net.cpp:84] Creating Layer lstm1_h_conted_3
I0930 10:28:13.076220  1561 net.cpp:381] lstm1_h_conted_3 <- h_3_lstm1_unit_3_1_split_0
I0930 10:28:13.076225  1561 net.cpp:381] lstm1_h_conted_3 <- cont_4_lstm1_cont_slice_3_split_0
I0930 10:28:13.076233  1561 net.cpp:339] lstm1_h_conted_3 -> h_conted_3
I0930 10:28:13.076242  1561 net.cpp:113] Setting up lstm1_h_conted_3
I0930 10:28:13.076251  1561 net.cpp:120] Top shape: 1 15 256 (3840)
I0930 10:28:13.076257  1561 layer_factory.hpp:74] Creating layer lstm1_transform_4
I0930 10:28:13.076266  1561 net.cpp:84] Creating Layer lstm1_transform_4
I0930 10:28:13.076272  1561 net.cpp:381] lstm1_transform_4 <- h_conted_3
I0930 10:28:13.076282  1561 net.cpp:339] lstm1_transform_4 -> W_hc_h_3
I0930 10:28:13.076290  1561 net.cpp:113] Setting up lstm1_transform_4
I0930 10:28:13.079457  1561 net.cpp:120] Top shape: 1 15 1024 (15360)
I0930 10:28:13.079468  1561 net.cpp:425] Sharing parameters 'W_hc' owned by layer 'lstm1_transform_1', param index 0
I0930 10:28:13.079473  1561 layer_factory.hpp:74] Creating layer lstm1_gate_input_4
I0930 10:28:13.079480  1561 net.cpp:84] Creating Layer lstm1_gate_input_4
I0930 10:28:13.079484  1561 net.cpp:381] lstm1_gate_input_4 <- W_hc_h_3
I0930 10:28:13.079491  1561 net.cpp:381] lstm1_gate_input_4 <- W_xc_x_4
I0930 10:28:13.079497  1561 net.cpp:339] lstm1_gate_input_4 -> gate_input_4
I0930 10:28:13.079505  1561 net.cpp:113] Setting up lstm1_gate_input_4
I0930 10:28:13.079512  1561 net.cpp:120] Top shape: 1 15 1024 (15360)
I0930 10:28:13.079517  1561 layer_factory.hpp:74] Creating layer lstm1_unit_4
I0930 10:28:13.079526  1561 net.cpp:84] Creating Layer lstm1_unit_4
I0930 10:28:13.079530  1561 net.cpp:381] lstm1_unit_4 <- c_3
I0930 10:28:13.079536  1561 net.cpp:381] lstm1_unit_4 <- gate_input_4
I0930 10:28:13.079541  1561 net.cpp:381] lstm1_unit_4 <- cont_4_lstm1_cont_slice_3_split_1
I0930 10:28:13.079548  1561 net.cpp:339] lstm1_unit_4 -> c_4
I0930 10:28:13.079556  1561 net.cpp:339] lstm1_unit_4 -> h_4
I0930 10:28:13.079571  1561 net.cpp:113] Setting up lstm1_unit_4
I0930 10:28:13.079579  1561 net.cpp:120] Top shape: 1 15 256 (3840)
I0930 10:28:13.079586  1561 net.cpp:120] Top shape: 1 15 256 (3840)
I0930 10:28:13.079589  1561 layer_factory.hpp:74] Creating layer h_4_lstm1_unit_4_1_split
I0930 10:28:13.079596  1561 net.cpp:84] Creating Layer h_4_lstm1_unit_4_1_split
I0930 10:28:13.079601  1561 net.cpp:381] h_4_lstm1_unit_4_1_split <- h_4
I0930 10:28:13.079607  1561 net.cpp:339] h_4_lstm1_unit_4_1_split -> h_4_lstm1_unit_4_1_split_0
I0930 10:28:13.079613  1561 net.cpp:339] h_4_lstm1_unit_4_1_split -> h_4_lstm1_unit_4_1_split_1
I0930 10:28:13.079622  1561 net.cpp:113] Setting up h_4_lstm1_unit_4_1_split
I0930 10:28:13.079628  1561 net.cpp:120] Top shape: 1 15 256 (3840)
I0930 10:28:13.079635  1561 net.cpp:120] Top shape: 1 15 256 (3840)
I0930 10:28:13.079639  1561 layer_factory.hpp:74] Creating layer lstm1_h_conted_4
I0930 10:28:13.079649  1561 net.cpp:84] Creating Layer lstm1_h_conted_4
I0930 10:28:13.079655  1561 net.cpp:381] lstm1_h_conted_4 <- h_4_lstm1_unit_4_1_split_0
I0930 10:28:13.079661  1561 net.cpp:381] lstm1_h_conted_4 <- cont_5_lstm1_cont_slice_4_split_0
I0930 10:28:13.079668  1561 net.cpp:339] lstm1_h_conted_4 -> h_conted_4
I0930 10:28:13.079674  1561 net.cpp:113] Setting up lstm1_h_conted_4
I0930 10:28:13.079682  1561 net.cpp:120] Top shape: 1 15 256 (3840)
I0930 10:28:13.079687  1561 layer_factory.hpp:74] Creating layer lstm1_transform_5
I0930 10:28:13.079697  1561 net.cpp:84] Creating Layer lstm1_transform_5
I0930 10:28:13.079704  1561 net.cpp:381] lstm1_transform_5 <- h_conted_4
I0930 10:28:13.079710  1561 net.cpp:339] lstm1_transform_5 -> W_hc_h_4
I0930 10:28:13.079718  1561 net.cpp:113] Setting up lstm1_transform_5
I0930 10:28:13.082882  1561 net.cpp:120] Top shape: 1 15 1024 (15360)
I0930 10:28:13.082896  1561 net.cpp:425] Sharing parameters 'W_hc' owned by layer 'lstm1_transform_1', param index 0
I0930 10:28:13.082901  1561 layer_factory.hpp:74] Creating layer lstm1_gate_input_5
I0930 10:28:13.082911  1561 net.cpp:84] Creating Layer lstm1_gate_input_5
I0930 10:28:13.082916  1561 net.cpp:381] lstm1_gate_input_5 <- W_hc_h_4
I0930 10:28:13.082921  1561 net.cpp:381] lstm1_gate_input_5 <- W_xc_x_5
I0930 10:28:13.082928  1561 net.cpp:339] lstm1_gate_input_5 -> gate_input_5
I0930 10:28:13.082937  1561 net.cpp:113] Setting up lstm1_gate_input_5
I0930 10:28:13.082942  1561 net.cpp:120] Top shape: 1 15 1024 (15360)
I0930 10:28:13.082947  1561 layer_factory.hpp:74] Creating layer lstm1_unit_5
I0930 10:28:13.082953  1561 net.cpp:84] Creating Layer lstm1_unit_5
I0930 10:28:13.082957  1561 net.cpp:381] lstm1_unit_5 <- c_4
I0930 10:28:13.082965  1561 net.cpp:381] lstm1_unit_5 <- gate_input_5
I0930 10:28:13.082972  1561 net.cpp:381] lstm1_unit_5 <- cont_5_lstm1_cont_slice_4_split_1
I0930 10:28:13.082978  1561 net.cpp:339] lstm1_unit_5 -> c_5
I0930 10:28:13.082988  1561 net.cpp:339] lstm1_unit_5 -> h_5
I0930 10:28:13.082994  1561 net.cpp:113] Setting up lstm1_unit_5
I0930 10:28:13.083003  1561 net.cpp:120] Top shape: 1 15 256 (3840)
I0930 10:28:13.083009  1561 net.cpp:120] Top shape: 1 15 256 (3840)
I0930 10:28:13.083014  1561 layer_factory.hpp:74] Creating layer h_5_lstm1_unit_5_1_split
I0930 10:28:13.083019  1561 net.cpp:84] Creating Layer h_5_lstm1_unit_5_1_split
I0930 10:28:13.083024  1561 net.cpp:381] h_5_lstm1_unit_5_1_split <- h_5
I0930 10:28:13.083032  1561 net.cpp:339] h_5_lstm1_unit_5_1_split -> h_5_lstm1_unit_5_1_split_0
I0930 10:28:13.083042  1561 net.cpp:339] h_5_lstm1_unit_5_1_split -> h_5_lstm1_unit_5_1_split_1
I0930 10:28:13.083050  1561 net.cpp:113] Setting up h_5_lstm1_unit_5_1_split
I0930 10:28:13.083057  1561 net.cpp:120] Top shape: 1 15 256 (3840)
I0930 10:28:13.083062  1561 net.cpp:120] Top shape: 1 15 256 (3840)
I0930 10:28:13.083066  1561 layer_factory.hpp:74] Creating layer lstm1_h_conted_5
I0930 10:28:13.083072  1561 net.cpp:84] Creating Layer lstm1_h_conted_5
I0930 10:28:13.083076  1561 net.cpp:381] lstm1_h_conted_5 <- h_5_lstm1_unit_5_1_split_0
I0930 10:28:13.083082  1561 net.cpp:381] lstm1_h_conted_5 <- cont_6_lstm1_cont_slice_5_split_0
I0930 10:28:13.083091  1561 net.cpp:339] lstm1_h_conted_5 -> h_conted_5
I0930 10:28:13.083098  1561 net.cpp:113] Setting up lstm1_h_conted_5
I0930 10:28:13.083106  1561 net.cpp:120] Top shape: 1 15 256 (3840)
I0930 10:28:13.083112  1561 layer_factory.hpp:74] Creating layer lstm1_transform_6
I0930 10:28:13.083119  1561 net.cpp:84] Creating Layer lstm1_transform_6
I0930 10:28:13.083125  1561 net.cpp:381] lstm1_transform_6 <- h_conted_5
I0930 10:28:13.083135  1561 net.cpp:339] lstm1_transform_6 -> W_hc_h_5
I0930 10:28:13.083144  1561 net.cpp:113] Setting up lstm1_transform_6
I0930 10:28:13.086319  1561 net.cpp:120] Top shape: 1 15 1024 (15360)
I0930 10:28:13.086329  1561 net.cpp:425] Sharing parameters 'W_hc' owned by layer 'lstm1_transform_1', param index 0
I0930 10:28:13.086334  1561 layer_factory.hpp:74] Creating layer lstm1_gate_input_6
I0930 10:28:13.086343  1561 net.cpp:84] Creating Layer lstm1_gate_input_6
I0930 10:28:13.086346  1561 net.cpp:381] lstm1_gate_input_6 <- W_hc_h_5
I0930 10:28:13.086352  1561 net.cpp:381] lstm1_gate_input_6 <- W_xc_x_6
I0930 10:28:13.086362  1561 net.cpp:339] lstm1_gate_input_6 -> gate_input_6
I0930 10:28:13.086369  1561 net.cpp:113] Setting up lstm1_gate_input_6
I0930 10:28:13.086376  1561 net.cpp:120] Top shape: 1 15 1024 (15360)
I0930 10:28:13.086381  1561 layer_factory.hpp:74] Creating layer lstm1_unit_6
I0930 10:28:13.086387  1561 net.cpp:84] Creating Layer lstm1_unit_6
I0930 10:28:13.086392  1561 net.cpp:381] lstm1_unit_6 <- c_5
I0930 10:28:13.086398  1561 net.cpp:381] lstm1_unit_6 <- gate_input_6
I0930 10:28:13.086403  1561 net.cpp:381] lstm1_unit_6 <- cont_6_lstm1_cont_slice_5_split_1
I0930 10:28:13.086410  1561 net.cpp:339] lstm1_unit_6 -> c_6
I0930 10:28:13.086416  1561 net.cpp:339] lstm1_unit_6 -> h_6
I0930 10:28:13.086426  1561 net.cpp:113] Setting up lstm1_unit_6
I0930 10:28:13.086432  1561 net.cpp:120] Top shape: 1 15 256 (3840)
I0930 10:28:13.086441  1561 net.cpp:120] Top shape: 1 15 256 (3840)
I0930 10:28:13.086444  1561 layer_factory.hpp:74] Creating layer h_6_lstm1_unit_6_1_split
I0930 10:28:13.086453  1561 net.cpp:84] Creating Layer h_6_lstm1_unit_6_1_split
I0930 10:28:13.086459  1561 net.cpp:381] h_6_lstm1_unit_6_1_split <- h_6
I0930 10:28:13.086465  1561 net.cpp:339] h_6_lstm1_unit_6_1_split -> h_6_lstm1_unit_6_1_split_0
I0930 10:28:13.086472  1561 net.cpp:339] h_6_lstm1_unit_6_1_split -> h_6_lstm1_unit_6_1_split_1
I0930 10:28:13.086480  1561 net.cpp:113] Setting up h_6_lstm1_unit_6_1_split
I0930 10:28:13.086490  1561 net.cpp:120] Top shape: 1 15 256 (3840)
I0930 10:28:13.086498  1561 net.cpp:120] Top shape: 1 15 256 (3840)
I0930 10:28:13.086501  1561 layer_factory.hpp:74] Creating layer lstm1_h_conted_6
I0930 10:28:13.086508  1561 net.cpp:84] Creating Layer lstm1_h_conted_6
I0930 10:28:13.086511  1561 net.cpp:381] lstm1_h_conted_6 <- h_6_lstm1_unit_6_1_split_0
I0930 10:28:13.086518  1561 net.cpp:381] lstm1_h_conted_6 <- cont_7_lstm1_cont_slice_6_split_0
I0930 10:28:13.086524  1561 net.cpp:339] lstm1_h_conted_6 -> h_conted_6
I0930 10:28:13.086531  1561 net.cpp:113] Setting up lstm1_h_conted_6
I0930 10:28:13.086539  1561 net.cpp:120] Top shape: 1 15 256 (3840)
I0930 10:28:13.086545  1561 layer_factory.hpp:74] Creating layer lstm1_transform_7
I0930 10:28:13.086557  1561 net.cpp:84] Creating Layer lstm1_transform_7
I0930 10:28:13.086565  1561 net.cpp:381] lstm1_transform_7 <- h_conted_6
I0930 10:28:13.086571  1561 net.cpp:339] lstm1_transform_7 -> W_hc_h_6
I0930 10:28:13.086580  1561 net.cpp:113] Setting up lstm1_transform_7
I0930 10:28:13.089746  1561 net.cpp:120] Top shape: 1 15 1024 (15360)
I0930 10:28:13.089758  1561 net.cpp:425] Sharing parameters 'W_hc' owned by layer 'lstm1_transform_1', param index 0
I0930 10:28:13.089763  1561 layer_factory.hpp:74] Creating layer lstm1_gate_input_7
I0930 10:28:13.089771  1561 net.cpp:84] Creating Layer lstm1_gate_input_7
I0930 10:28:13.089776  1561 net.cpp:381] lstm1_gate_input_7 <- W_hc_h_6
I0930 10:28:13.089781  1561 net.cpp:381] lstm1_gate_input_7 <- W_xc_x_7
I0930 10:28:13.089787  1561 net.cpp:339] lstm1_gate_input_7 -> gate_input_7
I0930 10:28:13.089795  1561 net.cpp:113] Setting up lstm1_gate_input_7
I0930 10:28:13.089802  1561 net.cpp:120] Top shape: 1 15 1024 (15360)
I0930 10:28:13.089807  1561 layer_factory.hpp:74] Creating layer lstm1_unit_7
I0930 10:28:13.089812  1561 net.cpp:84] Creating Layer lstm1_unit_7
I0930 10:28:13.089818  1561 net.cpp:381] lstm1_unit_7 <- c_6
I0930 10:28:13.089825  1561 net.cpp:381] lstm1_unit_7 <- gate_input_7
I0930 10:28:13.089834  1561 net.cpp:381] lstm1_unit_7 <- cont_7_lstm1_cont_slice_6_split_1
I0930 10:28:13.089841  1561 net.cpp:339] lstm1_unit_7 -> c_7
I0930 10:28:13.089851  1561 net.cpp:339] lstm1_unit_7 -> h_7
I0930 10:28:13.089859  1561 net.cpp:113] Setting up lstm1_unit_7
I0930 10:28:13.089869  1561 net.cpp:120] Top shape: 1 15 256 (3840)
I0930 10:28:13.089875  1561 net.cpp:120] Top shape: 1 15 256 (3840)
I0930 10:28:13.089879  1561 layer_factory.hpp:74] Creating layer h_7_lstm1_unit_7_1_split
I0930 10:28:13.089895  1561 net.cpp:84] Creating Layer h_7_lstm1_unit_7_1_split
I0930 10:28:13.089900  1561 net.cpp:381] h_7_lstm1_unit_7_1_split <- h_7
I0930 10:28:13.089907  1561 net.cpp:339] h_7_lstm1_unit_7_1_split -> h_7_lstm1_unit_7_1_split_0
I0930 10:28:13.089915  1561 net.cpp:339] h_7_lstm1_unit_7_1_split -> h_7_lstm1_unit_7_1_split_1
I0930 10:28:13.089922  1561 net.cpp:113] Setting up h_7_lstm1_unit_7_1_split
I0930 10:28:13.089929  1561 net.cpp:120] Top shape: 1 15 256 (3840)
I0930 10:28:13.089934  1561 net.cpp:120] Top shape: 1 15 256 (3840)
I0930 10:28:13.089938  1561 layer_factory.hpp:74] Creating layer lstm1_h_conted_7
I0930 10:28:13.089946  1561 net.cpp:84] Creating Layer lstm1_h_conted_7
I0930 10:28:13.089949  1561 net.cpp:381] lstm1_h_conted_7 <- h_7_lstm1_unit_7_1_split_0
I0930 10:28:13.089954  1561 net.cpp:381] lstm1_h_conted_7 <- cont_8_lstm1_cont_slice_7_split_0
I0930 10:28:13.089963  1561 net.cpp:339] lstm1_h_conted_7 -> h_conted_7
I0930 10:28:13.089972  1561 net.cpp:113] Setting up lstm1_h_conted_7
I0930 10:28:13.089978  1561 net.cpp:120] Top shape: 1 15 256 (3840)
I0930 10:28:13.089984  1561 layer_factory.hpp:74] Creating layer lstm1_transform_8
I0930 10:28:13.089992  1561 net.cpp:84] Creating Layer lstm1_transform_8
I0930 10:28:13.089998  1561 net.cpp:381] lstm1_transform_8 <- h_conted_7
I0930 10:28:13.090008  1561 net.cpp:339] lstm1_transform_8 -> W_hc_h_7
I0930 10:28:13.090016  1561 net.cpp:113] Setting up lstm1_transform_8
I0930 10:28:13.093178  1561 net.cpp:120] Top shape: 1 15 1024 (15360)
I0930 10:28:13.093188  1561 net.cpp:425] Sharing parameters 'W_hc' owned by layer 'lstm1_transform_1', param index 0
I0930 10:28:13.093192  1561 layer_factory.hpp:74] Creating layer lstm1_gate_input_8
I0930 10:28:13.093200  1561 net.cpp:84] Creating Layer lstm1_gate_input_8
I0930 10:28:13.093204  1561 net.cpp:381] lstm1_gate_input_8 <- W_hc_h_7
I0930 10:28:13.093210  1561 net.cpp:381] lstm1_gate_input_8 <- W_xc_x_8
I0930 10:28:13.093219  1561 net.cpp:339] lstm1_gate_input_8 -> gate_input_8
I0930 10:28:13.093227  1561 net.cpp:113] Setting up lstm1_gate_input_8
I0930 10:28:13.093235  1561 net.cpp:120] Top shape: 1 15 1024 (15360)
I0930 10:28:13.093238  1561 layer_factory.hpp:74] Creating layer lstm1_unit_8
I0930 10:28:13.093245  1561 net.cpp:84] Creating Layer lstm1_unit_8
I0930 10:28:13.093250  1561 net.cpp:381] lstm1_unit_8 <- c_7
I0930 10:28:13.093256  1561 net.cpp:381] lstm1_unit_8 <- gate_input_8
I0930 10:28:13.093261  1561 net.cpp:381] lstm1_unit_8 <- cont_8_lstm1_cont_slice_7_split_1
I0930 10:28:13.093267  1561 net.cpp:339] lstm1_unit_8 -> c_8
I0930 10:28:13.093278  1561 net.cpp:339] lstm1_unit_8 -> h_8
I0930 10:28:13.093284  1561 net.cpp:113] Setting up lstm1_unit_8
I0930 10:28:13.093292  1561 net.cpp:120] Top shape: 1 15 256 (3840)
I0930 10:28:13.093297  1561 net.cpp:120] Top shape: 1 15 256 (3840)
I0930 10:28:13.093302  1561 layer_factory.hpp:74] Creating layer h_8_lstm1_unit_8_1_split
I0930 10:28:13.093308  1561 net.cpp:84] Creating Layer h_8_lstm1_unit_8_1_split
I0930 10:28:13.093312  1561 net.cpp:381] h_8_lstm1_unit_8_1_split <- h_8
I0930 10:28:13.093318  1561 net.cpp:339] h_8_lstm1_unit_8_1_split -> h_8_lstm1_unit_8_1_split_0
I0930 10:28:13.093329  1561 net.cpp:339] h_8_lstm1_unit_8_1_split -> h_8_lstm1_unit_8_1_split_1
I0930 10:28:13.093338  1561 net.cpp:113] Setting up h_8_lstm1_unit_8_1_split
I0930 10:28:13.093345  1561 net.cpp:120] Top shape: 1 15 256 (3840)
I0930 10:28:13.093351  1561 net.cpp:120] Top shape: 1 15 256 (3840)
I0930 10:28:13.093355  1561 layer_factory.hpp:74] Creating layer lstm1_h_conted_8
I0930 10:28:13.093364  1561 net.cpp:84] Creating Layer lstm1_h_conted_8
I0930 10:28:13.093370  1561 net.cpp:381] lstm1_h_conted_8 <- h_8_lstm1_unit_8_1_split_0
I0930 10:28:13.093375  1561 net.cpp:381] lstm1_h_conted_8 <- cont_9_lstm1_cont_slice_8_split_0
I0930 10:28:13.093382  1561 net.cpp:339] lstm1_h_conted_8 -> h_conted_8
I0930 10:28:13.093391  1561 net.cpp:113] Setting up lstm1_h_conted_8
I0930 10:28:13.093399  1561 net.cpp:120] Top shape: 1 15 256 (3840)
I0930 10:28:13.093403  1561 layer_factory.hpp:74] Creating layer lstm1_transform_9
I0930 10:28:13.093415  1561 net.cpp:84] Creating Layer lstm1_transform_9
I0930 10:28:13.093420  1561 net.cpp:381] lstm1_transform_9 <- h_conted_8
I0930 10:28:13.093428  1561 net.cpp:339] lstm1_transform_9 -> W_hc_h_8
I0930 10:28:13.093436  1561 net.cpp:113] Setting up lstm1_transform_9
I0930 10:28:13.096632  1561 net.cpp:120] Top shape: 1 15 1024 (15360)
I0930 10:28:13.096642  1561 net.cpp:425] Sharing parameters 'W_hc' owned by layer 'lstm1_transform_1', param index 0
I0930 10:28:13.096647  1561 layer_factory.hpp:74] Creating layer lstm1_gate_input_9
I0930 10:28:13.096657  1561 net.cpp:84] Creating Layer lstm1_gate_input_9
I0930 10:28:13.096662  1561 net.cpp:381] lstm1_gate_input_9 <- W_hc_h_8
I0930 10:28:13.096668  1561 net.cpp:381] lstm1_gate_input_9 <- W_xc_x_9
I0930 10:28:13.096675  1561 net.cpp:339] lstm1_gate_input_9 -> gate_input_9
I0930 10:28:13.096683  1561 net.cpp:113] Setting up lstm1_gate_input_9
I0930 10:28:13.096690  1561 net.cpp:120] Top shape: 1 15 1024 (15360)
I0930 10:28:13.096694  1561 layer_factory.hpp:74] Creating layer lstm1_unit_9
I0930 10:28:13.096704  1561 net.cpp:84] Creating Layer lstm1_unit_9
I0930 10:28:13.096709  1561 net.cpp:381] lstm1_unit_9 <- c_8
I0930 10:28:13.096714  1561 net.cpp:381] lstm1_unit_9 <- gate_input_9
I0930 10:28:13.096719  1561 net.cpp:381] lstm1_unit_9 <- cont_9_lstm1_cont_slice_8_split_1
I0930 10:28:13.096726  1561 net.cpp:339] lstm1_unit_9 -> c_9
I0930 10:28:13.096755  1561 net.cpp:339] lstm1_unit_9 -> h_9
I0930 10:28:13.096763  1561 net.cpp:113] Setting up lstm1_unit_9
I0930 10:28:13.096772  1561 net.cpp:120] Top shape: 1 15 256 (3840)
I0930 10:28:13.096779  1561 net.cpp:120] Top shape: 1 15 256 (3840)
I0930 10:28:13.096784  1561 layer_factory.hpp:74] Creating layer h_9_lstm1_unit_9_1_split
I0930 10:28:13.096791  1561 net.cpp:84] Creating Layer h_9_lstm1_unit_9_1_split
I0930 10:28:13.096796  1561 net.cpp:381] h_9_lstm1_unit_9_1_split <- h_9
I0930 10:28:13.096801  1561 net.cpp:339] h_9_lstm1_unit_9_1_split -> h_9_lstm1_unit_9_1_split_0
I0930 10:28:13.096808  1561 net.cpp:339] h_9_lstm1_unit_9_1_split -> h_9_lstm1_unit_9_1_split_1
I0930 10:28:13.096817  1561 net.cpp:113] Setting up h_9_lstm1_unit_9_1_split
I0930 10:28:13.096823  1561 net.cpp:120] Top shape: 1 15 256 (3840)
I0930 10:28:13.096830  1561 net.cpp:120] Top shape: 1 15 256 (3840)
I0930 10:28:13.096834  1561 layer_factory.hpp:74] Creating layer lstm1_h_conted_9
I0930 10:28:13.096851  1561 net.cpp:84] Creating Layer lstm1_h_conted_9
I0930 10:28:13.096858  1561 net.cpp:381] lstm1_h_conted_9 <- h_9_lstm1_unit_9_1_split_0
I0930 10:28:13.096864  1561 net.cpp:381] lstm1_h_conted_9 <- cont_10_lstm1_cont_slice_9_split_0
I0930 10:28:13.096870  1561 net.cpp:339] lstm1_h_conted_9 -> h_conted_9
I0930 10:28:13.096878  1561 net.cpp:113] Setting up lstm1_h_conted_9
I0930 10:28:13.096889  1561 net.cpp:120] Top shape: 1 15 256 (3840)
I0930 10:28:13.096895  1561 layer_factory.hpp:74] Creating layer lstm1_transform_10
I0930 10:28:13.096904  1561 net.cpp:84] Creating Layer lstm1_transform_10
I0930 10:28:13.096910  1561 net.cpp:381] lstm1_transform_10 <- h_conted_9
I0930 10:28:13.096920  1561 net.cpp:339] lstm1_transform_10 -> W_hc_h_9
I0930 10:28:13.096930  1561 net.cpp:113] Setting up lstm1_transform_10
I0930 10:28:13.100088  1561 net.cpp:120] Top shape: 1 15 1024 (15360)
I0930 10:28:13.100098  1561 net.cpp:425] Sharing parameters 'W_hc' owned by layer 'lstm1_transform_1', param index 0
I0930 10:28:13.100102  1561 layer_factory.hpp:74] Creating layer lstm1_gate_input_10
I0930 10:28:13.100112  1561 net.cpp:84] Creating Layer lstm1_gate_input_10
I0930 10:28:13.100117  1561 net.cpp:381] lstm1_gate_input_10 <- W_hc_h_9
I0930 10:28:13.100126  1561 net.cpp:381] lstm1_gate_input_10 <- W_xc_x_10
I0930 10:28:13.100132  1561 net.cpp:339] lstm1_gate_input_10 -> gate_input_10
I0930 10:28:13.100139  1561 net.cpp:113] Setting up lstm1_gate_input_10
I0930 10:28:13.100147  1561 net.cpp:120] Top shape: 1 15 1024 (15360)
I0930 10:28:13.100152  1561 layer_factory.hpp:74] Creating layer lstm1_unit_10
I0930 10:28:13.100159  1561 net.cpp:84] Creating Layer lstm1_unit_10
I0930 10:28:13.100163  1561 net.cpp:381] lstm1_unit_10 <- c_9
I0930 10:28:13.100169  1561 net.cpp:381] lstm1_unit_10 <- gate_input_10
I0930 10:28:13.100175  1561 net.cpp:381] lstm1_unit_10 <- cont_10_lstm1_cont_slice_9_split_1
I0930 10:28:13.100188  1561 net.cpp:339] lstm1_unit_10 -> c_10
I0930 10:28:13.100198  1561 net.cpp:339] lstm1_unit_10 -> h_10
I0930 10:28:13.100208  1561 net.cpp:113] Setting up lstm1_unit_10
I0930 10:28:13.100214  1561 net.cpp:120] Top shape: 1 15 256 (3840)
I0930 10:28:13.100221  1561 net.cpp:120] Top shape: 1 15 256 (3840)
I0930 10:28:13.100225  1561 layer_factory.hpp:74] Creating layer h_10_lstm1_unit_10_1_split
I0930 10:28:13.100231  1561 net.cpp:84] Creating Layer h_10_lstm1_unit_10_1_split
I0930 10:28:13.100235  1561 net.cpp:381] h_10_lstm1_unit_10_1_split <- h_10
I0930 10:28:13.100244  1561 net.cpp:339] h_10_lstm1_unit_10_1_split -> h_10_lstm1_unit_10_1_split_0
I0930 10:28:13.100255  1561 net.cpp:339] h_10_lstm1_unit_10_1_split -> h_10_lstm1_unit_10_1_split_1
I0930 10:28:13.100262  1561 net.cpp:113] Setting up h_10_lstm1_unit_10_1_split
I0930 10:28:13.100270  1561 net.cpp:120] Top shape: 1 15 256 (3840)
I0930 10:28:13.100276  1561 net.cpp:120] Top shape: 1 15 256 (3840)
I0930 10:28:13.100281  1561 layer_factory.hpp:74] Creating layer lstm1_h_conted_10
I0930 10:28:13.100286  1561 net.cpp:84] Creating Layer lstm1_h_conted_10
I0930 10:28:13.100291  1561 net.cpp:381] lstm1_h_conted_10 <- h_10_lstm1_unit_10_1_split_0
I0930 10:28:13.100297  1561 net.cpp:381] lstm1_h_conted_10 <- cont_11_lstm1_cont_slice_10_split_0
I0930 10:28:13.100306  1561 net.cpp:339] lstm1_h_conted_10 -> h_conted_10
I0930 10:28:13.100314  1561 net.cpp:113] Setting up lstm1_h_conted_10
I0930 10:28:13.100323  1561 net.cpp:120] Top shape: 1 15 256 (3840)
I0930 10:28:13.100329  1561 layer_factory.hpp:74] Creating layer lstm1_transform_11
I0930 10:28:13.100339  1561 net.cpp:84] Creating Layer lstm1_transform_11
I0930 10:28:13.100347  1561 net.cpp:381] lstm1_transform_11 <- h_conted_10
I0930 10:28:13.100356  1561 net.cpp:339] lstm1_transform_11 -> W_hc_h_10
I0930 10:28:13.100365  1561 net.cpp:113] Setting up lstm1_transform_11
I0930 10:28:13.103534  1561 net.cpp:120] Top shape: 1 15 1024 (15360)
I0930 10:28:13.103544  1561 net.cpp:425] Sharing parameters 'W_hc' owned by layer 'lstm1_transform_1', param index 0
I0930 10:28:13.103549  1561 layer_factory.hpp:74] Creating layer lstm1_gate_input_11
I0930 10:28:13.103556  1561 net.cpp:84] Creating Layer lstm1_gate_input_11
I0930 10:28:13.103561  1561 net.cpp:381] lstm1_gate_input_11 <- W_hc_h_10
I0930 10:28:13.103567  1561 net.cpp:381] lstm1_gate_input_11 <- W_xc_x_11
I0930 10:28:13.103574  1561 net.cpp:339] lstm1_gate_input_11 -> gate_input_11
I0930 10:28:13.103581  1561 net.cpp:113] Setting up lstm1_gate_input_11
I0930 10:28:13.103588  1561 net.cpp:120] Top shape: 1 15 1024 (15360)
I0930 10:28:13.103592  1561 layer_factory.hpp:74] Creating layer lstm1_unit_11
I0930 10:28:13.103602  1561 net.cpp:84] Creating Layer lstm1_unit_11
I0930 10:28:13.103607  1561 net.cpp:381] lstm1_unit_11 <- c_10
I0930 10:28:13.103612  1561 net.cpp:381] lstm1_unit_11 <- gate_input_11
I0930 10:28:13.103618  1561 net.cpp:381] lstm1_unit_11 <- cont_11_lstm1_cont_slice_10_split_1
I0930 10:28:13.103626  1561 net.cpp:339] lstm1_unit_11 -> c_11
I0930 10:28:13.103637  1561 net.cpp:339] lstm1_unit_11 -> h_11
I0930 10:28:13.103646  1561 net.cpp:113] Setting up lstm1_unit_11
I0930 10:28:13.103657  1561 net.cpp:120] Top shape: 1 15 256 (3840)
I0930 10:28:13.103662  1561 net.cpp:120] Top shape: 1 15 256 (3840)
I0930 10:28:13.103667  1561 layer_factory.hpp:74] Creating layer h_11_lstm1_unit_11_1_split
I0930 10:28:13.103672  1561 net.cpp:84] Creating Layer h_11_lstm1_unit_11_1_split
I0930 10:28:13.103677  1561 net.cpp:381] h_11_lstm1_unit_11_1_split <- h_11
I0930 10:28:13.103683  1561 net.cpp:339] h_11_lstm1_unit_11_1_split -> h_11_lstm1_unit_11_1_split_0
I0930 10:28:13.103691  1561 net.cpp:339] h_11_lstm1_unit_11_1_split -> h_11_lstm1_unit_11_1_split_1
I0930 10:28:13.103699  1561 net.cpp:113] Setting up h_11_lstm1_unit_11_1_split
I0930 10:28:13.103706  1561 net.cpp:120] Top shape: 1 15 256 (3840)
I0930 10:28:13.103713  1561 net.cpp:120] Top shape: 1 15 256 (3840)
I0930 10:28:13.103718  1561 layer_factory.hpp:74] Creating layer lstm1_h_conted_11
I0930 10:28:13.103726  1561 net.cpp:84] Creating Layer lstm1_h_conted_11
I0930 10:28:13.103732  1561 net.cpp:381] lstm1_h_conted_11 <- h_11_lstm1_unit_11_1_split_0
I0930 10:28:13.103739  1561 net.cpp:381] lstm1_h_conted_11 <- cont_12_lstm1_cont_slice_11_split_0
I0930 10:28:13.103745  1561 net.cpp:339] lstm1_h_conted_11 -> h_conted_11
I0930 10:28:13.103754  1561 net.cpp:113] Setting up lstm1_h_conted_11
I0930 10:28:13.103760  1561 net.cpp:120] Top shape: 1 15 256 (3840)
I0930 10:28:13.103765  1561 layer_factory.hpp:74] Creating layer lstm1_transform_12
I0930 10:28:13.103776  1561 net.cpp:84] Creating Layer lstm1_transform_12
I0930 10:28:13.103782  1561 net.cpp:381] lstm1_transform_12 <- h_conted_11
I0930 10:28:13.103790  1561 net.cpp:339] lstm1_transform_12 -> W_hc_h_11
I0930 10:28:13.103799  1561 net.cpp:113] Setting up lstm1_transform_12
I0930 10:28:13.106978  1561 net.cpp:120] Top shape: 1 15 1024 (15360)
I0930 10:28:13.106988  1561 net.cpp:425] Sharing parameters 'W_hc' owned by layer 'lstm1_transform_1', param index 0
I0930 10:28:13.106993  1561 layer_factory.hpp:74] Creating layer lstm1_gate_input_12
I0930 10:28:13.107000  1561 net.cpp:84] Creating Layer lstm1_gate_input_12
I0930 10:28:13.107005  1561 net.cpp:381] lstm1_gate_input_12 <- W_hc_h_11
I0930 10:28:13.107010  1561 net.cpp:381] lstm1_gate_input_12 <- W_xc_x_12
I0930 10:28:13.107020  1561 net.cpp:339] lstm1_gate_input_12 -> gate_input_12
I0930 10:28:13.107028  1561 net.cpp:113] Setting up lstm1_gate_input_12
I0930 10:28:13.107035  1561 net.cpp:120] Top shape: 1 15 1024 (15360)
I0930 10:28:13.107039  1561 layer_factory.hpp:74] Creating layer lstm1_unit_12
I0930 10:28:13.107046  1561 net.cpp:84] Creating Layer lstm1_unit_12
I0930 10:28:13.107050  1561 net.cpp:381] lstm1_unit_12 <- c_11
I0930 10:28:13.107056  1561 net.cpp:381] lstm1_unit_12 <- gate_input_12
I0930 10:28:13.107061  1561 net.cpp:381] lstm1_unit_12 <- cont_12_lstm1_cont_slice_11_split_1
I0930 10:28:13.107070  1561 net.cpp:339] lstm1_unit_12 -> c_12
I0930 10:28:13.107080  1561 net.cpp:339] lstm1_unit_12 -> h_12
I0930 10:28:13.107089  1561 net.cpp:113] Setting up lstm1_unit_12
I0930 10:28:13.107096  1561 net.cpp:120] Top shape: 1 15 256 (3840)
I0930 10:28:13.107103  1561 net.cpp:120] Top shape: 1 15 256 (3840)
I0930 10:28:13.107107  1561 layer_factory.hpp:74] Creating layer h_12_lstm1_unit_12_1_split
I0930 10:28:13.107113  1561 net.cpp:84] Creating Layer h_12_lstm1_unit_12_1_split
I0930 10:28:13.107117  1561 net.cpp:381] h_12_lstm1_unit_12_1_split <- h_12
I0930 10:28:13.107125  1561 net.cpp:339] h_12_lstm1_unit_12_1_split -> h_12_lstm1_unit_12_1_split_0
I0930 10:28:13.107134  1561 net.cpp:339] h_12_lstm1_unit_12_1_split -> h_12_lstm1_unit_12_1_split_1
I0930 10:28:13.107142  1561 net.cpp:113] Setting up h_12_lstm1_unit_12_1_split
I0930 10:28:13.107149  1561 net.cpp:120] Top shape: 1 15 256 (3840)
I0930 10:28:13.107156  1561 net.cpp:120] Top shape: 1 15 256 (3840)
I0930 10:28:13.107161  1561 layer_factory.hpp:74] Creating layer lstm1_h_conted_12
I0930 10:28:13.107167  1561 net.cpp:84] Creating Layer lstm1_h_conted_12
I0930 10:28:13.107170  1561 net.cpp:381] lstm1_h_conted_12 <- h_12_lstm1_unit_12_1_split_0
I0930 10:28:13.107177  1561 net.cpp:381] lstm1_h_conted_12 <- cont_13_lstm1_cont_slice_12_split_0
I0930 10:28:13.107185  1561 net.cpp:339] lstm1_h_conted_12 -> h_conted_12
I0930 10:28:13.107193  1561 net.cpp:113] Setting up lstm1_h_conted_12
I0930 10:28:13.107203  1561 net.cpp:120] Top shape: 1 15 256 (3840)
I0930 10:28:13.107208  1561 layer_factory.hpp:74] Creating layer lstm1_transform_13
I0930 10:28:13.107215  1561 net.cpp:84] Creating Layer lstm1_transform_13
I0930 10:28:13.107221  1561 net.cpp:381] lstm1_transform_13 <- h_conted_12
I0930 10:28:13.107229  1561 net.cpp:339] lstm1_transform_13 -> W_hc_h_12
I0930 10:28:13.107239  1561 net.cpp:113] Setting up lstm1_transform_13
I0930 10:28:13.110400  1561 net.cpp:120] Top shape: 1 15 1024 (15360)
I0930 10:28:13.110410  1561 net.cpp:425] Sharing parameters 'W_hc' owned by layer 'lstm1_transform_1', param index 0
I0930 10:28:13.110414  1561 layer_factory.hpp:74] Creating layer lstm1_gate_input_13
I0930 10:28:13.110425  1561 net.cpp:84] Creating Layer lstm1_gate_input_13
I0930 10:28:13.110430  1561 net.cpp:381] lstm1_gate_input_13 <- W_hc_h_12
I0930 10:28:13.110435  1561 net.cpp:381] lstm1_gate_input_13 <- W_xc_x_13
I0930 10:28:13.110442  1561 net.cpp:339] lstm1_gate_input_13 -> gate_input_13
I0930 10:28:13.110450  1561 net.cpp:113] Setting up lstm1_gate_input_13
I0930 10:28:13.110466  1561 net.cpp:120] Top shape: 1 15 1024 (15360)
I0930 10:28:13.110471  1561 layer_factory.hpp:74] Creating layer lstm1_unit_13
I0930 10:28:13.110476  1561 net.cpp:84] Creating Layer lstm1_unit_13
I0930 10:28:13.110481  1561 net.cpp:381] lstm1_unit_13 <- c_12
I0930 10:28:13.110487  1561 net.cpp:381] lstm1_unit_13 <- gate_input_13
I0930 10:28:13.110492  1561 net.cpp:381] lstm1_unit_13 <- cont_13_lstm1_cont_slice_12_split_1
I0930 10:28:13.110498  1561 net.cpp:339] lstm1_unit_13 -> c_13
I0930 10:28:13.110510  1561 net.cpp:339] lstm1_unit_13 -> h_13
I0930 10:28:13.110518  1561 net.cpp:113] Setting up lstm1_unit_13
I0930 10:28:13.110527  1561 net.cpp:120] Top shape: 1 15 256 (3840)
I0930 10:28:13.110532  1561 net.cpp:120] Top shape: 1 15 256 (3840)
I0930 10:28:13.110537  1561 layer_factory.hpp:74] Creating layer h_13_lstm1_unit_13_1_split
I0930 10:28:13.110545  1561 net.cpp:84] Creating Layer h_13_lstm1_unit_13_1_split
I0930 10:28:13.110550  1561 net.cpp:381] h_13_lstm1_unit_13_1_split <- h_13
I0930 10:28:13.110556  1561 net.cpp:339] h_13_lstm1_unit_13_1_split -> h_13_lstm1_unit_13_1_split_0
I0930 10:28:13.110564  1561 net.cpp:339] h_13_lstm1_unit_13_1_split -> h_13_lstm1_unit_13_1_split_1
I0930 10:28:13.110572  1561 net.cpp:113] Setting up h_13_lstm1_unit_13_1_split
I0930 10:28:13.110581  1561 net.cpp:120] Top shape: 1 15 256 (3840)
I0930 10:28:13.110589  1561 net.cpp:120] Top shape: 1 15 256 (3840)
I0930 10:28:13.110592  1561 layer_factory.hpp:74] Creating layer lstm1_h_conted_13
I0930 10:28:13.110599  1561 net.cpp:84] Creating Layer lstm1_h_conted_13
I0930 10:28:13.110604  1561 net.cpp:381] lstm1_h_conted_13 <- h_13_lstm1_unit_13_1_split_0
I0930 10:28:13.110610  1561 net.cpp:381] lstm1_h_conted_13 <- cont_14_lstm1_cont_slice_13_split_0
I0930 10:28:13.110615  1561 net.cpp:339] lstm1_h_conted_13 -> h_conted_13
I0930 10:28:13.110623  1561 net.cpp:113] Setting up lstm1_h_conted_13
I0930 10:28:13.110632  1561 net.cpp:120] Top shape: 1 15 256 (3840)
I0930 10:28:13.110636  1561 layer_factory.hpp:74] Creating layer lstm1_transform_14
I0930 10:28:13.110647  1561 net.cpp:84] Creating Layer lstm1_transform_14
I0930 10:28:13.110653  1561 net.cpp:381] lstm1_transform_14 <- h_conted_13
I0930 10:28:13.110661  1561 net.cpp:339] lstm1_transform_14 -> W_hc_h_13
I0930 10:28:13.110671  1561 net.cpp:113] Setting up lstm1_transform_14
I0930 10:28:13.113832  1561 net.cpp:120] Top shape: 1 15 1024 (15360)
I0930 10:28:13.113842  1561 net.cpp:425] Sharing parameters 'W_hc' owned by layer 'lstm1_transform_1', param index 0
I0930 10:28:13.113847  1561 layer_factory.hpp:74] Creating layer lstm1_gate_input_14
I0930 10:28:13.113854  1561 net.cpp:84] Creating Layer lstm1_gate_input_14
I0930 10:28:13.113859  1561 net.cpp:381] lstm1_gate_input_14 <- W_hc_h_13
I0930 10:28:13.113865  1561 net.cpp:381] lstm1_gate_input_14 <- W_xc_x_14
I0930 10:28:13.113873  1561 net.cpp:339] lstm1_gate_input_14 -> gate_input_14
I0930 10:28:13.113880  1561 net.cpp:113] Setting up lstm1_gate_input_14
I0930 10:28:13.113891  1561 net.cpp:120] Top shape: 1 15 1024 (15360)
I0930 10:28:13.113896  1561 layer_factory.hpp:74] Creating layer lstm1_unit_14
I0930 10:28:13.113903  1561 net.cpp:84] Creating Layer lstm1_unit_14
I0930 10:28:13.113908  1561 net.cpp:381] lstm1_unit_14 <- c_13
I0930 10:28:13.113916  1561 net.cpp:381] lstm1_unit_14 <- gate_input_14
I0930 10:28:13.113925  1561 net.cpp:381] lstm1_unit_14 <- cont_14_lstm1_cont_slice_13_split_1
I0930 10:28:13.113932  1561 net.cpp:339] lstm1_unit_14 -> c_14
I0930 10:28:13.113940  1561 net.cpp:339] lstm1_unit_14 -> h_14
I0930 10:28:13.113947  1561 net.cpp:113] Setting up lstm1_unit_14
I0930 10:28:13.113956  1561 net.cpp:120] Top shape: 1 15 256 (3840)
I0930 10:28:13.113963  1561 net.cpp:120] Top shape: 1 15 256 (3840)
I0930 10:28:13.113966  1561 layer_factory.hpp:74] Creating layer h_14_lstm1_unit_14_1_split
I0930 10:28:13.113976  1561 net.cpp:84] Creating Layer h_14_lstm1_unit_14_1_split
I0930 10:28:13.113981  1561 net.cpp:381] h_14_lstm1_unit_14_1_split <- h_14
I0930 10:28:13.113987  1561 net.cpp:339] h_14_lstm1_unit_14_1_split -> h_14_lstm1_unit_14_1_split_0
I0930 10:28:13.113994  1561 net.cpp:339] h_14_lstm1_unit_14_1_split -> h_14_lstm1_unit_14_1_split_1
I0930 10:28:13.114002  1561 net.cpp:113] Setting up h_14_lstm1_unit_14_1_split
I0930 10:28:13.114009  1561 net.cpp:120] Top shape: 1 15 256 (3840)
I0930 10:28:13.114017  1561 net.cpp:120] Top shape: 1 15 256 (3840)
I0930 10:28:13.114020  1561 layer_factory.hpp:74] Creating layer lstm1_h_conted_14
I0930 10:28:13.114027  1561 net.cpp:84] Creating Layer lstm1_h_conted_14
I0930 10:28:13.114032  1561 net.cpp:381] lstm1_h_conted_14 <- h_14_lstm1_unit_14_1_split_0
I0930 10:28:13.114037  1561 net.cpp:381] lstm1_h_conted_14 <- cont_15_lstm1_cont_slice_14_split_0
I0930 10:28:13.114047  1561 net.cpp:339] lstm1_h_conted_14 -> h_conted_14
I0930 10:28:13.114054  1561 net.cpp:113] Setting up lstm1_h_conted_14
I0930 10:28:13.114063  1561 net.cpp:120] Top shape: 1 15 256 (3840)
I0930 10:28:13.114068  1561 layer_factory.hpp:74] Creating layer lstm1_transform_15
I0930 10:28:13.114075  1561 net.cpp:84] Creating Layer lstm1_transform_15
I0930 10:28:13.114081  1561 net.cpp:381] lstm1_transform_15 <- h_conted_14
I0930 10:28:13.114091  1561 net.cpp:339] lstm1_transform_15 -> W_hc_h_14
I0930 10:28:13.114101  1561 net.cpp:113] Setting up lstm1_transform_15
I0930 10:28:13.117274  1561 net.cpp:120] Top shape: 1 15 1024 (15360)
I0930 10:28:13.117288  1561 net.cpp:425] Sharing parameters 'W_hc' owned by layer 'lstm1_transform_1', param index 0
I0930 10:28:13.117293  1561 layer_factory.hpp:74] Creating layer lstm1_gate_input_15
I0930 10:28:13.117300  1561 net.cpp:84] Creating Layer lstm1_gate_input_15
I0930 10:28:13.117305  1561 net.cpp:381] lstm1_gate_input_15 <- W_hc_h_14
I0930 10:28:13.117314  1561 net.cpp:381] lstm1_gate_input_15 <- W_xc_x_15
I0930 10:28:13.117321  1561 net.cpp:339] lstm1_gate_input_15 -> gate_input_15
I0930 10:28:13.117329  1561 net.cpp:113] Setting up lstm1_gate_input_15
I0930 10:28:13.117336  1561 net.cpp:120] Top shape: 1 15 1024 (15360)
I0930 10:28:13.117341  1561 layer_factory.hpp:74] Creating layer lstm1_unit_15
I0930 10:28:13.117347  1561 net.cpp:84] Creating Layer lstm1_unit_15
I0930 10:28:13.117352  1561 net.cpp:381] lstm1_unit_15 <- c_14
I0930 10:28:13.117359  1561 net.cpp:381] lstm1_unit_15 <- gate_input_15
I0930 10:28:13.117365  1561 net.cpp:381] lstm1_unit_15 <- cont_15_lstm1_cont_slice_14_split_1
I0930 10:28:13.117372  1561 net.cpp:339] lstm1_unit_15 -> c_15
I0930 10:28:13.117383  1561 net.cpp:339] lstm1_unit_15 -> h_15
I0930 10:28:13.117391  1561 net.cpp:113] Setting up lstm1_unit_15
I0930 10:28:13.117399  1561 net.cpp:120] Top shape: 1 15 256 (3840)
I0930 10:28:13.117406  1561 net.cpp:120] Top shape: 1 15 256 (3840)
I0930 10:28:13.117410  1561 layer_factory.hpp:74] Creating layer h_15_lstm1_unit_15_1_split
I0930 10:28:13.117415  1561 net.cpp:84] Creating Layer h_15_lstm1_unit_15_1_split
I0930 10:28:13.117420  1561 net.cpp:381] h_15_lstm1_unit_15_1_split <- h_15
I0930 10:28:13.117430  1561 net.cpp:339] h_15_lstm1_unit_15_1_split -> h_15_lstm1_unit_15_1_split_0
I0930 10:28:13.117440  1561 net.cpp:339] h_15_lstm1_unit_15_1_split -> h_15_lstm1_unit_15_1_split_1
I0930 10:28:13.117449  1561 net.cpp:113] Setting up h_15_lstm1_unit_15_1_split
I0930 10:28:13.117455  1561 net.cpp:120] Top shape: 1 15 256 (3840)
I0930 10:28:13.117460  1561 net.cpp:120] Top shape: 1 15 256 (3840)
I0930 10:28:13.117465  1561 layer_factory.hpp:74] Creating layer lstm1_h_conted_15
I0930 10:28:13.117471  1561 net.cpp:84] Creating Layer lstm1_h_conted_15
I0930 10:28:13.117476  1561 net.cpp:381] lstm1_h_conted_15 <- h_15_lstm1_unit_15_1_split_0
I0930 10:28:13.117482  1561 net.cpp:381] lstm1_h_conted_15 <- cont_16_lstm1_cont_slice_15_split_0
I0930 10:28:13.117491  1561 net.cpp:339] lstm1_h_conted_15 -> h_conted_15
I0930 10:28:13.117499  1561 net.cpp:113] Setting up lstm1_h_conted_15
I0930 10:28:13.117509  1561 net.cpp:120] Top shape: 1 15 256 (3840)
I0930 10:28:13.117514  1561 layer_factory.hpp:74] Creating layer lstm1_transform_16
I0930 10:28:13.117522  1561 net.cpp:84] Creating Layer lstm1_transform_16
I0930 10:28:13.117528  1561 net.cpp:381] lstm1_transform_16 <- h_conted_15
I0930 10:28:13.117538  1561 net.cpp:339] lstm1_transform_16 -> W_hc_h_15
I0930 10:28:13.117547  1561 net.cpp:113] Setting up lstm1_transform_16
I0930 10:28:13.120718  1561 net.cpp:120] Top shape: 1 15 1024 (15360)
I0930 10:28:13.120729  1561 net.cpp:425] Sharing parameters 'W_hc' owned by layer 'lstm1_transform_1', param index 0
I0930 10:28:13.120733  1561 layer_factory.hpp:74] Creating layer lstm1_gate_input_16
I0930 10:28:13.120740  1561 net.cpp:84] Creating Layer lstm1_gate_input_16
I0930 10:28:13.120745  1561 net.cpp:381] lstm1_gate_input_16 <- W_hc_h_15
I0930 10:28:13.120753  1561 net.cpp:381] lstm1_gate_input_16 <- W_xc_x_16
I0930 10:28:13.120766  1561 net.cpp:339] lstm1_gate_input_16 -> gate_input_16
I0930 10:28:13.120774  1561 net.cpp:113] Setting up lstm1_gate_input_16
I0930 10:28:13.120781  1561 net.cpp:120] Top shape: 1 15 1024 (15360)
I0930 10:28:13.120785  1561 layer_factory.hpp:74] Creating layer lstm1_unit_16
I0930 10:28:13.120792  1561 net.cpp:84] Creating Layer lstm1_unit_16
I0930 10:28:13.120797  1561 net.cpp:381] lstm1_unit_16 <- c_15
I0930 10:28:13.120802  1561 net.cpp:381] lstm1_unit_16 <- gate_input_16
I0930 10:28:13.120808  1561 net.cpp:381] lstm1_unit_16 <- cont_16_lstm1_cont_slice_15_split_1
I0930 10:28:13.120815  1561 net.cpp:339] lstm1_unit_16 -> c_16
I0930 10:28:13.120822  1561 net.cpp:339] lstm1_unit_16 -> h_16
I0930 10:28:13.120831  1561 net.cpp:113] Setting up lstm1_unit_16
I0930 10:28:13.120838  1561 net.cpp:120] Top shape: 1 15 256 (3840)
I0930 10:28:13.120846  1561 net.cpp:120] Top shape: 1 15 256 (3840)
I0930 10:28:13.120849  1561 layer_factory.hpp:74] Creating layer lstm1_
I0930 10:28:13.120858  1561 net.cpp:84] Creating Layer lstm1_
I0930 10:28:13.120864  1561 net.cpp:381] lstm1_ <- c_16
I0930 10:28:13.120870  1561 net.cpp:339] lstm1_ -> c_T
I0930 10:28:13.120877  1561 net.cpp:113] Setting up lstm1_
I0930 10:28:13.120883  1561 net.cpp:120] Top shape: 1 15 256 (3840)
I0930 10:28:13.120892  1561 layer_factory.hpp:74] Creating layer lstm1_h_concat
I0930 10:28:13.120904  1561 net.cpp:84] Creating Layer lstm1_h_concat
I0930 10:28:13.120910  1561 net.cpp:381] lstm1_h_concat <- h_1_lstm1_unit_1_1_split_1
I0930 10:28:13.120916  1561 net.cpp:381] lstm1_h_concat <- h_2_lstm1_unit_2_1_split_1
I0930 10:28:13.120923  1561 net.cpp:381] lstm1_h_concat <- h_3_lstm1_unit_3_1_split_1
…
I0930 10:28:13.272284  1561 net.cpp:258] The NetState phase (1) differed from the phase (0) specified by a rule in layer reshape-label
I0930 10:28:13.272289  1561 net.cpp:258] The NetState phase (1) differed from the phase (0) specified by a rule in layer reshape-cm
I0930 10:28:13.272831  1561 net.cpp:42] Initializing net from parameters: 
name: "lstm_joints"
state {
  phase: TEST
}
layer {
  name: "data"
  type: "Python"
  top: "data"
  top: "label"
  top: "clip_markers"
  include {
    phase: TEST
  }
  python_param {
    module: "sequence_input_layer"
    layer: "videoReadTest_RGB"
  }
}
layer {
  name: "conv1"
  type: "Convolution"
  bottom: "data"
  top: "conv1"
  param {
    lr_mult: 1
    decay_mult: 1
  }
  param {
    lr_mult: 2
    decay_mult: 0
  }
  convolution_param {
    num_output: 96
    kernel_size: 7
    stride: 2
    weight_filler {
      type: "gaussian"
      std: 0.01
    }
    bias_filler {
      type: "constant"
      value: 0.1
    }
  }
}
layer {
  name: "relu1"
  type: "ReLU"
  bottom: "conv1"
  top: "conv1"
}
layer {
  name: "pool1"
  type: "Pooling"
  bottom: "conv1"
  top: "pool1"
  pooling_param {
    pool: MAX
    kernel_size: 3
    stride: 2
  }
}
layer {
  name: "norm1"
  type: "LRN"
  bottom: "pool1"
  top: "norm1"
  lrn_param {
    local_size: 5
    alpha: 0.0001
    beta: 0.75
  }
}
layer {
  name: "conv2"
  type: "Convolution"
  bottom: "norm1"
  top: "conv2"
  param {
    lr_mult: 1
    decay_mult: 1
  }
  param {
    lr_mult: 2
    decay_mult: 0
  }
  convolution_param {
    num_output: 384
    kernel_size: 5
    group: 2
    stride: 2
    weight_filler {
      type: "gaussian"
      std: 0.01
    }
    bias_filler {
      type: "constant"
      value: 0.1
    }
  }
}
layer {
  name: "relu2"
  type: "ReLU"
  bottom: "conv2"
  top: "conv2"
}
layer {
  name: "pool2"
  type: "Pooling"
  bottom: "conv2"
  top: "pool2"
  pooling_param {
    pool: MAX
    kernel_size: 3
    stride: 2
  }
}
layer {
  name: "norm2"
  type: "LRN"
  bottom: "pool2"
  top: "norm2"
  lrn_param {
    local_size: 5
    alpha: 0.0001
    beta: 0.75
  }
}
layer {
  name: "conv3"
  type: "Convolution"
  bottom: "norm2"
  top: "conv3"
  param {
    lr_mult: 1
    decay_mult: 1
  }
  param {
    lr_mult: 2
    decay_mult: 0
  }
  convolution_param {
    num_output: 512
    pad: 1
    kernel_size: 3
    weight_filler {
      type: "gaussian"
      std: 0.01
    }
    bias_filler {
      type: "constant"
      value: 0.1
    }
  }
}
layer {
  name: "relu3"
  type: "ReLU"
  bottom: "conv3"
  top: "conv3"
}
layer {
  name: "conv4"
  type: "Convolution"
  bottom: "conv3"
  top: "conv4"
  param {
    lr_mult: 1
    decay_mult: 1
  }
  param {
    lr_mult: 2
    decay_mult: 0
  }
  convolution_param {
    num_output: 512
    pad: 1
    kernel_size: 3
    group: 2
    weight_filler {
      type: "gaussian"
      std: 0.01
    }
    bias_filler {
      type: "constant"
      value: 0.1
    }
  }
}
layer {
  name: "relu4"
  type: "ReLU"
  bottom: "conv4"
  top: "conv4"
}
layer {
  name: "conv5"
  type: "Convolution"
  bottom: "conv4"
  top: "conv5"
  param {
    lr_mult: 1
    decay_mult: 1
  }
  param {
    lr_mult: 2
    decay_mult: 0
  }
  convolution_param {
    num_output: 384
    pad: 1
    kernel_size: 3
    group: 2
    weight_filler {
      type: "gaussian"
      std: 0.01
    }
    bias_filler {
      type: "constant"
      value: 0.1
    }
  }
}
layer {
  name: "relu5"
  type: "ReLU"
  bottom: "conv5"
  top: "conv5"
}
layer {
  name: "pool5"
  type: "Pooling"
  bottom: "conv5"
  top: "pool5"
  pooling_param {
    pool: MAX
    kernel_size: 3
    stride: 2
  }
}
layer {
  name: "fc6"
  type: "InnerProduct"
  bottom: "pool5"
  top: "fc6"
  param {
    lr_mult: 1
    decay_mult: 1
  }
  param {
    lr_mult: 2
    decay_mult: 0
  }
  inner_product_param {
    num_output: 4096
    weight_filler {
      type: "gaussian"
      std: 0.01
    }
    bias_filler {
      type: "constant"
      value: 0.1
    }
  }
}
layer {
  name: "relu6"
  type: "ReLU"
  bottom: "fc6"
  top: "fc6"
}
layer {
  name: "drop6"
  type: "Dropout"
  bottom: "fc6"
  top: "fc6"
  dropout_param {
    dropout_ratio: 0.9
  }
}
layer {
  name: "reshape-data"
  type: "Reshape"
  bottom: "fc6"
  top: "fc6-reshape"
  include {
    phase: TEST
  }
  reshape_param {
    shape {
      dim: 16
      dim: 10
      dim: 4096
    }
  }
}
layer {
  name: "reshape-label"
  type: "Reshape"
  bottom: "label"
  top: "reshape-label"
  include {
    phase: TEST
  }
  reshape_param {
    shape {
      dim: 16
      dim: 10
    }
  }
}
layer {
  name: "reshape-cm"
  type: "Reshape"
  bottom: "clip_markers"
  top: "reshape-cm"
  include {
    phase: TEST
  }
  reshape_param {
    shape {
      dim: 16
      dim: 10
    }
  }
}
layer {
  name: "lstm1"
  type: "LSTM"
  bottom: "fc6-reshape"
  bottom: "reshape-cm"
  top: "lstm1"
  recurrent_param {
    num_output: 256
    weight_filler {
      type: "uniform"
      min: -0.01
      max: 0.01
    }
    bias_filler {
      type: "constant"
      value: 0
    }
  }
}
layer {
  name: "lstm1-drop"
  type: "Dropout"
  bottom: "lstm1"
  top: "lstm1-drop"
  dropout_param {
    dropout_ratio: 0.5
  }
}
layer {
  name: "triplet_lstm"
  type: "Python"
  bottom: "lstm1-drop"
  bottom: "reshape-label"
  top: "anchor-lstm"
  top: "positive-lstm"
  top: "negative-lstm"
  python_param {
    module: "mylayers"
    layer: "TripletLSTMLayer"
  }
}
layer {
  name: "loss"
  type: "Python"
  bottom: "anchor-lstm"
  bottom: "positive-lstm"
  bottom: "negative-lstm"
  top: "loss"
  python_param {
    module: "mylayers"
    layer: "TripletLossLayer"
  }
}
I0930 10:28:13.273025  1561 layer_factory.hpp:74] Creating layer data
I0930 10:28:13.273092  1561 net.cpp:84] Creating Layer data
I0930 10:28:13.273114  1561 net.cpp:339] data -> data
I0930 10:28:13.273128  1561 net.cpp:339] data -> label
I0930 10:28:13.273140  1561 net.cpp:339] data -> clip_markers
I0930 10:28:13.273150  1561 net.cpp:113] Setting up data
Outputs: ['data', 'label', 'clip_markers']
I0930 10:28:16.726723  1561 net.cpp:120] Top shape: 160 3 227 227 (24733920)
I0930 10:28:16.726774  1561 net.cpp:120] Top shape: 160 (160)
I0930 10:28:16.726793  1561 net.cpp:120] Top shape: 160 (160)
I0930 10:28:16.726814  1561 layer_factory.hpp:74] Creating layer conv1
I0930 10:28:16.726869  1561 net.cpp:84] Creating Layer conv1
I0930 10:28:16.726896  1561 net.cpp:381] conv1 <- data
I0930 10:28:16.726938  1561 net.cpp:339] conv1 -> conv1
I0930 10:28:16.726963  1561 net.cpp:113] Setting up conv1
I0930 10:28:16.727465  1561 net.cpp:120] Top shape: 160 96 111 111 (189250560)
I0930 10:28:16.727489  1561 layer_factory.hpp:74] Creating layer relu1
I0930 10:28:16.727512  1561 net.cpp:84] Creating Layer relu1
I0930 10:28:16.727520  1561 net.cpp:381] relu1 <- conv1
I0930 10:28:16.727530  1561 net.cpp:328] relu1 -> conv1 (in-place)
I0930 10:28:16.727540  1561 net.cpp:113] Setting up relu1
I0930 10:28:16.727551  1561 net.cpp:120] Top shape: 160 96 111 111 (189250560)
I0930 10:28:16.727558  1561 layer_factory.hpp:74] Creating layer pool1
I0930 10:28:16.727584  1561 net.cpp:84] Creating Layer pool1
I0930 10:28:16.727591  1561 net.cpp:381] pool1 <- conv1
I0930 10:28:16.727605  1561 net.cpp:339] pool1 -> pool1
I0930 10:28:16.727619  1561 net.cpp:113] Setting up pool1
I0930 10:28:16.727636  1561 net.cpp:120] Top shape: 160 96 55 55 (46464000)
I0930 10:28:16.727643  1561 layer_factory.hpp:74] Creating layer norm1
I0930 10:28:16.727656  1561 net.cpp:84] Creating Layer norm1
I0930 10:28:16.727663  1561 net.cpp:381] norm1 <- pool1
I0930 10:28:16.727671  1561 net.cpp:339] norm1 -> norm1
I0930 10:28:16.727684  1561 net.cpp:113] Setting up norm1
I0930 10:28:16.727702  1561 net.cpp:120] Top shape: 160 96 55 55 (46464000)
I0930 10:28:16.727715  1561 layer_factory.hpp:74] Creating layer conv2
I0930 10:28:16.727742  1561 net.cpp:84] Creating Layer conv2
I0930 10:28:16.727754  1561 net.cpp:381] conv2 <- norm1
I0930 10:28:16.727777  1561 net.cpp:339] conv2 -> conv2
I0930 10:28:16.727797  1561 net.cpp:113] Setting up conv2
I0930 10:28:16.740406  1561 net.cpp:120] Top shape: 160 384 26 26 (41533440)
I0930 10:28:16.740427  1561 layer_factory.hpp:74] Creating layer relu2
I0930 10:28:16.740440  1561 net.cpp:84] Creating Layer relu2
I0930 10:28:16.740447  1561 net.cpp:381] relu2 <- conv2
I0930 10:28:16.740461  1561 net.cpp:328] relu2 -> conv2 (in-place)
I0930 10:28:16.740470  1561 net.cpp:113] Setting up relu2
I0930 10:28:16.740483  1561 net.cpp:120] Top shape: 160 384 26 26 (41533440)
I0930 10:28:16.740489  1561 layer_factory.hpp:74] Creating layer pool2
I0930 10:28:16.740506  1561 net.cpp:84] Creating Layer pool2
I0930 10:28:16.740514  1561 net.cpp:381] pool2 <- conv2
I0930 10:28:16.740521  1561 net.cpp:339] pool2 -> pool2
I0930 10:28:16.740532  1561 net.cpp:113] Setting up pool2
I0930 10:28:16.740546  1561 net.cpp:120] Top shape: 160 384 13 13 (10383360)
I0930 10:28:16.740555  1561 layer_factory.hpp:74] Creating layer norm2
I0930 10:28:16.740576  1561 net.cpp:84] Creating Layer norm2
I0930 10:28:16.740583  1561 net.cpp:381] norm2 <- pool2
I0930 10:28:16.740592  1561 net.cpp:339] norm2 -> norm2
I0930 10:28:16.740612  1561 net.cpp:113] Setting up norm2
I0930 10:28:16.740635  1561 net.cpp:120] Top shape: 160 384 13 13 (10383360)
I0930 10:28:16.740643  1561 layer_factory.hpp:74] Creating layer conv3
I0930 10:28:16.740666  1561 net.cpp:84] Creating Layer conv3
I0930 10:28:16.740674  1561 net.cpp:381] conv3 <- norm2
I0930 10:28:16.740690  1561 net.cpp:339] conv3 -> conv3
I0930 10:28:16.740701  1561 net.cpp:113] Setting up conv3
I0930 10:28:16.779211  1561 net.cpp:120] Top shape: 160 512 13 13 (13844480)
I0930 10:28:16.779242  1561 layer_factory.hpp:74] Creating layer relu3
I0930 10:28:16.779258  1561 net.cpp:84] Creating Layer relu3
I0930 10:28:16.779268  1561 net.cpp:381] relu3 <- conv3
I0930 10:28:16.779275  1561 net.cpp:328] relu3 -> conv3 (in-place)
I0930 10:28:16.779284  1561 net.cpp:113] Setting up relu3
I0930 10:28:16.779291  1561 net.cpp:120] Top shape: 160 512 13 13 (13844480)
I0930 10:28:16.779301  1561 layer_factory.hpp:74] Creating layer conv4
I0930 10:28:16.779320  1561 net.cpp:84] Creating Layer conv4
I0930 10:28:16.779326  1561 net.cpp:381] conv4 <- conv3
I0930 10:28:16.779333  1561 net.cpp:339] conv4 -> conv4
I0930 10:28:16.779342  1561 net.cpp:113] Setting up conv4
I0930 10:28:16.806298  1561 net.cpp:120] Top shape: 160 512 13 13 (13844480)
I0930 10:28:16.806315  1561 layer_factory.hpp:74] Creating layer relu4
I0930 10:28:16.806324  1561 net.cpp:84] Creating Layer relu4
I0930 10:28:16.806329  1561 net.cpp:381] relu4 <- conv4
I0930 10:28:16.806335  1561 net.cpp:328] relu4 -> conv4 (in-place)
I0930 10:28:16.806344  1561 net.cpp:113] Setting up relu4
I0930 10:28:16.806349  1561 net.cpp:120] Top shape: 160 512 13 13 (13844480)
I0930 10:28:16.806354  1561 layer_factory.hpp:74] Creating layer conv5
I0930 10:28:16.806378  1561 net.cpp:84] Creating Layer conv5
I0930 10:28:16.806385  1561 net.cpp:381] conv5 <- conv4
I0930 10:28:16.806397  1561 net.cpp:339] conv5 -> conv5
I0930 10:28:16.806408  1561 net.cpp:113] Setting up conv5
I0930 10:28:16.825795  1561 net.cpp:120] Top shape: 160 384 13 13 (10383360)
I0930 10:28:16.825815  1561 layer_factory.hpp:74] Creating layer relu5
I0930 10:28:16.825826  1561 net.cpp:84] Creating Layer relu5
I0930 10:28:16.825831  1561 net.cpp:381] relu5 <- conv5
I0930 10:28:16.825842  1561 net.cpp:328] relu5 -> conv5 (in-place)
I0930 10:28:16.825860  1561 net.cpp:113] Setting up relu5
I0930 10:28:16.825868  1561 net.cpp:120] Top shape: 160 384 13 13 (10383360)
I0930 10:28:16.825876  1561 layer_factory.hpp:74] Creating layer pool5
I0930 10:28:16.825897  1561 net.cpp:84] Creating Layer pool5
I0930 10:28:16.825903  1561 net.cpp:381] pool5 <- conv5
I0930 10:28:16.825911  1561 net.cpp:339] pool5 -> pool5
I0930 10:28:16.825918  1561 net.cpp:113] Setting up pool5
I0930 10:28:16.825930  1561 net.cpp:120] Top shape: 160 384 6 6 (2211840)
I0930 10:28:16.825935  1561 layer_factory.hpp:74] Creating layer fc6
I0930 10:28:16.825953  1561 net.cpp:84] Creating Layer fc6
I0930 10:28:16.825956  1561 net.cpp:381] fc6 <- pool5
I0930 10:28:16.825969  1561 net.cpp:339] fc6 -> fc6
I0930 10:28:16.825981  1561 net.cpp:113] Setting up fc6
I0930 10:28:18.032464  1561 net.cpp:120] Top shape: 160 4096 (655360)
I0930 10:28:18.032500  1561 layer_factory.hpp:74] Creating layer relu6
I0930 10:28:18.032522  1561 net.cpp:84] Creating Layer relu6
I0930 10:28:18.032531  1561 net.cpp:381] relu6 <- fc6
I0930 10:28:18.032541  1561 net.cpp:328] relu6 -> fc6 (in-place)
I0930 10:28:18.032553  1561 net.cpp:113] Setting up relu6
I0930 10:28:18.032562  1561 net.cpp:120] Top shape: 160 4096 (655360)
I0930 10:28:18.032565  1561 layer_factory.hpp:74] Creating layer drop6
I0930 10:28:18.032575  1561 net.cpp:84] Creating Layer drop6
I0930 10:28:18.032580  1561 net.cpp:381] drop6 <- fc6
I0930 10:28:18.032587  1561 net.cpp:328] drop6 -> fc6 (in-place)
I0930 10:28:18.032593  1561 net.cpp:113] Setting up drop6
I0930 10:28:18.032604  1561 net.cpp:120] Top shape: 160 4096 (655360)
I0930 10:28:18.032608  1561 layer_factory.hpp:74] Creating layer reshape-data
I0930 10:28:18.032626  1561 net.cpp:84] Creating Layer reshape-data
I0930 10:28:18.032634  1561 net.cpp:381] reshape-data <- fc6
I0930 10:28:18.032640  1561 net.cpp:339] reshape-data -> fc6-reshape
I0930 10:28:18.032650  1561 net.cpp:113] Setting up reshape-data
I0930 10:28:18.032662  1561 net.cpp:120] Top shape: 16 10 4096 (655360)
I0930 10:28:18.032672  1561 layer_factory.hpp:74] Creating layer reshape-label
I0930 10:28:18.032688  1561 net.cpp:84] Creating Layer reshape-label
I0930 10:28:18.032694  1561 net.cpp:381] reshape-label <- label
I0930 10:28:18.032706  1561 net.cpp:339] reshape-label -> reshape-label
I0930 10:28:18.032716  1561 net.cpp:113] Setting up reshape-label
I0930 10:28:18.032726  1561 net.cpp:120] Top shape: 16 10 (160)
I0930 10:28:18.032735  1561 layer_factory.hpp:74] Creating layer reshape-cm
I0930 10:28:18.032754  1561 net.cpp:84] Creating Layer reshape-cm
I0930 10:28:18.032762  1561 net.cpp:381] reshape-cm <- clip_markers
I0930 10:28:18.032768  1561 net.cpp:339] reshape-cm -> reshape-cm
I0930 10:28:18.032783  1561 net.cpp:113] Setting up reshape-cm
I0930 10:28:18.032793  1561 net.cpp:120] Top shape: 16 10 (160)
I0930 10:28:18.032799  1561 layer_factory.hpp:74] Creating layer lstm1
I0930 10:28:18.032809  1561 net.cpp:84] Creating Layer lstm1
I0930 10:28:18.032815  1561 net.cpp:381] lstm1 <- fc6-reshape
I0930 10:28:18.032821  1561 net.cpp:381] lstm1 <- reshape-cm
I0930 10:28:18.032829  1561 net.cpp:339] lstm1 -> lstm1
I0930 10:28:18.032840  1561 net.cpp:113] Setting up lstm1
I0930 10:28:18.032846  1561 recurrent_layer.cpp:27] Initializing recurrent layer: assuming input batch contains 16 timesteps of 10 independent streams.
I0930 10:28:18.034325  1561 net.cpp:42] Initializing net from parameters: 
input: "x"
input: "cont"
input: "c_0"
input: "h_0"
force_backward: true
input_shape {
  dim: 16
  dim: 10
  dim: 4096
}
input_shape {
  dim: 1
  dim: 16
  dim: 10
}
input_shape {
  dim: 1
  dim: 10
  dim: 256
}
input_shape {
  dim: 1
  dim: 10
  dim: 256
}
layer {
  name: "lstm1_cont_slice"
  type: "Slice"
  bottom: "cont"
  top: "cont_1"
  top: "cont_2"
  top: "cont_3"
  top: "cont_4"
  top: "cont_5"
  top: "cont_6"
  top: "cont_7"
  top: "cont_8"
  top: "cont_9"
  top: "cont_10"
  top: "cont_11"
  top: "cont_12"
  top: "cont_13"
  top: "cont_14"
  top: "cont_15"
  top: "cont_16"
  slice_param {
    axis: 1
  }
}
layer {
  name: "lstm1_x_transform"
  type: "InnerProduct"
  bottom: "x"
  top: "W_xc_x"
  param {
    name: "W_xc"
  }
  param {
    name: "b_c"
  }
  inner_product_param {
    num_output: 1024
    bias_term: true
    weight_filler {
      type: "uniform"
      min: -0.01
      max: 0.01
    }
    bias_filler {
      type: "constant"
      value: 0
    }
    axis: 2
  }
}
layer {
  name: "lstm1_W_xc_x_slice"
  type: "Slice"
  bottom: "W_xc_x"
  top: "W_xc_x_1"
  top: "W_xc_x_2"
  top: "W_xc_x_3"
  top: "W_xc_x_4"
  top: "W_xc_x_5"
  top: "W_xc_x_6"
  top: "W_xc_x_7"
  top: "W_xc_x_8"
  top: "W_xc_x_9"
  top: "W_xc_x_10"
  top: "W_xc_x_11"
  top: "W_xc_x_12"
  top: "W_xc_x_13"
  top: "W_xc_x_14"
  top: "W_xc_x_15"
  top: "W_xc_x_16"
  slice_param {
    axis: 0
  }
}
layer {
  name: "lstm1_h_conted_0"
  type: "Eltwise"
  bottom: "h_0"
  bottom: "cont_1"
  top: "h_conted_0"
  eltwise_param {
    operation: SUM
    coeff_blob: true
  }
}
layer {
  name: "lstm1_transform_1"
  type: "InnerProduct"
  bottom: "h_conted_0"
  top: "W_hc_h_0"
  param {
    name: "W_hc"
  }
  inner_product_param {
    num_output: 1024
    bias_term: false
    weight_filler {
      type: "uniform"
      min: -0.01
      max: 0.01
    }
    axis: 2
  }
}
layer {
  name: "lstm1_gate_input_1"
  type: "Eltwise"
  bottom: "W_hc_h_0"
  bottom: "W_xc_x_1"
  top: "gate_input_1"
  eltwise_param {
    operation: SUM
  }
}
layer {
  name: "lstm1_unit_1"
  type: "LSTMUnit"
  bottom: "c_0"
  bottom: "gate_input_1"
  bottom: "cont_1"
  top: "c_1"
  top: "h_1"
}
layer {
  name: "lstm1_h_conted_1"
  type: "Eltwise"
  bottom: "h_1"
  bottom: "cont_2"
  top: "h_conted_1"
  eltwise_param {
    operation: SUM
    coeff_blob: true
  }
}
layer {
  name: "lstm1_transform_2"
  type: "InnerProduct"
  bottom: "h_conted_1"
  top: "W_hc_h_1"
  param {
    name: "W_hc"
  }
  inner_product_param {
    num_output: 1024
    bias_term: false
    weight_filler {
      type: "uniform"
      min: -0.01
      max: 0.01
    }
    axis: 2
  }
}
layer {
  name: "lstm1_gate_input_2"
  type: "Eltwise"
  bottom: "W_hc_h_1"
  bottom: "W_xc_x_2"
  top: "gate_input_2"
  eltwise_param {
    operation: SUM
  }
}
layer {
  name: "lstm1_unit_2"
  type: "LSTMUnit"
  bottom: "c_1"
  bottom: "gate_input_2"
  bottom: "cont_2"
  top: "c_2"
  top: "h_2"
}
layer {
  name: "lstm1_h_conted_2"
  type: "Eltwise"
  bottom: "h_2"
  bottom: "cont_3"
  top: "h_conted_2"
  eltwise_param {
    operation: SUM
    coeff_blob: true
  }
}
layer {
  name: "lstm1_transform_3"
  type: "InnerProduct"
  bottom: "h_conted_2"
  top: "W_hc_h_2"
  param {
    name: "W_hc"
  }
  inner_product_param {
    num_output: 1024
    bias_term: false
    weight_filler {
      type: "uniform"
      min: -0.01
      max: 0.01
    }
    axis: 2
  }
}
layer {
  name: "lstm1_gate_input_3"
  type: "Eltwise"
  bottom: "W_hc_h_2"
  bottom: "W_xc_x_3"
  top: "gate_input_3"
  eltwise_param {
    operation: SUM
  }
}
layer {
  name: "lstm1_unit_3"
  type: "LSTMUnit"
  bottom: "c_2"
  bottom: "gate_input_3"
  bottom: "cont_3"
  top: "c_3"
  top: "h_3"
}
layer {
  name: "lstm1_h_conted_3"
  type: "Eltwise"
  bottom: "h_3"
  bottom: "cont_4"
  top: "h_conted_3"
  eltwise_param {
    operation: SUM
    coeff_blob: true
  }
}
layer {
  name: "lstm1_transform_4"
  type: "InnerProduct"
  bottom: "h_conted_3"
  top: "W_hc_h_3"
  param {
    name: "W_hc"
  }
  inner_product_param {
    num_output: 1024
    bias_term: false
    weight_filler {
      type: "uniform"
      min: -0.01
      max: 0.01
    }
    axis: 2
  }
}
layer {
  name: "lstm1_gate_input_4"
  type: "Eltwise"
  bottom: "W_hc_h_3"
  bottom: "W_xc_x_4"
  top: "gate_input_4"
  eltwise_param {
    operation: SUM
  }
}
layer {
  name: "lstm1_unit_4"
  type: "LSTMUnit"
  bottom: "c_3"
  bottom: "gate_input_4"
  bottom: "cont_4"
  top: "c_4"
  top: "h_4"
}
layer {
  name: "lstm1_h_conted_4"
  type: "Eltwise"
  bottom: "h_4"
  bottom: "cont_5"
  top: "h_conted_4"
  eltwise_param {
    operation: SUM
    coeff_blob: true
  }
}
layer {
  name: "lstm1_transform_5"
  type: "InnerProduct"
  bottom: "h_conted_4"
  top: "W_hc_h_4"
  param {
    name: "W_hc"
  }
  inner_product_param {
    num_output: 1024
    bias_term: false
    weight_filler {
      type: "uniform"
      min: -0.01
      max: 0.01
    }
    axis: 2
  }
}
layer {
  name: "lstm1_gate_input_5"
  type: "Eltwise"
  bottom: "W_hc_h_4"
  bottom: "W_xc_x_5"
  top: "gate_input_5"
  eltwise_param {
    operation: SUM
  }
}
layer {
  name: "lstm1_unit_5"
  type: "LSTMUnit"
  bottom: "c_4"
  bottom: "gate_input_5"
  bottom: "cont_5"
  top: "c_5"
  top: "h_5"
}
layer {
  name: "lstm1_h_conted_5"
  type: "Eltwise"
  bottom: "h_5"
  bottom: "cont_6"
  top: "h_conted_5"
  eltwise_param {
    operation: SUM
    coeff_blob: true
  }
}
layer {
  name: "lstm1_transform_6"
  type: "InnerProduct"
  bottom: "h_conted_5"
  top: "W_hc_h_5"
  param {
    name: "W_hc"
  }
  inner_product_param {
    num_output: 1024
    bias_term: false
    weight_filler {
      type: "uniform"
      min: -0.01
      max: 0.01
    }
    axis: 2
  }
}
layer {
  name: "lstm1_gate_input_6"
  type: "Eltwise"
  bottom: "W_hc_h_5"
  bottom: "W_xc_x_6"
  top: "gate_input_6"
  eltwise_param {
    operation: SUM
  }
}
layer {
  name: "lstm1_unit_6"
  type: "LSTMUnit"
  bottom: "c_5"
  bottom: "gate_input_6"
  bottom: "cont_6"
  top: "c_6"
  top: "h_6"
}
layer {
  name: "lstm1_h_conted_6"
  type: "Eltwise"
  bottom: "h_6"
  bottom: "cont_7"
  top: "h_conted_6"
  eltwise_param {
    operation: SUM
    coeff_blob: true
  }
}
layer {
  name: "lstm1_transform_7"
  type: "InnerProduct"
  bottom: "h_conted_6"
  top: "W_hc_h_6"
  param {
    name: "W_hc"
  }
  inner_product_param {
    num_output: 1024
    bias_term: false
    weight_filler {
      type: "uniform"
      min: -0.01
      max: 0.01
    }
    axis: 2
  }
}
layer {
  name: "lstm1_gate_input_7"
  type: "Eltwise"
  bottom: "W_hc_h_6"
  bottom: "W_xc_x_7"
  top: "gate_input_7"
  eltwise_param {
    operation: SUM
  }
}
layer {
  name: "lstm1_unit_7"
  type: "LSTMUnit"
  bottom: "c_6"
  bottom: "gate_input_7"
  bottom: "cont_7"
  top: "c_7"
  top: "h_7"
}
layer {
  name: "lstm1_h_conted_7"
  type: "Eltwise"
  bottom: "h_7"
  bottom: "cont_8"
  top: "h_conted_7"
  eltwise_param {
    operation: SUM
    coeff_blob: true
  }
}
layer {
  name: "lstm1_transform_8"
  type: "InnerProduct"
  bottom: "h_conted_7"
  top: "W_hc_h_7"
  param {
    name: "W_hc"
  }
  inner_product_param {
    num_output: 1024
    bias_term: false
    weight_filler {
      type: "uniform"
      min: -0.01
      max: 0.01
    }
    axis: 2
  }
}
layer {
  name: "lstm1_gate_input_8"
  type: "Eltwise"
  bottom: "W_hc_h_7"
  bottom: "W_xc_x_8"
  top: "gate_input_8"
  eltwise_param {
    operation: SUM
  }
}
layer {
  name: "lstm1_unit_8"
  type: "LSTMUnit"
  bottom: "c_7"
  bottom: "gate_input_8"
  bottom: "cont_8"
  top: "c_8"
  top: "h_8"
}
layer {
  name: "lstm1_h_conted_8"
  type: "Eltwise"
  bottom: "h_8"
  bottom: "cont_9"
  top: "h_conted_8"
  eltwise_param {
    operation: SUM
    coeff_blob: true
  }
}
layer {
  name: "lstm1_transform_9"
  type: "InnerProduct"
  bottom: "h_conted_8"
  top: "W_hc_h_8"
  param {
    name: "W_hc"
  }
  inner_product_param {
    num_output: 1024
    bias_term: false
    weight_filler {
      type: "uniform"
      min: -0.01
      max: 0.01
    }
    axis: 2
  }
}
layer {
  name: "lstm1_gate_input_9"
  type: "Eltwise"
  bottom: "W_hc_h_8"
  bottom: "W_xc_x_9"
  top: "gate_input_9"
  eltwise_param {
    operation: SUM
  }
}
layer {
  name: "lstm1_unit_9"
  type: "LSTMUnit"
  bottom: "c_8"
  bottom: "gate_input_9"
  bottom: "cont_9"
  top: "c_9"
  top: "h_9"
}
layer {
  name: "lstm1_h_conted_9"
  type: "Eltwise"
  bottom: "h_9"
  bottom: "cont_10"
  top: "h_conted_9"
  eltwise_param {
    operation: SUM
    coeff_blob: true
  }
}
layer {
  name: "lstm1_transform_10"
  type: "InnerProduct"
  bottom: "h_conted_9"
  top: "W_hc_h_9"
  param {
    name: "W_hc"
  }
  inner_product_param {
    num_output: 1024
    bias_term: false
    weight_filler {
      type: "uniform"
      min: -0.01
      max: 0.01
    }
    axis: 2
  }
}
layer {
  name: "lstm1_gate_input_10"
  type: "Eltwise"
  bottom: "W_hc_h_9"
  bottom: "W_xc_x_10"
  top: "gate_input_10"
  eltwise_param {
    operation: SUM
  }
}
layer {
  name: "lstm1_unit_10"
  type: "LSTMUnit"
  bottom: "c_9"
  bottom: "gate_input_10"
  bottom: "cont_10"
  top: "c_10"
  top: "h_10"
}
layer {
  name: "lstm1_h_conted_10"
  type: "Eltwise"
  bottom: "h_10"
  bottom: "cont_11"
  top: "h_conted_10"
  eltwise_param {
    operation: SUM
    coeff_blob: true
  }
}
layer {
  name: "lstm1_transform_11"
  type: "InnerProduct"
  bottom: "h_conted_10"
  top: "W_hc_h_10"
  param {
    name: "W_hc"
  }
  inner_product_param {
    num_output: 1024
    bias_term: false
    weight_filler {
      type: "uniform"
      min: -0.01
      max: 0.01
    }
    axis: 2
  }
}
layer {
  name: "lstm1_gate_input_11"
  type: "Eltwise"
  bottom: "W_hc_h_10"
  bottom: "W_xc_x_11"
  top: "gate_input_11"
  eltwise_param {
    operation: SUM
  }
}
layer {
  name: "lstm1_unit_11"
  type: "LSTMUnit"
  bottom: "c_10"
  bottom: "gate_input_11"
  bottom: "cont_11"
  top: "c_11"
  top: "h_11"
}
layer {
  name: "lstm1_h_conted_11"
  type: "Eltwise"
  bottom: "h_11"
  bottom: "cont_12"
  top: "h_conted_11"
  eltwise_param {
    operation: SUM
    coeff_blob: true
  }
}
layer {
  name: "lstm1_transform_12"
  type: "InnerProduct"
  bottom: "h_conted_11"
  top: "W_hc_h_11"
  param {
    name: "W_hc"
  }
  inner_product_param {
    num_output: 1024
    bias_term: false
    weight_filler {
      type: "uniform"
      min: -0.01
      max: 0.01
    }
    axis: 2
  }
}
layer {
  name: "lstm1_gate_input_12"
  type: "Eltwise"
  bottom: "W_hc_h_11"
  bottom: "W_xc_x_12"
  top: "gate_input_12"
  eltwise_param {
    operation: SUM
  }
}
layer {
  name: "lstm1_unit_12"
  type: "LSTMUnit"
  bottom: "c_11"
  bottom: "gate_input_12"
  bottom: "cont_12"
  top: "c_12"
  top: "h_12"
}
layer {
  name: "lstm1_h_conted_12"
  type: "Eltwise"
  bottom: "h_12"
  bottom: "cont_13"
  top: "h_conted_12"
  eltwise_param {
    operation: SUM
    coeff_blob: true
  }
}
layer {
  name: "lstm1_transform_13"
  type: "InnerProduct"
  bottom: "h_conted_12"
  top: "W_hc_h_12"
  param {
    name: "W_hc"
  }
  inner_product_param {
    num_output: 1024
    bias_term: false
    weight_filler {
      type: "uniform"
      min: -0.01
      max: 0.01
    }
    axis: 2
  }
}
layer {
  name: "lstm1_gate_input_13"
  type: "Eltwise"
  bottom: "W_hc_h_12"
  bottom: "W_xc_x_13"
  top: "gate_input_13"
  eltwise_param {
    operation: SUM
  }
}
layer {
  name: "lstm1_unit_13"
  type: "LSTMUnit"
  bottom: "c_12"
  bottom: "gate_input_13"
  bottom: "cont_13"
  top: "c_13"
  top: "h_13"
}
layer {
  name: "lstm1_h_conted_13"
  type: "Eltwise"
  bottom: "h_13"
  bottom: "cont_14"
  top: "h_conted_13"
  eltwise_param {
    operation: SUM
    coeff_blob: true
  }
}
layer {
  name: "lstm1_transform_14"
  type: "InnerProduct"
  bottom: "h_conted_13"
  top: "W_hc_h_13"
  param {
    name: "W_hc"
  }
  inner_product_param {
    num_output: 1024
    bias_term: false
    weight_filler {
      type: "uniform"
      min: -0.01
      max: 0.01
    }
    axis: 2
  }
}
layer {
  name: "lstm1_gate_input_14"
  type: "Eltwise"
  bottom: "W_hc_h_13"
  bottom: "W_xc_x_14"
  top: "gate_input_14"
  eltwise_param {
    operation: SUM
  }
}
layer {
  name: "lstm1_unit_14"
  type: "LSTMUnit"
  bottom: "c_13"
  bottom: "gate_input_14"
  bottom: "cont_14"
  top: "c_14"
  top: "h_14"
}
layer {
  name: "lstm1_h_conted_14"
  type: "Eltwise"
  bottom: "h_14"
  bottom: "cont_15"
  top: "h_conted_14"
  eltwise_param {
    operation: SUM
    coeff_blob: true
  }
}
layer {
  name: "lstm1_transform_15"
  type: "InnerProduct"
  bottom: "h_conted_14"
  top: "W_hc_h_14"
  param {
    name: "W_hc"
  }
  inner_product_param {
    num_output: 1024
    bias_term: false
    weight_filler {
      type: "uniform"
      min: -0.01
      max: 0.01
    }
    axis: 2
  }
}
layer {
  name: "lstm1_gate_input_15"
  type: "Eltwise"
  bottom: "W_hc_h_14"
  bottom: "W_xc_x_15"
  top: "gate_input_15"
  eltwise_param {
    operation: SUM
  }
}
layer {
  name: "lstm1_unit_15"
  type: "LSTMUnit"
  bottom: "c_14"
  bottom: "gate_input_15"
  bottom: "cont_15"
  top: "c_15"
  top: "h_15"
}
layer {
  name: "lstm1_h_conted_15"
  type: "Eltwise"
  bottom: "h_15"
  bottom: "cont_16"
  top: "h_conted_15"
  eltwise_param {
    operation: SUM
    coeff_blob: true
  }
}
layer {
  name: "lstm1_transform_16"
  type: "InnerProduct"
  bottom: "h_conted_15"
  top: "W_hc_h_15"
  param {
    name: "W_hc"
  }
  inner_product_param {
    num_output: 1024
    bias_term: false
    weight_filler {
      type: "uniform"
      min: -0.01
      max: 0.01
    }
    axis: 2
  }
}
layer {
  name: "lstm1_gate_input_16"
  type: "Eltwise"
  bottom: "W_hc_h_15"
  bottom: "W_xc_x_16"
  top: "gate_input_16"
  eltwise_param {
    operation: SUM
  }
}
layer {
  name: "lstm1_unit_16"
  type: "LSTMUnit"
  bottom: "c_15"
  bottom: "gate_input_16"
  bottom: "cont_16"
  top: "c_16"
  top: "h_16"
}
layer {
  name: "lstm1_"
  type: "Split"
  bottom: "c_16"
  top: "c_T"
}
layer {
  name: "lstm1_h_concat"
  type: "Concat"
  bottom: "h_1"
  bottom: "h_2"
  bottom: "h_3"
  bottom: "h_4"
  bottom: "h_5"
  bottom: "h_6"
  bottom: "h_7"
  bottom: "h_8"
  bottom: "h_9"
  bottom: "h_10"
  bottom: "h_11"
  bottom: "h_12"
  bottom: "h_13"
  bottom: "h_14"
  bottom: "h_15"
  bottom: "h_16"
  top: "h"
  concat_param {
    axis: 0
  }
}
I0930 10:28:18.035140  1561 net.cpp:341] Input 0 -> x
I0930 10:28:18.035157  1561 net.cpp:341] Input 1 -> cont
I0930 10:28:18.035166  1561 net.cpp:341] Input 2 -> c_0
I0930 10:28:18.035173  1561 net.cpp:341] Input 3 -> h_0
I0930 10:28:18.035195  1561 layer_factory.hpp:74] Creating layer lstm1_cont_slice
I0930 10:28:18.035207  1561 net.cpp:84] Creating Layer lstm1_cont_slice
…
I0930 10:28:18.035295  1561 net.cpp:339] lstm1_cont_slice -> cont_9
I0930 10:28:18.035303  1561 net.cpp:339] lstm1_cont_slice -> cont_10
I0930 10:28:18.035312  1561 net.cpp:339] lstm1_cont_slice -> cont_11
I0930 10:28:18.035320  1561 net.cpp:339] lstm1_cont_slice -> cont_12
I0930 10:28:18.035329  1561 net.cpp:339] lstm1_cont_slice -> cont_13
I0930 10:28:18.035339  1561 net.cpp:339] lstm1_cont_slice -> cont_14
I0930 10:28:18.035347  1561 net.cpp:339] lstm1_cont_slice -> cont_15
I0930 10:28:18.035356  1561 net.cpp:339] lstm1_cont_slice -> cont_16
I0930 10:28:18.035363  1561 net.cpp:113] Setting up lstm1_cont_slice
I0930 10:28:18.035378  1561 net.cpp:120] Top shape: 1 1 10 (10)
I0930 10:28:18.035385  1561 net.cpp:120] Top shape: 1 1 10 (10)
I0930 10:28:18.035390  1561 net.cpp:120] Top shape: 1 1 10 (10)
I0930 10:28:18.035394  1561 net.cpp:120] Top shape: 1 1 10 (10)
I0930 10:28:18.035399  1561 net.cpp:120] Top shape: 1 1 10 (10)
I0930 10:28:18.035404  1561 net.cpp:120] Top shape: 1 1 10 (10)
I0930 10:28:18.035409  1561 net.cpp:120] Top shape: 1 1 10 (10)
I0930 10:28:18.035415  1561 net.cpp:120] Top shape: 1 1 10 (10)
I0930 10:28:18.035420  1561 net.cpp:120] Top shape: 1 1 10 (10)
I0930 10:28:18.035424  1561 net.cpp:120] Top shape: 1 1 10 (10)
I0930 10:28:18.035429  1561 net.cpp:120] Top shape: 1 1 10 (10)
I0930 10:28:18.035434  1561 net.cpp:120] Top shape: 1 1 10 (10)
I0930 10:28:18.035439  1561 net.cpp:120] Top shape: 1 1 10 (10)
I0930 10:28:18.035444  1561 net.cpp:120] Top shape: 1 1 10 (10)
I0930 10:28:18.035449  1561 net.cpp:120] Top shape: 1 1 10 (10)
I0930 10:28:18.035454  1561 net.cpp:120] Top shape: 1 1 10 (10)
I0930 10:28:18.035457  1561 layer_factory.hpp:74] Creating layer cont_1_lstm1_cont_slice_0_split
I0930 10:28:18.035465  1561 net.cpp:84] Creating Layer cont_1_lstm1_cont_slice_0_split
I0930 10:28:18.035470  1561 net.cpp:381] cont_1_lstm1_cont_slice_0_split <- cont_1
I0930 10:28:18.035475  1561 net.cpp:339] cont_1_lstm1_cont_slice_0_split -> cont_1_lstm1_cont_slice_0_split_0
I0930 10:28:18.035483  1561 net.cpp:339] cont_1_lstm1_cont_slice_0_split -> cont_1_lstm1_cont_slice_0_split_1
I0930 10:28:18.035490  1561 net.cpp:113] Setting up cont_1_lstm1_cont_slice_0_split
I0930 10:28:18.035498  1561 net.cpp:120] Top shape: 1 1 10 (10)
I0930 10:28:18.035503  1561 net.cpp:120] Top shape: 1 1 10 (10)
I0930 10:28:18.035507  1561 layer_factory.hpp:74] Creating layer cont_2_lstm1_cont_slice_1_split
I0930 10:28:18.035513  1561 net.cpp:84] Creating Layer cont_2_lstm1_cont_slice_1_split
I0930 10:28:18.035517  1561 net.cpp:381] cont_2_lstm1_cont_slice_1_split <- cont_2
I0930 10:28:18.035524  1561 net.cpp:339] cont_2_lstm1_cont_slice_1_split -> cont_2_lstm1_cont_slice_1_split_0
I0930 10:28:18.035532  1561 net.cpp:339] cont_2_lstm1_cont_slice_1_split -> cont_2_lstm1_cont_slice_1_split_1
I0930 10:28:18.035539  1561 net.cpp:113] Setting up cont_2_lstm1_cont_slice_1_split
I0930 10:28:18.035547  1561 net.cpp:120] Top shape: 1 1 10 (10)
I0930 10:28:18.035552  1561 net.cpp:120] Top shape: 1 1 10 (10)
I0930 10:28:18.035555  1561 layer_factory.hpp:74] Creating layer cont_3_lstm1_cont_slice_2_split
I0930 10:28:18.035562  1561 net.cpp:84] Creating Layer cont_3_lstm1_cont_slice_2_split
I0930 10:28:18.035567  1561 net.cpp:381] cont_3_lstm1_cont_slice_2_split <- cont_3
I0930 10:28:18.035575  1561 net.cpp:339] cont_3_lstm1_cont_slice_2_split -> cont_3_lstm1_cont_slice_2_split_0
I0930 10:28:18.035583  1561 net.cpp:339] cont_3_lstm1_cont_slice_2_split -> cont_3_lstm1_cont_slice_2_split_1
I0930 10:28:18.035588  1561 net.cpp:113] Setting up cont_3_lstm1_cont_slice_2_split
I0930 10:28:18.035595  1561 net.cpp:120] Top shape: 1 1 10 (10)
I0930 10:28:18.035600  1561 net.cpp:120] Top shape: 1 1 10 (10)
I0930 10:28:18.035604  1561 layer_factory.hpp:74] Creating layer cont_4_lstm1_cont_slice_3_split
I0930 10:28:18.035609  1561 net.cpp:84] Creating Layer cont_4_lstm1_cont_slice_3_split
I0930 10:28:18.035614  1561 net.cpp:381] cont_4_lstm1_cont_slice_3_split <- cont_4
I0930 10:28:18.035620  1561 net.cpp:339] cont_4_lstm1_cont_slice_3_split -> cont_4_lstm1_cont_slice_3_split_0
I0930 10:28:18.035627  1561 net.cpp:339] cont_4_lstm1_cont_slice_3_split -> cont_4_lstm1_cont_slice_3_split_1
I0930 10:28:18.035634  1561 net.cpp:113] Setting up cont_4_lstm1_cont_slice_3_split
I0930 10:28:18.035640  1561 net.cpp:120] Top shape: 1 1 10 (10)
I0930 10:28:18.035646  1561 net.cpp:120] Top shape: 1 1 10 (10)
I0930 10:28:18.035650  1561 layer_factory.hpp:74] Creating layer cont_5_lstm1_cont_slice_4_split
I0930 10:28:18.035655  1561 net.cpp:84] Creating Layer cont_5_lstm1_cont_slice_4_split
I0930 10:28:18.035660  1561 net.cpp:381] cont_5_lstm1_cont_slice_4_split <- cont_5
I0930 10:28:18.035667  1561 net.cpp:339] cont_5_lstm1_cont_slice_4_split -> cont_5_lstm1_cont_slice_4_split_0
I0930 10:28:18.035675  1561 net.cpp:339] cont_5_lstm1_cont_slice_4_split -> cont_5_lstm1_cont_slice_4_split_1
I0930 10:28:18.035681  1561 net.cpp:113] Setting up cont_5_lstm1_cont_slice_4_split
I0930 10:28:18.035686  1561 net.cpp:120] Top shape: 1 1 10 (10)
I0930 10:28:18.035692  1561 net.cpp:120] Top shape: 1 1 10 (10)
I0930 10:28:18.035696  1561 layer_factory.hpp:74] Creating layer cont_6_lstm1_cont_slice_5_split
I0930 10:28:18.035701  1561 net.cpp:84] Creating Layer cont_6_lstm1_cont_slice_5_split
I0930 10:28:18.035704  1561 net.cpp:381] cont_6_lstm1_cont_slice_5_split <- cont_6
I0930 10:28:18.035711  1561 net.cpp:339] cont_6_lstm1_cont_slice_5_split -> cont_6_lstm1_cont_slice_5_split_0
I0930 10:28:18.035717  1561 net.cpp:339] cont_6_lstm1_cont_slice_5_split -> cont_6_lstm1_cont_slice_5_split_1
I0930 10:28:18.035724  1561 net.cpp:113] Setting up cont_6_lstm1_cont_slice_5_split
I0930 10:28:18.035732  1561 net.cpp:120] Top shape: 1 1 10 (10)
I0930 10:28:18.035739  1561 net.cpp:120] Top shape: 1 1 10 (10)
I0930 10:28:18.035743  1561 layer_factory.hpp:74] Creating layer cont_7_lstm1_cont_slice_6_split
I0930 10:28:18.035748  1561 net.cpp:84] Creating Layer cont_7_lstm1_cont_slice_6_split
I0930 10:28:18.035753  1561 net.cpp:381] cont_7_lstm1_cont_slice_6_split <- cont_7
I0930 10:28:18.035759  1561 net.cpp:339] cont_7_lstm1_cont_slice_6_split -> cont_7_lstm1_cont_slice_6_split_0
I0930 10:28:18.035771  1561 net.cpp:339] cont_7_lstm1_cont_slice_6_split -> cont_7_lstm1_cont_slice_6_split_1
I0930 10:28:18.035778  1561 net.cpp:113] Setting up cont_7_lstm1_cont_slice_6_split
I0930 10:28:18.035785  1561 net.cpp:120] Top shape: 1 1 10 (10)
I0930 10:28:18.035790  1561 net.cpp:120] Top shape: 1 1 10 (10)
I0930 10:28:18.035794  1561 layer_factory.hpp:74] Creating layer cont_8_lstm1_cont_slice_7_split
I0930 10:28:18.035801  1561 net.cpp:84] Creating Layer cont_8_lstm1_cont_slice_7_split
I0930 10:28:18.035805  1561 net.cpp:381] cont_8_lstm1_cont_slice_7_split <- cont_8
I0930 10:28:18.035812  1561 net.cpp:339] cont_8_lstm1_cont_slice_7_split -> cont_8_lstm1_cont_slice_7_split_0
I0930 10:28:18.035820  1561 net.cpp:339] cont_8_lstm1_cont_slice_7_split -> cont_8_lstm1_cont_slice_7_split_1
I0930 10:28:18.035825  1561 net.cpp:113] Setting up cont_8_lstm1_cont_slice_7_split
I0930 10:28:18.035832  1561 net.cpp:120] Top shape: 1 1 10 (10)
I0930 10:28:18.035837  1561 net.cpp:120] Top shape: 1 1 10 (10)
I0930 10:28:18.035841  1561 layer_factory.hpp:74] Creating layer cont_9_lstm1_cont_slice_8_split
I0930 10:28:18.035845  1561 net.cpp:84] Creating Layer cont_9_lstm1_cont_slice_8_split
I0930 10:28:18.035850  1561 net.cpp:381] cont_9_lstm1_cont_slice_8_split <- cont_9
I0930 10:28:18.035857  1561 net.cpp:339] cont_9_lstm1_cont_slice_8_split -> cont_9_lstm1_cont_slice_8_split_0
I0930 10:28:18.035864  1561 net.cpp:339] cont_9_lstm1_cont_slice_8_split -> cont_9_lstm1_cont_slice_8_split_1
I0930 10:28:18.035871  1561 net.cpp:113] Setting up cont_9_lstm1_cont_slice_8_split
I0930 10:28:18.035876  1561 net.cpp:120] Top shape: 1 1 10 (10)
I0930 10:28:18.035881  1561 net.cpp:120] Top shape: 1 1 10 (10)
I0930 10:28:18.035890  1561 layer_factory.hpp:74] Creating layer cont_10_lstm1_cont_slice_9_split
I0930 10:28:18.035898  1561 net.cpp:84] Creating Layer cont_10_lstm1_cont_slice_9_split
I0930 10:28:18.035902  1561 net.cpp:381] cont_10_lstm1_cont_slice_9_split <- cont_10
I0930 10:28:18.035909  1561 net.cpp:339] cont_10_lstm1_cont_slice_9_split -> cont_10_lstm1_cont_slice_9_split_0
I0930 10:28:18.035917  1561 net.cpp:339] cont_10_lstm1_cont_slice_9_split -> cont_10_lstm1_cont_slice_9_split_1
I0930 10:28:18.035924  1561 net.cpp:113] Setting up cont_10_lstm1_cont_slice_9_split
I0930 10:28:18.035933  1561 net.cpp:120] Top shape: 1 1 10 (10)
I0930 10:28:18.035938  1561 net.cpp:120] Top shape: 1 1 10 (10)
I0930 10:28:18.035943  1561 layer_factory.hpp:74] Creating layer cont_11_lstm1_cont_slice_10_split
I0930 10:28:18.035948  1561 net.cpp:84] Creating Layer cont_11_lstm1_cont_slice_10_split
I0930 10:28:18.035953  1561 net.cpp:381] cont_11_lstm1_cont_slice_10_split <- cont_11
I0930 10:28:18.035961  1561 net.cpp:339] cont_11_lstm1_cont_slice_10_split -> cont_11_lstm1_cont_slice_10_split_0
I0930 10:28:18.035969  1561 net.cpp:339] cont_11_lstm1_cont_slice_10_split -> cont_11_lstm1_cont_slice_10_split_1
I0930 10:28:18.035976  1561 net.cpp:113] Setting up cont_11_lstm1_cont_slice_10_split
I0930 10:28:18.035984  1561 net.cpp:120] Top shape: 1 1 10 (10)
I0930 10:28:18.035990  1561 net.cpp:120] Top shape: 1 1 10 (10)
I0930 10:28:18.035995  1561 layer_factory.hpp:74] Creating layer cont_12_lstm1_cont_slice_11_split
I0930 10:28:18.036001  1561 net.cpp:84] Creating Layer cont_12_lstm1_cont_slice_11_split
I0930 10:28:18.036005  1561 net.cpp:381] cont_12_lstm1_cont_slice_11_split <- cont_12
I0930 10:28:18.036012  1561 net.cpp:339] cont_12_lstm1_cont_slice_11_split -> cont_12_lstm1_cont_slice_11_split_0
I0930 10:28:18.036020  1561 net.cpp:339] cont_12_lstm1_cont_slice_11_split -> cont_12_lstm1_cont_slice_11_split_1
I0930 10:28:18.036027  1561 net.cpp:113] Setting up cont_12_lstm1_cont_slice_11_split
I0930 10:28:18.036034  1561 net.cpp:120] Top shape: 1 1 10 (10)
I0930 10:28:18.036041  1561 net.cpp:120] Top shape: 1 1 10 (10)
I0930 10:28:18.036044  1561 layer_factory.hpp:74] Creating layer cont_13_lstm1_cont_slice_12_split
I0930 10:28:18.036051  1561 net.cpp:84] Creating Layer cont_13_lstm1_cont_slice_12_split
I0930 10:28:18.036056  1561 net.cpp:381] cont_13_lstm1_cont_slice_12_split <- cont_13
I0930 10:28:18.036062  1561 net.cpp:339] cont_13_lstm1_cont_slice_12_split -> cont_13_lstm1_cont_slice_12_split_0
I0930 10:28:18.036070  1561 net.cpp:339] cont_13_lstm1_cont_slice_12_split -> cont_13_lstm1_cont_slice_12_split_1
I0930 10:28:18.036077  1561 net.cpp:113] Setting up cont_13_lstm1_cont_slice_12_split
I0930 10:28:18.036085  1561 net.cpp:120] Top shape: 1 1 10 (10)
I0930 10:28:18.036090  1561 net.cpp:120] Top shape: 1 1 10 (10)
I0930 10:28:18.036094  1561 layer_factory.hpp:74] Creating layer cont_14_lstm1_cont_slice_13_split
I0930 10:28:18.036099  1561 net.cpp:84] Creating Layer cont_14_lstm1_cont_slice_13_split
I0930 10:28:18.036104  1561 net.cpp:381] cont_14_lstm1_cont_slice_13_split <- cont_14
I0930 10:28:18.036110  1561 net.cpp:339] cont_14_lstm1_cont_slice_13_split -> cont_14_lstm1_cont_slice_13_split_0
I0930 10:28:18.036119  1561 net.cpp:339] cont_14_lstm1_cont_slice_13_split -> cont_14_lstm1_cont_slice_13_split_1
I0930 10:28:18.036125  1561 net.cpp:113] Setting up cont_14_lstm1_cont_slice_13_split
I0930 10:28:18.036134  1561 net.cpp:120] Top shape: 1 1 10 (10)
I0930 10:28:18.036139  1561 net.cpp:120] Top shape: 1 1 10 (10)
I0930 10:28:18.036145  1561 layer_factory.hpp:74] Creating layer cont_15_lstm1_cont_slice_14_split
I0930 10:28:18.036150  1561 net.cpp:84] Creating Layer cont_15_lstm1_cont_slice_14_split
I0930 10:28:18.036156  1561 net.cpp:381] cont_15_lstm1_cont_slice_14_split <- cont_15
I0930 10:28:18.036164  1561 net.cpp:339] cont_15_lstm1_cont_slice_14_split -> cont_15_lstm1_cont_slice_14_split_0
I0930 10:28:18.036170  1561 net.cpp:339] cont_15_lstm1_cont_slice_14_split -> cont_15_lstm1_cont_slice_14_split_1
I0930 10:28:18.036176  1561 net.cpp:113] Setting up cont_15_lstm1_cont_slice_14_split
I0930 10:28:18.036183  1561 net.cpp:120] Top shape: 1 1 10 (10)
I0930 10:28:18.036188  1561 net.cpp:120] Top shape: 1 1 10 (10)
I0930 10:28:18.036191  1561 layer_factory.hpp:74] Creating layer cont_16_lstm1_cont_slice_15_split
I0930 10:28:18.036201  1561 net.cpp:84] Creating Layer cont_16_lstm1_cont_slice_15_split
I0930 10:28:18.036206  1561 net.cpp:381] cont_16_lstm1_cont_slice_15_split <- cont_16
I0930 10:28:18.036211  1561 net.cpp:339] cont_16_lstm1_cont_slice_15_split -> cont_16_lstm1_cont_slice_15_split_0
I0930 10:28:18.036218  1561 net.cpp:339] cont_16_lstm1_cont_slice_15_split -> cont_16_lstm1_cont_slice_15_split_1
I0930 10:28:18.036224  1561 net.cpp:113] Setting up cont_16_lstm1_cont_slice_15_split
I0930 10:28:18.036231  1561 net.cpp:120] Top shape: 1 1 10 (10)
I0930 10:28:18.036237  1561 net.cpp:120] Top shape: 1 1 10 (10)
I0930 10:28:18.036240  1561 layer_factory.hpp:74] Creating layer lstm1_x_transform
I0930 10:28:18.036250  1561 net.cpp:84] Creating Layer lstm1_x_transform
I0930 10:28:18.036255  1561 net.cpp:381] lstm1_x_transform <- x
I0930 10:28:18.036263  1561 net.cpp:339] lstm1_x_transform -> W_xc_x
I0930 10:28:18.036273  1561 net.cpp:113] Setting up lstm1_x_transform
I0930 10:28:18.088865  1561 net.cpp:120] Top shape: 16 10 1024 (163840)
I0930 10:28:18.088903  1561 layer_factory.hpp:74] Creating layer lstm1_W_xc_x_slice
I0930 10:28:18.088920  1561 net.cpp:84] Creating Layer lstm1_W_xc_x_slice
I0930 10:28:18.088927  1561 net.cpp:381] lstm1_W_xc_x_slice <- W_xc_x
I0930 10:28:18.088938  1561 net.cpp:339] lstm1_W_xc_x_slice -> W_xc_x_1
I0930 10:28:18.088951  1561 net.cpp:339] lstm1_W_xc_x_slice -> W_xc_x_2
I0930 10:28:18.088963  1561 net.cpp:339] lstm1_W_xc_x_slice -> W_xc_x_3
…
I0930 10:28:18.089031  1561 net.cpp:339] lstm1_W_xc_x_slice -> W_xc_x_10
I0930 10:28:18.089040  1561 net.cpp:339] lstm1_W_xc_x_slice -> W_xc_x_11
I0930 10:28:18.089051  1561 net.cpp:339] lstm1_W_xc_x_slice -> W_xc_x_12
I0930 10:28:18.089071  1561 net.cpp:339] lstm1_W_xc_x_slice -> W_xc_x_13
I0930 10:28:18.089082  1561 net.cpp:339] lstm1_W_xc_x_slice -> W_xc_x_14
I0930 10:28:18.089092  1561 net.cpp:339] lstm1_W_xc_x_slice -> W_xc_x_15
I0930 10:28:18.089102  1561 net.cpp:339] lstm1_W_xc_x_slice -> W_xc_x_16
I0930 10:28:18.089110  1561 net.cpp:113] Setting up lstm1_W_xc_x_slice
I0930 10:28:18.089128  1561 net.cpp:120] Top shape: 1 10 1024 (10240)
I0930 10:28:18.089136  1561 net.cpp:120] Top shape: 1 10 1024 (10240)
I0930 10:28:18.089140  1561 net.cpp:120] Top shape: 1 10 1024 (10240)
I0930 10:28:18.089145  1561 net.cpp:120] Top shape: 1 10 1024 (10240)
I0930 10:28:18.089150  1561 net.cpp:120] Top shape: 1 10 1024 (10240)
I0930 10:28:18.089155  1561 net.cpp:120] Top shape: 1 10 1024 (10240)
I0930 10:28:18.089160  1561 net.cpp:120] Top shape: 1 10 1024 (10240)
I0930 10:28:18.089165  1561 net.cpp:120] Top shape: 1 10 1024 (10240)
I0930 10:28:18.089170  1561 net.cpp:120] Top shape: 1 10 1024 (10240)
I0930 10:28:18.089175  1561 net.cpp:120] Top shape: 1 10 1024 (10240)
I0930 10:28:18.089180  1561 net.cpp:120] Top shape: 1 10 1024 (10240)
I0930 10:28:18.089185  1561 net.cpp:120] Top shape: 1 10 1024 (10240)
I0930 10:28:18.089190  1561 net.cpp:120] Top shape: 1 10 1024 (10240)
I0930 10:28:18.089195  1561 net.cpp:120] Top shape: 1 10 1024 (10240)
I0930 10:28:18.089200  1561 net.cpp:120] Top shape: 1 10 1024 (10240)
I0930 10:28:18.089205  1561 net.cpp:120] Top shape: 1 10 1024 (10240)
I0930 10:28:18.089210  1561 layer_factory.hpp:74] Creating layer lstm1_h_conted_0
I0930 10:28:18.089220  1561 net.cpp:84] Creating Layer lstm1_h_conted_0
I0930 10:28:18.089226  1561 net.cpp:381] lstm1_h_conted_0 <- h_0
I0930 10:28:18.089233  1561 net.cpp:381] lstm1_h_conted_0 <- cont_1_lstm1_cont_slice_0_split_0
I0930 10:28:18.089242  1561 net.cpp:339] lstm1_h_conted_0 -> h_conted_0
I0930 10:28:18.089252  1561 net.cpp:113] Setting up lstm1_h_conted_0
I0930 10:28:18.089263  1561 net.cpp:120] Top shape: 1 10 256 (2560)
I0930 10:28:18.089269  1561 layer_factory.hpp:74] Creating layer lstm1_transform_1
I0930 10:28:18.089279  1561 net.cpp:84] Creating Layer lstm1_transform_1
I0930 10:28:18.089285  1561 net.cpp:381] lstm1_transform_1 <- h_conted_0
I0930 10:28:18.089295  1561 net.cpp:339] lstm1_transform_1 -> W_hc_h_0
I0930 10:28:18.089305  1561 net.cpp:113] Setting up lstm1_transform_1
I0930 10:28:18.092267  1561 net.cpp:120] Top shape: 1 10 1024 (10240)
I0930 10:28:18.092280  1561 layer_factory.hpp:74] Creating layer lstm1_gate_input_1
I0930 10:28:18.092288  1561 net.cpp:84] Creating Layer lstm1_gate_input_1
I0930 10:28:18.092293  1561 net.cpp:381] lstm1_gate_input_1 <- W_hc_h_0
I0930 10:28:18.092299  1561 net.cpp:381] lstm1_gate_input_1 <- W_xc_x_1
I0930 10:28:18.092308  1561 net.cpp:339] lstm1_gate_input_1 -> gate_input_1
I0930 10:28:18.092316  1561 net.cpp:113] Setting up lstm1_gate_input_1
I0930 10:28:18.092324  1561 net.cpp:120] Top shape: 1 10 1024 (10240)
I0930 10:28:18.092329  1561 layer_factory.hpp:74] Creating layer lstm1_unit_1
I0930 10:28:18.092336  1561 net.cpp:84] Creating Layer lstm1_unit_1
I0930 10:28:18.092341  1561 net.cpp:381] lstm1_unit_1 <- c_0
I0930 10:28:18.092349  1561 net.cpp:381] lstm1_unit_1 <- gate_input_1
I0930 10:28:18.092356  1561 net.cpp:381] lstm1_unit_1 <- cont_1_lstm1_cont_slice_0_split_1
I0930 10:28:18.092363  1561 net.cpp:339] lstm1_unit_1 -> c_1
I0930 10:28:18.092371  1561 net.cpp:339] lstm1_unit_1 -> h_1
I0930 10:28:18.092381  1561 net.cpp:113] Setting up lstm1_unit_1
I0930 10:28:18.092391  1561 net.cpp:120] Top shape: 1 10 256 (2560)
I0930 10:28:18.092398  1561 net.cpp:120] Top shape: 1 10 256 (2560)
I0930 10:28:18.092402  1561 layer_factory.hpp:74] Creating layer h_1_lstm1_unit_1_1_split
I0930 10:28:18.092411  1561 net.cpp:84] Creating Layer h_1_lstm1_unit_1_1_split
I0930 10:28:18.092418  1561 net.cpp:381] h_1_lstm1_unit_1_1_split <- h_1
I0930 10:28:18.092425  1561 net.cpp:339] h_1_lstm1_unit_1_1_split -> h_1_lstm1_unit_1_1_split_0
I0930 10:28:18.092435  1561 net.cpp:339] h_1_lstm1_unit_1_1_split -> h_1_lstm1_unit_1_1_split_1
I0930 10:28:18.092444  1561 net.cpp:113] Setting up h_1_lstm1_unit_1_1_split
I0930 10:28:18.092454  1561 net.cpp:120] Top shape: 1 10 256 (2560)
I0930 10:28:18.092459  1561 net.cpp:120] Top shape: 1 10 256 (2560)
I0930 10:28:18.092464  1561 layer_factory.hpp:74] Creating layer lstm1_h_conted_1
I0930 10:28:18.092471  1561 net.cpp:84] Creating Layer lstm1_h_conted_1
I0930 10:28:18.092478  1561 net.cpp:381] lstm1_h_conted_1 <- h_1_lstm1_unit_1_1_split_0
I0930 10:28:18.092485  1561 net.cpp:381] lstm1_h_conted_1 <- cont_2_lstm1_cont_slice_1_split_0
I0930 10:28:18.092492  1561 net.cpp:339] lstm1_h_conted_1 -> h_conted_1
I0930 10:28:18.092501  1561 net.cpp:113] Setting up lstm1_h_conted_1
I0930 10:28:18.092510  1561 net.cpp:120] Top shape: 1 10 256 (2560)
I0930 10:28:18.092514  1561 layer_factory.hpp:74] Creating layer lstm1_transform_2
I0930 10:28:18.092525  1561 net.cpp:84] Creating Layer lstm1_transform_2
I0930 10:28:18.092531  1561 net.cpp:381] lstm1_transform_2 <- h_conted_1
I0930 10:28:18.092540  1561 net.cpp:339] lstm1_transform_2 -> W_hc_h_1
I0930 10:28:18.092550  1561 net.cpp:113] Setting up lstm1_transform_2
I0930 10:28:18.095549  1561 net.cpp:120] Top shape: 1 10 1024 (10240)
I0930 10:28:18.095561  1561 net.cpp:425] Sharing parameters 'W_hc' owned by layer 'lstm1_transform_1', param index 0
I0930 10:28:18.095566  1561 layer_factory.hpp:74] Creating layer lstm1_gate_input_2
I0930 10:28:18.095574  1561 net.cpp:84] Creating Layer lstm1_gate_input_2
I0930 10:28:18.095580  1561 net.cpp:381] lstm1_gate_input_2 <- W_hc_h_1
I0930 10:28:18.095588  1561 net.cpp:381] lstm1_gate_input_2 <- W_xc_x_2
I0930 10:28:18.095597  1561 net.cpp:339] lstm1_gate_input_2 -> gate_input_2
I0930 10:28:18.095605  1561 net.cpp:113] Setting up lstm1_gate_input_2
I0930 10:28:18.095613  1561 net.cpp:120] Top shape: 1 10 1024 (10240)
I0930 10:28:18.095618  1561 layer_factory.hpp:74] Creating layer lstm1_unit_2
I0930 10:28:18.095626  1561 net.cpp:84] Creating Layer lstm1_unit_2
I0930 10:28:18.095630  1561 net.cpp:381] lstm1_unit_2 <- c_1
I0930 10:28:18.095636  1561 net.cpp:381] lstm1_unit_2 <- gate_input_2
I0930 10:28:18.095643  1561 net.cpp:381] lstm1_unit_2 <- cont_2_lstm1_cont_slice_1_split_1
I0930 10:28:18.095652  1561 net.cpp:339] lstm1_unit_2 -> c_2
I0930 10:28:18.095662  1561 net.cpp:339] lstm1_unit_2 -> h_2
I0930 10:28:18.095671  1561 net.cpp:113] Setting up lstm1_unit_2
I0930 10:28:18.095682  1561 net.cpp:120] Top shape: 1 10 256 (2560)
I0930 10:28:18.095690  1561 net.cpp:120] Top shape: 1 10 256 (2560)
I0930 10:28:18.095695  1561 layer_factory.hpp:74] Creating layer h_2_lstm1_unit_2_1_split
I0930 10:28:18.095701  1561 net.cpp:84] Creating Layer h_2_lstm1_unit_2_1_split
I0930 10:28:18.095707  1561 net.cpp:381] h_2_lstm1_unit_2_1_split <- h_2
I0930 10:28:18.095715  1561 net.cpp:339] h_2_lstm1_unit_2_1_split -> h_2_lstm1_unit_2_1_split_0
I0930 10:28:18.095726  1561 net.cpp:339] h_2_lstm1_unit_2_1_split -> h_2_lstm1_unit_2_1_split_1
I0930 10:28:18.095733  1561 net.cpp:113] Setting up h_2_lstm1_unit_2_1_split
I0930 10:28:18.095741  1561 net.cpp:120] Top shape: 1 10 256 (2560)
I0930 10:28:18.095748  1561 net.cpp:120] Top shape: 1 10 256 (2560)
I0930 10:28:18.095752  1561 layer_factory.hpp:74] Creating layer lstm1_h_conted_2
I0930 10:28:18.095759  1561 net.cpp:84] Creating Layer lstm1_h_conted_2
I0930 10:28:18.095764  1561 net.cpp:381] lstm1_h_conted_2 <- h_2_lstm1_unit_2_1_split_0
I0930 10:28:18.095770  1561 net.cpp:381] lstm1_h_conted_2 <- cont_3_lstm1_cont_slice_2_split_0
I0930 10:28:18.095780  1561 net.cpp:339] lstm1_h_conted_2 -> h_conted_2
I0930 10:28:18.095789  1561 net.cpp:113] Setting up lstm1_h_conted_2
I0930 10:28:18.095798  1561 net.cpp:120] Top shape: 1 10 256 (2560)
I0930 10:28:18.095804  1561 layer_factory.hpp:74] Creating layer lstm1_transform_3
I0930 10:28:18.095813  1561 net.cpp:84] Creating Layer lstm1_transform_3
I0930 10:28:18.095819  1561 net.cpp:381] lstm1_transform_3 <- h_conted_2
I0930 10:28:18.095826  1561 net.cpp:339] lstm1_transform_3 -> W_hc_h_2
I0930 10:28:18.095836  1561 net.cpp:113] Setting up lstm1_transform_3
I0930 10:28:18.098793  1561 net.cpp:120] Top shape: 1 10 1024 (10240)
I0930 10:28:18.098808  1561 net.cpp:425] Sharing parameters 'W_hc' owned by layer 'lstm1_transform_1', param index 0
I0930 10:28:18.098814  1561 layer_factory.hpp:74] Creating layer lstm1_gate_input_3
I0930 10:28:18.098820  1561 net.cpp:84] Creating Layer lstm1_gate_input_3
I0930 10:28:18.098827  1561 net.cpp:381] lstm1_gate_input_3 <- W_hc_h_2
I0930 10:28:18.098835  1561 net.cpp:381] lstm1_gate_input_3 <- W_xc_x_3
I0930 10:28:18.098845  1561 net.cpp:339] lstm1_gate_input_3 -> gate_input_3
I0930 10:28:18.098853  1561 net.cpp:113] Setting up lstm1_gate_input_3
I0930 10:28:18.098861  1561 net.cpp:120] Top shape: 1 10 1024 (10240)
I0930 10:28:18.098865  1561 layer_factory.hpp:74] Creating layer lstm1_unit_3
I0930 10:28:18.098877  1561 net.cpp:84] Creating Layer lstm1_unit_3
I0930 10:28:18.098887  1561 net.cpp:381] lstm1_unit_3 <- c_2
I0930 10:28:18.098896  1561 net.cpp:381] lstm1_unit_3 <- gate_input_3
I0930 10:28:18.098901  1561 net.cpp:381] lstm1_unit_3 <- cont_3_lstm1_cont_slice_2_split_1
I0930 10:28:18.098911  1561 net.cpp:339] lstm1_unit_3 -> c_3
I0930 10:28:18.098920  1561 net.cpp:339] lstm1_unit_3 -> h_3
I0930 10:28:18.098929  1561 net.cpp:113] Setting up lstm1_unit_3
I0930 10:28:18.098937  1561 net.cpp:120] Top shape: 1 10 256 (2560)
I0930 10:28:18.098943  1561 net.cpp:120] Top shape: 1 10 256 (2560)
I0930 10:28:18.098948  1561 layer_factory.hpp:74] Creating layer h_3_lstm1_unit_3_1_split
I0930 10:28:18.098955  1561 net.cpp:84] Creating Layer h_3_lstm1_unit_3_1_split
I0930 10:28:18.098960  1561 net.cpp:381] h_3_lstm1_unit_3_1_split <- h_3
I0930 10:28:18.098969  1561 net.cpp:339] h_3_lstm1_unit_3_1_split -> h_3_lstm1_unit_3_1_split_0
I0930 10:28:18.098979  1561 net.cpp:339] h_3_lstm1_unit_3_1_split -> h_3_lstm1_unit_3_1_split_1
I0930 10:28:18.098987  1561 net.cpp:113] Setting up h_3_lstm1_unit_3_1_split
I0930 10:28:18.098995  1561 net.cpp:120] Top shape: 1 10 256 (2560)
I0930 10:28:18.099002  1561 net.cpp:120] Top shape: 1 10 256 (2560)
I0930 10:28:18.099006  1561 layer_factory.hpp:74] Creating layer lstm1_h_conted_3
I0930 10:28:18.099014  1561 net.cpp:84] Creating Layer lstm1_h_conted_3
I0930 10:28:18.099021  1561 net.cpp:381] lstm1_h_conted_3 <- h_3_lstm1_unit_3_1_split_0
I0930 10:28:18.099027  1561 net.cpp:381] lstm1_h_conted_3 <- cont_4_lstm1_cont_slice_3_split_0
I0930 10:28:18.099035  1561 net.cpp:339] lstm1_h_conted_3 -> h_conted_3
I0930 10:28:18.099043  1561 net.cpp:113] Setting up lstm1_h_conted_3
I0930 10:28:18.099051  1561 net.cpp:120] Top shape: 1 10 256 (2560)
I0930 10:28:18.099057  1561 layer_factory.hpp:74] Creating layer lstm1_transform_4
I0930 10:28:18.099066  1561 net.cpp:84] Creating Layer lstm1_transform_4
I0930 10:28:18.099072  1561 net.cpp:381] lstm1_transform_4 <- h_conted_3
I0930 10:28:18.099081  1561 net.cpp:339] lstm1_transform_4 -> W_hc_h_3
I0930 10:28:18.099092  1561 net.cpp:113] Setting up lstm1_transform_4
I0930 10:28:18.102442  1561 net.cpp:120] Top shape: 1 10 1024 (10240)
I0930 10:28:18.102452  1561 net.cpp:425] Sharing parameters 'W_hc' owned by layer 'lstm1_transform_1', param index 0
I0930 10:28:18.102458  1561 layer_factory.hpp:74] Creating layer lstm1_gate_input_4
I0930 10:28:18.102465  1561 net.cpp:84] Creating Layer lstm1_gate_input_4
I0930 10:28:18.102471  1561 net.cpp:381] lstm1_gate_input_4 <- W_hc_h_3
I0930 10:28:18.102478  1561 net.cpp:381] lstm1_gate_input_4 <- W_xc_x_4
I0930 10:28:18.102485  1561 net.cpp:339] lstm1_gate_input_4 -> gate_input_4
I0930 10:28:18.102494  1561 net.cpp:113] Setting up lstm1_gate_input_4
I0930 10:28:18.102501  1561 net.cpp:120] Top shape: 1 10 1024 (10240)
I0930 10:28:18.102505  1561 layer_factory.hpp:74] Creating layer lstm1_unit_4
I0930 10:28:18.102512  1561 net.cpp:84] Creating Layer lstm1_unit_4
I0930 10:28:18.102516  1561 net.cpp:381] lstm1_unit_4 <- c_3
I0930 10:28:18.102522  1561 net.cpp:381] lstm1_unit_4 <- gate_input_4
I0930 10:28:18.102529  1561 net.cpp:381] lstm1_unit_4 <- cont_4_lstm1_cont_slice_3_split_1
I0930 10:28:18.102540  1561 net.cpp:339] lstm1_unit_4 -> c_4
I0930 10:28:18.102550  1561 net.cpp:339] lstm1_unit_4 -> h_4
I0930 10:28:18.102558  1561 net.cpp:113] Setting up lstm1_unit_4
I0930 10:28:18.102566  1561 net.cpp:120] Top shape: 1 10 256 (2560)
I0930 10:28:18.102571  1561 net.cpp:120] Top shape: 1 10 256 (2560)
I0930 10:28:18.102576  1561 layer_factory.hpp:74] Creating layer h_4_lstm1_unit_4_1_split
I0930 10:28:18.102586  1561 net.cpp:84] Creating Layer h_4_lstm1_unit_4_1_split
I0930 10:28:18.102591  1561 net.cpp:381] h_4_lstm1_unit_4_1_split <- h_4
I0930 10:28:18.102597  1561 net.cpp:339] h_4_lstm1_unit_4_1_split -> h_4_lstm1_unit_4_1_split_0
I0930 10:28:18.102607  1561 net.cpp:339] h_4_lstm1_unit_4_1_split -> h_4_lstm1_unit_4_1_split_1
I0930 10:28:18.102614  1561 net.cpp:113] Setting up h_4_lstm1_unit_4_1_split
I0930 10:28:18.102622  1561 net.cpp:120] Top shape: 1 10 256 (2560)
I0930 10:28:18.102629  1561 net.cpp:120] Top shape: 1 10 256 (2560)
I0930 10:28:18.102633  1561 layer_factory.hpp:74] Creating layer lstm1_h_conted_4
I0930 10:28:18.102639  1561 net.cpp:84] Creating Layer lstm1_h_conted_4
I0930 10:28:18.102644  1561 net.cpp:381] lstm1_h_conted_4 <- h_4_lstm1_unit_4_1_split_0
I0930 10:28:18.102650  1561 net.cpp:381] lstm1_h_conted_4 <- cont_5_lstm1_cont_slice_4_split_0
I0930 10:28:18.102659  1561 net.cpp:339] lstm1_h_conted_4 -> h_conted_4
I0930 10:28:18.102668  1561 net.cpp:113] Setting up lstm1_h_conted_4
I0930 10:28:18.102674  1561 net.cpp:120] Top shape: 1 10 256 (2560)
I0930 10:28:18.102680  1561 layer_factory.hpp:74] Creating layer lstm1_transform_5
I0930 10:28:18.102689  1561 net.cpp:84] Creating Layer lstm1_transform_5
I0930 10:28:18.102696  1561 net.cpp:381] lstm1_transform_5 <- h_conted_4
I0930 10:28:18.102704  1561 net.cpp:339] lstm1_transform_5 -> W_hc_h_4
I0930 10:28:18.102712  1561 net.cpp:113] Setting up lstm1_transform_5
I0930 10:28:18.106073  1561 net.cpp:120] Top shape: 1 10 1024 (10240)
I0930 10:28:18.106086  1561 net.cpp:425] Sharing parameters 'W_hc' owned by layer 'lstm1_transform_1', param index 0
I0930 10:28:18.106091  1561 layer_factory.hpp:74] Creating layer lstm1_gate_input_5
I0930 10:28:18.106097  1561 net.cpp:84] Creating Layer lstm1_gate_input_5
I0930 10:28:18.106103  1561 net.cpp:381] lstm1_gate_input_5 <- W_hc_h_4
I0930 10:28:18.106109  1561 net.cpp:381] lstm1_gate_input_5 <- W_xc_x_5
I0930 10:28:18.106117  1561 net.cpp:339] lstm1_gate_input_5 -> gate_input_5
I0930 10:28:18.106125  1561 net.cpp:113] Setting up lstm1_gate_input_5
I0930 10:28:18.106132  1561 net.cpp:120] Top shape: 1 10 1024 (10240)
I0930 10:28:18.106137  1561 layer_factory.hpp:74] Creating layer lstm1_unit_5
I0930 10:28:18.106143  1561 net.cpp:84] Creating Layer lstm1_unit_5
I0930 10:28:18.106148  1561 net.cpp:381] lstm1_unit_5 <- c_4
I0930 10:28:18.106154  1561 net.cpp:381] lstm1_unit_5 <- gate_input_5
I0930 10:28:18.106159  1561 net.cpp:381] lstm1_unit_5 <- cont_5_lstm1_cont_slice_4_split_1
I0930 10:28:18.106169  1561 net.cpp:339] lstm1_unit_5 -> c_5
I0930 10:28:18.106179  1561 net.cpp:339] lstm1_unit_5 -> h_5
I0930 10:28:18.106187  1561 net.cpp:113] Setting up lstm1_unit_5
I0930 10:28:18.106195  1561 net.cpp:120] Top shape: 1 10 256 (2560)
I0930 10:28:18.106201  1561 net.cpp:120] Top shape: 1 10 256 (2560)
I0930 10:28:18.106206  1561 layer_factory.hpp:74] Creating layer h_5_lstm1_unit_5_1_split
I0930 10:28:18.106212  1561 net.cpp:84] Creating Layer h_5_lstm1_unit_5_1_split
I0930 10:28:18.106217  1561 net.cpp:381] h_5_lstm1_unit_5_1_split <- h_5
I0930 10:28:18.106223  1561 net.cpp:339] h_5_lstm1_unit_5_1_split -> h_5_lstm1_unit_5_1_split_0
I0930 10:28:18.106233  1561 net.cpp:339] h_5_lstm1_unit_5_1_split -> h_5_lstm1_unit_5_1_split_1
I0930 10:28:18.106240  1561 net.cpp:113] Setting up h_5_lstm1_unit_5_1_split
I0930 10:28:18.106248  1561 net.cpp:120] Top shape: 1 10 256 (2560)
I0930 10:28:18.106254  1561 net.cpp:120] Top shape: 1 10 256 (2560)
I0930 10:28:18.106259  1561 layer_factory.hpp:74] Creating layer lstm1_h_conted_5
I0930 10:28:18.106266  1561 net.cpp:84] Creating Layer lstm1_h_conted_5
I0930 10:28:18.106271  1561 net.cpp:381] lstm1_h_conted_5 <- h_5_lstm1_unit_5_1_split_0
I0930 10:28:18.106276  1561 net.cpp:381] lstm1_h_conted_5 <- cont_6_lstm1_cont_slice_5_split_0
I0930 10:28:18.106283  1561 net.cpp:339] lstm1_h_conted_5 -> h_conted_5
I0930 10:28:18.106290  1561 net.cpp:113] Setting up lstm1_h_conted_5
I0930 10:28:18.106297  1561 net.cpp:120] Top shape: 1 10 256 (2560)
I0930 10:28:18.106302  1561 layer_factory.hpp:74] Creating layer lstm1_transform_6
I0930 10:28:18.106310  1561 net.cpp:84] Creating Layer lstm1_transform_6
I0930 10:28:18.106317  1561 net.cpp:381] lstm1_transform_6 <- h_conted_5
I0930 10:28:18.106323  1561 net.cpp:339] lstm1_transform_6 -> W_hc_h_5
I0930 10:28:18.106333  1561 net.cpp:113] Setting up lstm1_transform_6
I0930 10:28:18.109689  1561 net.cpp:120] Top shape: 1 10 1024 (10240)
I0930 10:28:18.109700  1561 net.cpp:425] Sharing parameters 'W_hc' owned by layer 'lstm1_transform_1', param index 0
I0930 10:28:18.109704  1561 layer_factory.hpp:74] Creating layer lstm1_gate_input_6
I0930 10:28:18.109712  1561 net.cpp:84] Creating Layer lstm1_gate_input_6
I0930 10:28:18.109719  1561 net.cpp:381] lstm1_gate_input_6 <- W_hc_h_5
I0930 10:28:18.109724  1561 net.cpp:381] lstm1_gate_input_6 <- W_xc_x_6
I0930 10:28:18.109735  1561 net.cpp:339] lstm1_gate_input_6 -> gate_input_6
I0930 10:28:18.109742  1561 net.cpp:113] Setting up lstm1_gate_input_6
I0930 10:28:18.109750  1561 net.cpp:120] Top shape: 1 10 1024 (10240)
I0930 10:28:18.109755  1561 layer_factory.hpp:74] Creating layer lstm1_unit_6
I0930 10:28:18.109761  1561 net.cpp:84] Creating Layer lstm1_unit_6
I0930 10:28:18.109766  1561 net.cpp:381] lstm1_unit_6 <- c_5
I0930 10:28:18.109771  1561 net.cpp:381] lstm1_unit_6 <- gate_input_6
I0930 10:28:18.109776  1561 net.cpp:381] lstm1_unit_6 <- cont_6_lstm1_cont_slice_5_split_1
I0930 10:28:18.109783  1561 net.cpp:339] lstm1_unit_6 -> c_6
I0930 10:28:18.109793  1561 net.cpp:339] lstm1_unit_6 -> h_6
I0930 10:28:18.109800  1561 net.cpp:113] Setting up lstm1_unit_6
I0930 10:28:18.109810  1561 net.cpp:120] Top shape: 1 10 256 (2560)
I0930 10:28:18.109817  1561 net.cpp:120] Top shape: 1 10 256 (2560)
I0930 10:28:18.109822  1561 layer_factory.hpp:74] Creating layer h_6_lstm1_unit_6_1_split
I0930 10:28:18.109827  1561 net.cpp:84] Creating Layer h_6_lstm1_unit_6_1_split
I0930 10:28:18.109833  1561 net.cpp:381] h_6_lstm1_unit_6_1_split <- h_6
I0930 10:28:18.109838  1561 net.cpp:339] h_6_lstm1_unit_6_1_split -> h_6_lstm1_unit_6_1_split_0
I0930 10:28:18.109848  1561 net.cpp:339] h_6_lstm1_unit_6_1_split -> h_6_lstm1_unit_6_1_split_1
I0930 10:28:18.109858  1561 net.cpp:113] Setting up h_6_lstm1_unit_6_1_split
I0930 10:28:18.109864  1561 net.cpp:120] Top shape: 1 10 256 (2560)
I0930 10:28:18.109870  1561 net.cpp:120] Top shape: 1 10 256 (2560)
I0930 10:28:18.109875  1561 layer_factory.hpp:74] Creating layer lstm1_h_conted_6
I0930 10:28:18.109882  1561 net.cpp:84] Creating Layer lstm1_h_conted_6
I0930 10:28:18.109894  1561 net.cpp:381] lstm1_h_conted_6 <- h_6_lstm1_unit_6_1_split_0
I0930 10:28:18.109899  1561 net.cpp:381] lstm1_h_conted_6 <- cont_7_lstm1_cont_slice_6_split_0
I0930 10:28:18.109906  1561 net.cpp:339] lstm1_h_conted_6 -> h_conted_6
I0930 10:28:18.109915  1561 net.cpp:113] Setting up lstm1_h_conted_6
I0930 10:28:18.109923  1561 net.cpp:120] Top shape: 1 10 256 (2560)
I0930 10:28:18.109928  1561 layer_factory.hpp:74] Creating layer lstm1_transform_7
I0930 10:28:18.109936  1561 net.cpp:84] Creating Layer lstm1_transform_7
I0930 10:28:18.109941  1561 net.cpp:381] lstm1_transform_7 <- h_conted_6
I0930 10:28:18.109949  1561 net.cpp:339] lstm1_transform_7 -> W_hc_h_6
I0930 10:28:18.109958  1561 net.cpp:113] Setting up lstm1_transform_7
I0930 10:28:18.113297  1561 net.cpp:120] Top shape: 1 10 1024 (10240)
I0930 10:28:18.113312  1561 net.cpp:425] Sharing parameters 'W_hc' owned by layer 'lstm1_transform_1', param index 0
I0930 10:28:18.113317  1561 layer_factory.hpp:74] Creating layer lstm1_gate_input_7
I0930 10:28:18.113325  1561 net.cpp:84] Creating Layer lstm1_gate_input_7
I0930 10:28:18.113332  1561 net.cpp:381] lstm1_gate_input_7 <- W_hc_h_6
I0930 10:28:18.113337  1561 net.cpp:381] lstm1_gate_input_7 <- W_xc_x_7
I0930 10:28:18.113344  1561 net.cpp:339] lstm1_gate_input_7 -> gate_input_7
I0930 10:28:18.113353  1561 net.cpp:113] Setting up lstm1_gate_input_7
I0930 10:28:18.113359  1561 net.cpp:120] Top shape: 1 10 1024 (10240)
I0930 10:28:18.113364  1561 layer_factory.hpp:74] Creating layer lstm1_unit_7
I0930 10:28:18.113371  1561 net.cpp:84] Creating Layer lstm1_unit_7
I0930 10:28:18.113375  1561 net.cpp:381] lstm1_unit_7 <- c_6
I0930 10:28:18.113381  1561 net.cpp:381] lstm1_unit_7 <- gate_input_7
I0930 10:28:18.113387  1561 net.cpp:381] lstm1_unit_7 <- cont_7_lstm1_cont_slice_6_split_1
I0930 10:28:18.113394  1561 net.cpp:339] lstm1_unit_7 -> c_7
I0930 10:28:18.113405  1561 net.cpp:339] lstm1_unit_7 -> h_7
I0930 10:28:18.113415  1561 net.cpp:113] Setting up lstm1_unit_7
I0930 10:28:18.113421  1561 net.cpp:120] Top shape: 1 10 256 (2560)
I0930 10:28:18.113428  1561 net.cpp:120] Top shape: 1 10 256 (2560)
I0930 10:28:18.113432  1561 layer_factory.hpp:74] Creating layer h_7_lstm1_unit_7_1_split
I0930 10:28:18.113440  1561 net.cpp:84] Creating Layer h_7_lstm1_unit_7_1_split
I0930 10:28:18.113443  1561 net.cpp:381] h_7_lstm1_unit_7_1_split <- h_7
I0930 10:28:18.113452  1561 net.cpp:339] h_7_lstm1_unit_7_1_split -> h_7_lstm1_unit_7_1_split_0
I0930 10:28:18.113461  1561 net.cpp:339] h_7_lstm1_unit_7_1_split -> h_7_lstm1_unit_7_1_split_1
I0930 10:28:18.113469  1561 net.cpp:113] Setting up h_7_lstm1_unit_7_1_split
I0930 10:28:18.113477  1561 net.cpp:120] Top shape: 1 10 256 (2560)
I0930 10:28:18.113483  1561 net.cpp:120] Top shape: 1 10 256 (2560)
I0930 10:28:18.113488  1561 layer_factory.hpp:74] Creating layer lstm1_h_conted_7
I0930 10:28:18.113494  1561 net.cpp:84] Creating Layer lstm1_h_conted_7
I0930 10:28:18.113500  1561 net.cpp:381] lstm1_h_conted_7 <- h_7_lstm1_unit_7_1_split_0
I0930 10:28:18.113507  1561 net.cpp:381] lstm1_h_conted_7 <- cont_8_lstm1_cont_slice_7_split_0
I0930 10:28:18.113514  1561 net.cpp:339] lstm1_h_conted_7 -> h_conted_7
I0930 10:28:18.113521  1561 net.cpp:113] Setting up lstm1_h_conted_7
I0930 10:28:18.113530  1561 net.cpp:120] Top shape: 1 10 256 (2560)
I0930 10:28:18.113534  1561 layer_factory.hpp:74] Creating layer lstm1_transform_8
I0930 10:28:18.113543  1561 net.cpp:84] Creating Layer lstm1_transform_8
I0930 10:28:18.113549  1561 net.cpp:381] lstm1_transform_8 <- h_conted_7
I0930 10:28:18.113559  1561 net.cpp:339] lstm1_transform_8 -> W_hc_h_7
I0930 10:28:18.113567  1561 net.cpp:113] Setting up lstm1_transform_8
I0930 10:28:18.116914  1561 net.cpp:120] Top shape: 1 10 1024 (10240)
I0930 10:28:18.116925  1561 net.cpp:425] Sharing parameters 'W_hc' owned by layer 'lstm1_transform_1', param index 0
I0930 10:28:18.116930  1561 layer_factory.hpp:74] Creating layer lstm1_gate_input_8
I0930 10:28:18.116937  1561 net.cpp:84] Creating Layer lstm1_gate_input_8
I0930 10:28:18.116943  1561 net.cpp:381] lstm1_gate_input_8 <- W_hc_h_7
I0930 10:28:18.116950  1561 net.cpp:381] lstm1_gate_input_8 <- W_xc_x_8
I0930 10:28:18.116956  1561 net.cpp:339] lstm1_gate_input_8 -> gate_input_8
I0930 10:28:18.116966  1561 net.cpp:113] Setting up lstm1_gate_input_8
I0930 10:28:18.116973  1561 net.cpp:120] Top shape: 1 10 1024 (10240)
I0930 10:28:18.116977  1561 layer_factory.hpp:74] Creating layer lstm1_unit_8
I0930 10:28:18.116984  1561 net.cpp:84] Creating Layer lstm1_unit_8
I0930 10:28:18.116993  1561 net.cpp:381] lstm1_unit_8 <- c_7
I0930 10:28:18.116999  1561 net.cpp:381] lstm1_unit_8 <- gate_input_8
I0930 10:28:18.117004  1561 net.cpp:381] lstm1_unit_8 <- cont_8_lstm1_cont_slice_7_split_1
I0930 10:28:18.117012  1561 net.cpp:339] lstm1_unit_8 -> c_8
I0930 10:28:18.117022  1561 net.cpp:339] lstm1_unit_8 -> h_8
I0930 10:28:18.117029  1561 net.cpp:113] Setting up lstm1_unit_8
I0930 10:28:18.117039  1561 net.cpp:120] Top shape: 1 10 256 (2560)
I0930 10:28:18.117046  1561 net.cpp:120] Top shape: 1 10 256 (2560)
I0930 10:28:18.117051  1561 layer_factory.hpp:74] Creating layer h_8_lstm1_unit_8_1_split
I0930 10:28:18.117058  1561 net.cpp:84] Creating Layer h_8_lstm1_unit_8_1_split
I0930 10:28:18.117063  1561 net.cpp:381] h_8_lstm1_unit_8_1_split <- h_8
I0930 10:28:18.117069  1561 net.cpp:339] h_8_lstm1_unit_8_1_split -> h_8_lstm1_unit_8_1_split_0
I0930 10:28:18.117076  1561 net.cpp:339] h_8_lstm1_unit_8_1_split -> h_8_lstm1_unit_8_1_split_1
I0930 10:28:18.117082  1561 net.cpp:113] Setting up h_8_lstm1_unit_8_1_split
I0930 10:28:18.117089  1561 net.cpp:120] Top shape: 1 10 256 (2560)
I0930 10:28:18.117097  1561 net.cpp:120] Top shape: 1 10 256 (2560)
I0930 10:28:18.117101  1561 layer_factory.hpp:74] Creating layer lstm1_h_conted_8
I0930 10:28:18.117107  1561 net.cpp:84] Creating Layer lstm1_h_conted_8
I0930 10:28:18.117112  1561 net.cpp:381] lstm1_h_conted_8 <- h_8_lstm1_unit_8_1_split_0
I0930 10:28:18.117117  1561 net.cpp:381] lstm1_h_conted_8 <- cont_9_lstm1_cont_slice_8_split_0
I0930 10:28:18.117125  1561 net.cpp:339] lstm1_h_conted_8 -> h_conted_8
I0930 10:28:18.117133  1561 net.cpp:113] Setting up lstm1_h_conted_8
I0930 10:28:18.117142  1561 net.cpp:120] Top shape: 1 10 256 (2560)
I0930 10:28:18.117148  1561 layer_factory.hpp:74] Creating layer lstm1_transform_9
I0930 10:28:18.117157  1561 net.cpp:84] Creating Layer lstm1_transform_9
I0930 10:28:18.117163  1561 net.cpp:381] lstm1_transform_9 <- h_conted_8
I0930 10:28:18.117172  1561 net.cpp:339] lstm1_transform_9 -> W_hc_h_8
I0930 10:28:18.117180  1561 net.cpp:113] Setting up lstm1_transform_9
I0930 10:28:18.120518  1561 net.cpp:120] Top shape: 1 10 1024 (10240)
I0930 10:28:18.120529  1561 net.cpp:425] Sharing parameters 'W_hc' owned by layer 'lstm1_transform_1', param index 0
I0930 10:28:18.120534  1561 layer_factory.hpp:74] Creating layer lstm1_gate_input_9
I0930 10:28:18.120542  1561 net.cpp:84] Creating Layer lstm1_gate_input_9
I0930 10:28:18.120548  1561 net.cpp:381] lstm1_gate_input_9 <- W_hc_h_8
I0930 10:28:18.120553  1561 net.cpp:381] lstm1_gate_input_9 <- W_xc_x_9
I0930 10:28:18.120560  1561 net.cpp:339] lstm1_gate_input_9 -> gate_input_9
I0930 10:28:18.120569  1561 net.cpp:113] Setting up lstm1_gate_input_9
I0930 10:28:18.120576  1561 net.cpp:120] Top shape: 1 10 1024 (10240)
I0930 10:28:18.120580  1561 layer_factory.hpp:74] Creating layer lstm1_unit_9
I0930 10:28:18.120587  1561 net.cpp:84] Creating Layer lstm1_unit_9
I0930 10:28:18.120592  1561 net.cpp:381] lstm1_unit_9 <- c_8
I0930 10:28:18.120599  1561 net.cpp:381] lstm1_unit_9 <- gate_input_9
I0930 10:28:18.120604  1561 net.cpp:381] lstm1_unit_9 <- cont_9_lstm1_cont_slice_8_split_1
I0930 10:28:18.120612  1561 net.cpp:339] lstm1_unit_9 -> c_9
I0930 10:28:18.120638  1561 net.cpp:339] lstm1_unit_9 -> h_9
I0930 10:28:18.120648  1561 net.cpp:113] Setting up lstm1_unit_9
I0930 10:28:18.120657  1561 net.cpp:120] Top shape: 1 10 256 (2560)
I0930 10:28:18.120663  1561 net.cpp:120] Top shape: 1 10 256 (2560)
I0930 10:28:18.120668  1561 layer_factory.hpp:74] Creating layer h_9_lstm1_unit_9_1_split
I0930 10:28:18.120676  1561 net.cpp:84] Creating Layer h_9_lstm1_unit_9_1_split
I0930 10:28:18.120682  1561 net.cpp:381] h_9_lstm1_unit_9_1_split <- h_9
I0930 10:28:18.120688  1561 net.cpp:339] h_9_lstm1_unit_9_1_split -> h_9_lstm1_unit_9_1_split_0
I0930 10:28:18.120695  1561 net.cpp:339] h_9_lstm1_unit_9_1_split -> h_9_lstm1_unit_9_1_split_1
I0930 10:28:18.120704  1561 net.cpp:113] Setting up h_9_lstm1_unit_9_1_split
I0930 10:28:18.120712  1561 net.cpp:120] Top shape: 1 10 256 (2560)
I0930 10:28:18.120718  1561 net.cpp:120] Top shape: 1 10 256 (2560)
I0930 10:28:18.120723  1561 layer_factory.hpp:74] Creating layer lstm1_h_conted_9
I0930 10:28:18.120738  1561 net.cpp:84] Creating Layer lstm1_h_conted_9
I0930 10:28:18.120743  1561 net.cpp:381] lstm1_h_conted_9 <- h_9_lstm1_unit_9_1_split_0
I0930 10:28:18.120749  1561 net.cpp:381] lstm1_h_conted_9 <- cont_10_lstm1_cont_slice_9_split_0
I0930 10:28:18.120757  1561 net.cpp:339] lstm1_h_conted_9 -> h_conted_9
I0930 10:28:18.120766  1561 net.cpp:113] Setting up lstm1_h_conted_9
I0930 10:28:18.120775  1561 net.cpp:120] Top shape: 1 10 256 (2560)
I0930 10:28:18.120782  1561 layer_factory.hpp:74] Creating layer lstm1_transform_10
I0930 10:28:18.120791  1561 net.cpp:84] Creating Layer lstm1_transform_10
I0930 10:28:18.120798  1561 net.cpp:381] lstm1_transform_10 <- h_conted_9
I0930 10:28:18.120805  1561 net.cpp:339] lstm1_transform_10 -> W_hc_h_9
I0930 10:28:18.120815  1561 net.cpp:113] Setting up lstm1_transform_10
I0930 10:28:18.124164  1561 net.cpp:120] Top shape: 1 10 1024 (10240)
I0930 10:28:18.124176  1561 net.cpp:425] Sharing parameters 'W_hc' owned by layer 'lstm1_transform_1', param index 0
I0930 10:28:18.124181  1561 layer_factory.hpp:74] Creating layer lstm1_gate_input_10
I0930 10:28:18.124189  1561 net.cpp:84] Creating Layer lstm1_gate_input_10
I0930 10:28:18.124195  1561 net.cpp:381] lstm1_gate_input_10 <- W_hc_h_9
I0930 10:28:18.124202  1561 net.cpp:381] lstm1_gate_input_10 <- W_xc_x_10
I0930 10:28:18.124212  1561 net.cpp:339] lstm1_gate_input_10 -> gate_input_10
I0930 10:28:18.124219  1561 net.cpp:113] Setting up lstm1_gate_input_10
I0930 10:28:18.124228  1561 net.cpp:120] Top shape: 1 10 1024 (10240)
I0930 10:28:18.124233  1561 layer_factory.hpp:74] Creating layer lstm1_unit_10
I0930 10:28:18.124239  1561 net.cpp:84] Creating Layer lstm1_unit_10
I0930 10:28:18.124244  1561 net.cpp:381] lstm1_unit_10 <- c_9
I0930 10:28:18.124253  1561 net.cpp:381] lstm1_unit_10 <- gate_input_10
I0930 10:28:18.124260  1561 net.cpp:381] lstm1_unit_10 <- cont_10_lstm1_cont_slice_9_split_1
I0930 10:28:18.124269  1561 net.cpp:339] lstm1_unit_10 -> c_10
I0930 10:28:18.124279  1561 net.cpp:339] lstm1_unit_10 -> h_10
I0930 10:28:18.124287  1561 net.cpp:113] Setting up lstm1_unit_10
I0930 10:28:18.124297  1561 net.cpp:120] Top shape: 1 10 256 (2560)
I0930 10:28:18.124303  1561 net.cpp:120] Top shape: 1 10 256 (2560)
I0930 10:28:18.124308  1561 layer_factory.hpp:74] Creating layer h_10_lstm1_unit_10_1_split
I0930 10:28:18.124315  1561 net.cpp:84] Creating Layer h_10_lstm1_unit_10_1_split
I0930 10:28:18.124320  1561 net.cpp:381] h_10_lstm1_unit_10_1_split <- h_10
I0930 10:28:18.124327  1561 net.cpp:339] h_10_lstm1_unit_10_1_split -> h_10_lstm1_unit_10_1_split_0
I0930 10:28:18.124338  1561 net.cpp:339] h_10_lstm1_unit_10_1_split -> h_10_lstm1_unit_10_1_split_1
I0930 10:28:18.124347  1561 net.cpp:113] Setting up h_10_lstm1_unit_10_1_split
I0930 10:28:18.124356  1561 net.cpp:120] Top shape: 1 10 256 (2560)
I0930 10:28:18.124363  1561 net.cpp:120] Top shape: 1 10 256 (2560)
I0930 10:28:18.124367  1561 layer_factory.hpp:74] Creating layer lstm1_h_conted_10
I0930 10:28:18.124374  1561 net.cpp:84] Creating Layer lstm1_h_conted_10
I0930 10:28:18.124379  1561 net.cpp:381] lstm1_h_conted_10 <- h_10_lstm1_unit_10_1_split_0
I0930 10:28:18.124387  1561 net.cpp:381] lstm1_h_conted_10 <- cont_11_lstm1_cont_slice_10_split_0
I0930 10:28:18.124394  1561 net.cpp:339] lstm1_h_conted_10 -> h_conted_10
I0930 10:28:18.124402  1561 net.cpp:113] Setting up lstm1_h_conted_10
I0930 10:28:18.124410  1561 net.cpp:120] Top shape: 1 10 256 (2560)
I0930 10:28:18.124418  1561 layer_factory.hpp:74] Creating layer lstm1_transform_11
I0930 10:28:18.124426  1561 net.cpp:84] Creating Layer lstm1_transform_11
I0930 10:28:18.124433  1561 net.cpp:381] lstm1_transform_11 <- h_conted_10
I0930 10:28:18.124440  1561 net.cpp:339] lstm1_transform_11 -> W_hc_h_10
I0930 10:28:18.124449  1561 net.cpp:113] Setting up lstm1_transform_11
I0930 10:28:18.127643  1561 net.cpp:120] Top shape: 1 10 1024 (10240)
I0930 10:28:18.127655  1561 net.cpp:425] Sharing parameters 'W_hc' owned by layer 'lstm1_transform_1', param index 0
I0930 10:28:18.127660  1561 layer_factory.hpp:74] Creating layer lstm1_gate_input_11
I0930 10:28:18.127666  1561 net.cpp:84] Creating Layer lstm1_gate_input_11
I0930 10:28:18.127672  1561 net.cpp:381] lstm1_gate_input_11 <- W_hc_h_10
I0930 10:28:18.127679  1561 net.cpp:381] lstm1_gate_input_11 <- W_xc_x_11
I0930 10:28:18.127686  1561 net.cpp:339] lstm1_gate_input_11 -> gate_input_11
I0930 10:28:18.127696  1561 net.cpp:113] Setting up lstm1_gate_input_11
I0930 10:28:18.127703  1561 net.cpp:120] Top shape: 1 10 1024 (10240)
I0930 10:28:18.127707  1561 layer_factory.hpp:74] Creating layer lstm1_unit_11
I0930 10:28:18.127714  1561 net.cpp:84] Creating Layer lstm1_unit_11
I0930 10:28:18.127719  1561 net.cpp:381] lstm1_unit_11 <- c_10
I0930 10:28:18.127725  1561 net.cpp:381] lstm1_unit_11 <- gate_input_11
I0930 10:28:18.127730  1561 net.cpp:381] lstm1_unit_11 <- cont_11_lstm1_cont_slice_10_split_1
I0930 10:28:18.127737  1561 net.cpp:339] lstm1_unit_11 -> c_11
I0930 10:28:18.127746  1561 net.cpp:339] lstm1_unit_11 -> h_11
I0930 10:28:18.127753  1561 net.cpp:113] Setting up lstm1_unit_11
I0930 10:28:18.127764  1561 net.cpp:120] Top shape: 1 10 256 (2560)
I0930 10:28:18.127771  1561 net.cpp:120] Top shape: 1 10 256 (2560)
I0930 10:28:18.127775  1561 layer_factory.hpp:74] Creating layer h_11_lstm1_unit_11_1_split
I0930 10:28:18.127784  1561 net.cpp:84] Creating Layer h_11_lstm1_unit_11_1_split
I0930 10:28:18.127789  1561 net.cpp:381] h_11_lstm1_unit_11_1_split <- h_11
I0930 10:28:18.127795  1561 net.cpp:339] h_11_lstm1_unit_11_1_split -> h_11_lstm1_unit_11_1_split_0
I0930 10:28:18.127804  1561 net.cpp:339] h_11_lstm1_unit_11_1_split -> h_11_lstm1_unit_11_1_split_1
I0930 10:28:18.127812  1561 net.cpp:113] Setting up h_11_lstm1_unit_11_1_split
I0930 10:28:18.127820  1561 net.cpp:120] Top shape: 1 10 256 (2560)
I0930 10:28:18.127826  1561 net.cpp:120] Top shape: 1 10 256 (2560)
I0930 10:28:18.127830  1561 layer_factory.hpp:74] Creating layer lstm1_h_conted_11
I0930 10:28:18.127836  1561 net.cpp:84] Creating Layer lstm1_h_conted_11
I0930 10:28:18.127841  1561 net.cpp:381] lstm1_h_conted_11 <- h_11_lstm1_unit_11_1_split_0
I0930 10:28:18.127847  1561 net.cpp:381] lstm1_h_conted_11 <- cont_12_lstm1_cont_slice_11_split_0
I0930 10:28:18.127854  1561 net.cpp:339] lstm1_h_conted_11 -> h_conted_11
I0930 10:28:18.127864  1561 net.cpp:113] Setting up lstm1_h_conted_11
I0930 10:28:18.127872  1561 net.cpp:120] Top shape: 1 10 256 (2560)
I0930 10:28:18.127877  1561 layer_factory.hpp:74] Creating layer lstm1_transform_12
I0930 10:28:18.127889  1561 net.cpp:84] Creating Layer lstm1_transform_12
I0930 10:28:18.127895  1561 net.cpp:381] lstm1_transform_12 <- h_conted_11
I0930 10:28:18.127905  1561 net.cpp:339] lstm1_transform_12 -> W_hc_h_11
I0930 10:28:18.127914  1561 net.cpp:113] Setting up lstm1_transform_12
I0930 10:28:18.131098  1561 net.cpp:120] Top shape: 1 10 1024 (10240)
I0930 10:28:18.131108  1561 net.cpp:425] Sharing parameters 'W_hc' owned by layer 'lstm1_transform_1', param index 0
I0930 10:28:18.131114  1561 layer_factory.hpp:74] Creating layer lstm1_gate_input_12
I0930 10:28:18.131120  1561 net.cpp:84] Creating Layer lstm1_gate_input_12
I0930 10:28:18.131126  1561 net.cpp:381] lstm1_gate_input_12 <- W_hc_h_11
I0930 10:28:18.131132  1561 net.cpp:381] lstm1_gate_input_12 <- W_xc_x_12
I0930 10:28:18.131139  1561 net.cpp:339] lstm1_gate_input_12 -> gate_input_12
I0930 10:28:18.131147  1561 net.cpp:113] Setting up lstm1_gate_input_12
I0930 10:28:18.131155  1561 net.cpp:120] Top shape: 1 10 1024 (10240)
I0930 10:28:18.131160  1561 layer_factory.hpp:74] Creating layer lstm1_unit_12
I0930 10:28:18.131166  1561 net.cpp:84] Creating Layer lstm1_unit_12
I0930 10:28:18.131170  1561 net.cpp:381] lstm1_unit_12 <- c_11
I0930 10:28:18.131176  1561 net.cpp:381] lstm1_unit_12 <- gate_input_12
I0930 10:28:18.131182  1561 net.cpp:381] lstm1_unit_12 <- cont_12_lstm1_cont_slice_11_split_1
I0930 10:28:18.131189  1561 net.cpp:339] lstm1_unit_12 -> c_12
I0930 10:28:18.131202  1561 net.cpp:339] lstm1_unit_12 -> h_12
I0930 10:28:18.131211  1561 net.cpp:113] Setting up lstm1_unit_12
I0930 10:28:18.131220  1561 net.cpp:120] Top shape: 1 10 256 (2560)
I0930 10:28:18.131227  1561 net.cpp:120] Top shape: 1 10 256 (2560)
I0930 10:28:18.131232  1561 layer_factory.hpp:74] Creating layer h_12_lstm1_unit_12_1_split
I0930 10:28:18.131237  1561 net.cpp:84] Creating Layer h_12_lstm1_unit_12_1_split
I0930 10:28:18.131242  1561 net.cpp:381] h_12_lstm1_unit_12_1_split <- h_12
I0930 10:28:18.131249  1561 net.cpp:339] h_12_lstm1_unit_12_1_split -> h_12_lstm1_unit_12_1_split_0
I0930 10:28:18.131258  1561 net.cpp:339] h_12_lstm1_unit_12_1_split -> h_12_lstm1_unit_12_1_split_1
I0930 10:28:18.131266  1561 net.cpp:113] Setting up h_12_lstm1_unit_12_1_split
I0930 10:28:18.131274  1561 net.cpp:120] Top shape: 1 10 256 (2560)
I0930 10:28:18.131279  1561 net.cpp:120] Top shape: 1 10 256 (2560)
I0930 10:28:18.131283  1561 layer_factory.hpp:74] Creating layer lstm1_h_conted_12
I0930 10:28:18.131290  1561 net.cpp:84] Creating Layer lstm1_h_conted_12
I0930 10:28:18.131295  1561 net.cpp:381] lstm1_h_conted_12 <- h_12_lstm1_unit_12_1_split_0
I0930 10:28:18.131301  1561 net.cpp:381] lstm1_h_conted_12 <- cont_13_lstm1_cont_slice_12_split_0
I0930 10:28:18.131309  1561 net.cpp:339] lstm1_h_conted_12 -> h_conted_12
I0930 10:28:18.131317  1561 net.cpp:113] Setting up lstm1_h_conted_12
I0930 10:28:18.131325  1561 net.cpp:120] Top shape: 1 10 256 (2560)
I0930 10:28:18.131330  1561 layer_factory.hpp:74] Creating layer lstm1_transform_13
I0930 10:28:18.131340  1561 net.cpp:84] Creating Layer lstm1_transform_13
I0930 10:28:18.131346  1561 net.cpp:381] lstm1_transform_13 <- h_conted_12
I0930 10:28:18.131356  1561 net.cpp:339] lstm1_transform_13 -> W_hc_h_12
I0930 10:28:18.131364  1561 net.cpp:113] Setting up lstm1_transform_13
I0930 10:28:18.134551  1561 net.cpp:120] Top shape: 1 10 1024 (10240)
I0930 10:28:18.134560  1561 net.cpp:425] Sharing parameters 'W_hc' owned by layer 'lstm1_transform_1', param index 0
I0930 10:28:18.134565  1561 layer_factory.hpp:74] Creating layer lstm1_gate_input_13
I0930 10:28:18.134572  1561 net.cpp:84] Creating Layer lstm1_gate_input_13
I0930 10:28:18.134578  1561 net.cpp:381] lstm1_gate_input_13 <- W_hc_h_12
I0930 10:28:18.134584  1561 net.cpp:381] lstm1_gate_input_13 <- W_xc_x_13
I0930 10:28:18.134591  1561 net.cpp:339] lstm1_gate_input_13 -> gate_input_13
I0930 10:28:18.134599  1561 net.cpp:113] Setting up lstm1_gate_input_13
I0930 10:28:18.134608  1561 net.cpp:120] Top shape: 1 10 1024 (10240)
I0930 10:28:18.134611  1561 layer_factory.hpp:74] Creating layer lstm1_unit_13
I0930 10:28:18.134618  1561 net.cpp:84] Creating Layer lstm1_unit_13
I0930 10:28:18.134623  1561 net.cpp:381] lstm1_unit_13 <- c_12
I0930 10:28:18.134630  1561 net.cpp:381] lstm1_unit_13 <- gate_input_13
I0930 10:28:18.134640  1561 net.cpp:381] lstm1_unit_13 <- cont_13_lstm1_cont_slice_12_split_1
I0930 10:28:18.134647  1561 net.cpp:339] lstm1_unit_13 -> c_13
I0930 10:28:18.134657  1561 net.cpp:339] lstm1_unit_13 -> h_13
I0930 10:28:18.134665  1561 net.cpp:113] Setting up lstm1_unit_13
I0930 10:28:18.134673  1561 net.cpp:120] Top shape: 1 10 256 (2560)
I0930 10:28:18.134680  1561 net.cpp:120] Top shape: 1 10 256 (2560)
I0930 10:28:18.134685  1561 layer_factory.hpp:74] Creating layer h_13_lstm1_unit_13_1_split
I0930 10:28:18.134691  1561 net.cpp:84] Creating Layer h_13_lstm1_unit_13_1_split
I0930 10:28:18.134696  1561 net.cpp:381] h_13_lstm1_unit_13_1_split <- h_13
I0930 10:28:18.134703  1561 net.cpp:339] h_13_lstm1_unit_13_1_split -> h_13_lstm1_unit_13_1_split_0
I0930 10:28:18.134712  1561 net.cpp:339] h_13_lstm1_unit_13_1_split -> h_13_lstm1_unit_13_1_split_1
I0930 10:28:18.134721  1561 net.cpp:113] Setting up h_13_lstm1_unit_13_1_split
I0930 10:28:18.134727  1561 net.cpp:120] Top shape: 1 10 256 (2560)
I0930 10:28:18.134734  1561 net.cpp:120] Top shape: 1 10 256 (2560)
I0930 10:28:18.134738  1561 layer_factory.hpp:74] Creating layer lstm1_h_conted_13
I0930 10:28:18.134744  1561 net.cpp:84] Creating Layer lstm1_h_conted_13
I0930 10:28:18.134752  1561 net.cpp:381] lstm1_h_conted_13 <- h_13_lstm1_unit_13_1_split_0
I0930 10:28:18.134759  1561 net.cpp:381] lstm1_h_conted_13 <- cont_14_lstm1_cont_slice_13_split_0
I0930 10:28:18.134768  1561 net.cpp:339] lstm1_h_conted_13 -> h_conted_13
I0930 10:28:18.134775  1561 net.cpp:113] Setting up lstm1_h_conted_13
I0930 10:28:18.134785  1561 net.cpp:120] Top shape: 1 10 256 (2560)
I0930 10:28:18.134790  1561 layer_factory.hpp:74] Creating layer lstm1_transform_14
I0930 10:28:18.134799  1561 net.cpp:84] Creating Layer lstm1_transform_14
I0930 10:28:18.134805  1561 net.cpp:381] lstm1_transform_14 <- h_conted_13
I0930 10:28:18.134814  1561 net.cpp:339] lstm1_transform_14 -> W_hc_h_13
I0930 10:28:18.134822  1561 net.cpp:113] Setting up lstm1_transform_14
I0930 10:28:18.138015  1561 net.cpp:120] Top shape: 1 10 1024 (10240)
I0930 10:28:18.138026  1561 net.cpp:425] Sharing parameters 'W_hc' owned by layer 'lstm1_transform_1', param index 0
I0930 10:28:18.138031  1561 layer_factory.hpp:74] Creating layer lstm1_gate_input_14
I0930 10:28:18.138041  1561 net.cpp:84] Creating Layer lstm1_gate_input_14
I0930 10:28:18.138047  1561 net.cpp:381] lstm1_gate_input_14 <- W_hc_h_13
I0930 10:28:18.138053  1561 net.cpp:381] lstm1_gate_input_14 <- W_xc_x_14
I0930 10:28:18.138061  1561 net.cpp:339] lstm1_gate_input_14 -> gate_input_14
I0930 10:28:18.138069  1561 net.cpp:113] Setting up lstm1_gate_input_14
I0930 10:28:18.138077  1561 net.cpp:120] Top shape: 1 10 1024 (10240)
I0930 10:28:18.138082  1561 layer_factory.hpp:74] Creating layer lstm1_unit_14
I0930 10:28:18.138088  1561 net.cpp:84] Creating Layer lstm1_unit_14
I0930 10:28:18.138092  1561 net.cpp:381] lstm1_unit_14 <- c_13
I0930 10:28:18.138098  1561 net.cpp:381] lstm1_unit_14 <- gate_input_14
I0930 10:28:18.138103  1561 net.cpp:381] lstm1_unit_14 <- cont_14_lstm1_cont_slice_13_split_1
I0930 10:28:18.138111  1561 net.cpp:339] lstm1_unit_14 -> c_14
I0930 10:28:18.138119  1561 net.cpp:339] lstm1_unit_14 -> h_14
I0930 10:28:18.138129  1561 net.cpp:113] Setting up lstm1_unit_14
I0930 10:28:18.138137  1561 net.cpp:120] Top shape: 1 10 256 (2560)
I0930 10:28:18.138142  1561 net.cpp:120] Top shape: 1 10 256 (2560)
I0930 10:28:18.138146  1561 layer_factory.hpp:74] Creating layer h_14_lstm1_unit_14_1_split
I0930 10:28:18.138152  1561 net.cpp:84] Creating Layer h_14_lstm1_unit_14_1_split
I0930 10:28:18.138157  1561 net.cpp:381] h_14_lstm1_unit_14_1_split <- h_14
I0930 10:28:18.138165  1561 net.cpp:339] h_14_lstm1_unit_14_1_split -> h_14_lstm1_unit_14_1_split_0
I0930 10:28:18.138175  1561 net.cpp:339] h_14_lstm1_unit_14_1_split -> h_14_lstm1_unit_14_1_split_1
I0930 10:28:18.138182  1561 net.cpp:113] Setting up h_14_lstm1_unit_14_1_split
I0930 10:28:18.138190  1561 net.cpp:120] Top shape: 1 10 256 (2560)
I0930 10:28:18.138196  1561 net.cpp:120] Top shape: 1 10 256 (2560)
I0930 10:28:18.138200  1561 layer_factory.hpp:74] Creating layer lstm1_h_conted_14
I0930 10:28:18.138206  1561 net.cpp:84] Creating Layer lstm1_h_conted_14
I0930 10:28:18.138211  1561 net.cpp:381] lstm1_h_conted_14 <- h_14_lstm1_unit_14_1_split_0
I0930 10:28:18.138217  1561 net.cpp:381] lstm1_h_conted_14 <- cont_15_lstm1_cont_slice_14_split_0
I0930 10:28:18.138224  1561 net.cpp:339] lstm1_h_conted_14 -> h_conted_14
I0930 10:28:18.138231  1561 net.cpp:113] Setting up lstm1_h_conted_14
I0930 10:28:18.138240  1561 net.cpp:120] Top shape: 1 10 256 (2560)
I0930 10:28:18.138244  1561 layer_factory.hpp:74] Creating layer lstm1_transform_15
I0930 10:28:18.138253  1561 net.cpp:84] Creating Layer lstm1_transform_15
I0930 10:28:18.138259  1561 net.cpp:381] lstm1_transform_15 <- h_conted_14
I0930 10:28:18.138268  1561 net.cpp:339] lstm1_transform_15 -> W_hc_h_14
I0930 10:28:18.138278  1561 net.cpp:113] Setting up lstm1_transform_15
I0930 10:28:18.141458  1561 net.cpp:120] Top shape: 1 10 1024 (10240)
I0930 10:28:18.141471  1561 net.cpp:425] Sharing parameters 'W_hc' owned by layer 'lstm1_transform_1', param index 0
I0930 10:28:18.141476  1561 layer_factory.hpp:74] Creating layer lstm1_gate_input_15
I0930 10:28:18.141484  1561 net.cpp:84] Creating Layer lstm1_gate_input_15
I0930 10:28:18.141490  1561 net.cpp:381] lstm1_gate_input_15 <- W_hc_h_14
I0930 10:28:18.141496  1561 net.cpp:381] lstm1_gate_input_15 <- W_xc_x_15
I0930 10:28:18.141504  1561 net.cpp:339] lstm1_gate_input_15 -> gate_input_15
I0930 10:28:18.141512  1561 net.cpp:113] Setting up lstm1_gate_input_15
I0930 10:28:18.141520  1561 net.cpp:120] Top shape: 1 10 1024 (10240)
I0930 10:28:18.141525  1561 layer_factory.hpp:74] Creating layer lstm1_unit_15
I0930 10:28:18.141533  1561 net.cpp:84] Creating Layer lstm1_unit_15
I0930 10:28:18.141537  1561 net.cpp:381] lstm1_unit_15 <- c_14
I0930 10:28:18.141543  1561 net.cpp:381] lstm1_unit_15 <- gate_input_15
I0930 10:28:18.141549  1561 net.cpp:381] lstm1_unit_15 <- cont_15_lstm1_cont_slice_14_split_1
I0930 10:28:18.141556  1561 net.cpp:339] lstm1_unit_15 -> c_15
I0930 10:28:18.141566  1561 net.cpp:339] lstm1_unit_15 -> h_15
I0930 10:28:18.141573  1561 net.cpp:113] Setting up lstm1_unit_15
I0930 10:28:18.141583  1561 net.cpp:120] Top shape: 1 10 256 (2560)
I0930 10:28:18.141588  1561 net.cpp:120] Top shape: 1 10 256 (2560)
I0930 10:28:18.141593  1561 layer_factory.hpp:74] Creating layer h_15_lstm1_unit_15_1_split
I0930 10:28:18.141599  1561 net.cpp:84] Creating Layer h_15_lstm1_unit_15_1_split
I0930 10:28:18.141607  1561 net.cpp:381] h_15_lstm1_unit_15_1_split <- h_15
I0930 10:28:18.141613  1561 net.cpp:339] h_15_lstm1_unit_15_1_split -> h_15_lstm1_unit_15_1_split_0
I0930 10:28:18.141620  1561 net.cpp:339] h_15_lstm1_unit_15_1_split -> h_15_lstm1_unit_15_1_split_1
I0930 10:28:18.141628  1561 net.cpp:113] Setting up h_15_lstm1_unit_15_1_split
I0930 10:28:18.141636  1561 net.cpp:120] Top shape: 1 10 256 (2560)
I0930 10:28:18.141643  1561 net.cpp:120] Top shape: 1 10 256 (2560)
I0930 10:28:18.141647  1561 layer_factory.hpp:74] Creating layer lstm1_h_conted_15
I0930 10:28:18.141654  1561 net.cpp:84] Creating Layer lstm1_h_conted_15
I0930 10:28:18.141659  1561 net.cpp:381] lstm1_h_conted_15 <- h_15_lstm1_unit_15_1_split_0
I0930 10:28:18.141664  1561 net.cpp:381] lstm1_h_conted_15 <- cont_16_lstm1_cont_slice_15_split_0
I0930 10:28:18.141672  1561 net.cpp:339] lstm1_h_conted_15 -> h_conted_15
I0930 10:28:18.141681  1561 net.cpp:113] Setting up lstm1_h_conted_15
I0930 10:28:18.141690  1561 net.cpp:120] Top shape: 1 10 256 (2560)
I0930 10:28:18.141695  1561 layer_factory.hpp:74] Creating layer lstm1_transform_16
I0930 10:28:18.141706  1561 net.cpp:84] Creating Layer lstm1_transform_16
I0930 10:28:18.141712  1561 net.cpp:381] lstm1_transform_16 <- h_conted_15
I0930 10:28:18.141721  1561 net.cpp:339] lstm1_transform_16 -> W_hc_h_15
I0930 10:28:18.141729  1561 net.cpp:113] Setting up lstm1_transform_16
I0930 10:28:18.144917  1561 net.cpp:120] Top shape: 1 10 1024 (10240)
I0930 10:28:18.144927  1561 net.cpp:425] Sharing parameters 'W_hc' owned by layer 'lstm1_transform_1', param index 0
I0930 10:28:18.144932  1561 layer_factory.hpp:74] Creating layer lstm1_gate_input_16
I0930 10:28:18.144939  1561 net.cpp:84] Creating Layer lstm1_gate_input_16
I0930 10:28:18.144945  1561 net.cpp:381] lstm1_gate_input_16 <- W_hc_h_15
I0930 10:28:18.144951  1561 net.cpp:381] lstm1_gate_input_16 <- W_xc_x_16
I0930 10:28:18.144959  1561 net.cpp:339] lstm1_gate_input_16 -> gate_input_16
I0930 10:28:18.144968  1561 net.cpp:113] Setting up lstm1_gate_input_16
I0930 10:28:18.144974  1561 net.cpp:120] Top shape: 1 10 1024 (10240)
I0930 10:28:18.144979  1561 layer_factory.hpp:74] Creating layer lstm1_unit_16
I0930 10:28:18.144985  1561 net.cpp:84] Creating Layer lstm1_unit_16
I0930 10:28:18.144990  1561 net.cpp:381] lstm1_unit_16 <- c_15
I0930 10:28:18.144999  1561 net.cpp:381] lstm1_unit_16 <- gate_input_16
I0930 10:28:18.145007  1561 net.cpp:381] lstm1_unit_16 <- cont_16_lstm1_cont_slice_15_split_1
I0930 10:28:18.145015  1561 net.cpp:339] lstm1_unit_16 -> c_16
I0930 10:28:18.145023  1561 net.cpp:339] lstm1_unit_16 -> h_16
I0930 10:28:18.145032  1561 net.cpp:113] Setting up lstm1_unit_16
I0930 10:28:18.145040  1561 net.cpp:120] Top shape: 1 10 256 (2560)
I0930 10:28:18.145046  1561 net.cpp:120] Top shape: 1 10 256 (2560)
I0930 10:28:18.145051  1561 layer_factory.hpp:74] Creating layer lstm1_
I0930 10:28:18.145058  1561 net.cpp:84] Creating Layer lstm1_
I0930 10:28:18.145062  1561 net.cpp:381] lstm1_ <- c_16
I0930 10:28:18.145069  1561 net.cpp:339] lstm1_ -> c_T
I0930 10:28:18.145077  1561 net.cpp:113] Setting up lstm1_
I0930 10:28:18.145087  1561 net.cpp:120] Top shape: 1 10 256 (2560)
I0930 10:28:18.145092  1561 layer_factory.hpp:74] Creating layer lstm1_h_concat
I0930 10:28:18.145104  1561 net.cpp:84] Creating Layer lstm1_h_concat
I0930 10:28:18.145112  1561 net.cpp:381] lstm1_h_concat <- h_1_lstm1_unit_1_1_split_1
I0930 10:28:18.145118  1561 net.cpp:381] lstm1_h_concat <- h_2_lstm1_unit_2_1_split_1
I0930 10:28:18.145123  1561 net.cpp:381] lstm1_h_concat <- h_3_lstm1_unit_3_1_split_1
…
