…
I0930 13:47:55.658342 22542 net.cpp:42] Initializing net from parameters: 
name: "singleFrame_RGB"
state {
  phase: TRAIN
}
layer {
  name: "data"
  type: "ImageData"
  top: "data"
  top: "label"
  include {
    phase: TRAIN
  }
  transform_param {
    mirror: true
    crop_size: 227
    mean_value: 103.939
    mean_value: 116.779
    mean_value: 123.68
    flow: false
  }
  image_data_param {
    source: "/cs/vml2/xla193/cluster_video/output/UCF-101/list_frm-20with0ftlabel.txt"
    batch_size: 50
    shuffle: true
    new_height: 240
    new_width: 320
    root_folder: "frames/"
  }
}
layer {
  name: "conv1"
  type: "Convolution"
  bottom: "data"
  top: "conv1"
  param {
    lr_mult: 1
    decay_mult: 1
  }
  param {
    lr_mult: 2
    decay_mult: 0
  }
  convolution_param {
    num_output: 96
    kernel_size: 7
    stride: 2
    weight_filler {
      type: "gaussian"
      std: 0.01
    }
    bias_filler {
      type: "constant"
      value: 0.1
    }
  }
}
layer {
  name: "relu1"
  type: "ReLU"
  bottom: "conv1"
  top: "conv1"
}
layer {
  name: "pool1"
  type: "Pooling"
  bottom: "conv1"
  top: "pool1"
  pooling_param {
    pool: MAX
    kernel_size: 3
    stride: 2
  }
}
layer {
  name: "norm1"
  type: "LRN"
  bottom: "pool1"
  top: "norm1"
  lrn_param {
    local_size: 5
    alpha: 0.0001
    beta: 0.75
  }
}
layer {
  name: "conv2"
  type: "Convolution"
  bottom: "norm1"
  top: "conv2"
  param {
    lr_mult: 1
    decay_mult: 1
  }
  param {
    lr_mult: 2
    decay_mult: 0
  }
  convolution_param {
    num_output: 384
    kernel_size: 5
    group: 2
    stride: 2
    weight_filler {
      type: "gaussian"
      std: 0.01
    }
    bias_filler {
      type: "constant"
      value: 0.1
    }
  }
}
layer {
  name: "relu2"
  type: "ReLU"
  bottom: "conv2"
  top: "conv2"
}
layer {
  name: "pool2"
  type: "Pooling"
  bottom: "conv2"
  top: "pool2"
  pooling_param {
    pool: MAX
    kernel_size: 3
    stride: 2
  }
}
layer {
  name: "norm2"
  type: "LRN"
  bottom: "pool2"
  top: "norm2"
  lrn_param {
    local_size: 5
    alpha: 0.0001
    beta: 0.75
  }
}
layer {
  name: "conv3"
  type: "Convolution"
  bottom: "norm2"
  top: "conv3"
  param {
    lr_mult: 1
    decay_mult: 1
  }
  param {
    lr_mult: 2
    decay_mult: 0
  }
  convolution_param {
    num_output: 512
    pad: 1
    kernel_size: 3
    weight_filler {
      type: "gaussian"
      std: 0.01
    }
    bias_filler {
      type: "constant"
      value: 0.1
    }
  }
}
layer {
  name: "relu3"
  type: "ReLU"
  bottom: "conv3"
  top: "conv3"
}
layer {
  name: "conv4"
  type: "Convolution"
  bottom: "conv3"
  top: "conv4"
  param {
    lr_mult: 1
    decay_mult: 1
  }
  param {
    lr_mult: 2
    decay_mult: 0
  }
  convolution_param {
    num_output: 512
    pad: 1
    kernel_size: 3
    group: 2
    weight_filler {
      type: "gaussian"
      std: 0.01
    }
    bias_filler {
      type: "constant"
      value: 0.1
    }
  }
}
layer {
  name: "relu4"
  type: "ReLU"
  bottom: "conv4"
  top: "conv4"
}
layer {
  name: "conv5"
  type: "Convolution"
  bottom: "conv4"
  top: "conv5"
  param {
    lr_mult: 1
    decay_mult: 1
  }
  param {
    lr_mult: 2
    decay_mult: 0
  }
  convolution_param {
    num_output: 384
    pad: 1
    kernel_size: 3
    group: 2
    weight_filler {
      type: "gaussian"
      std: 0.01
    }
    bias_filler {
      type: "constant"
      value: 0.1
    }
  }
}
layer {
  name: "relu5"
  type: "ReLU"
  bottom: "conv5"
  top: "conv5"
}
layer {
  name: "pool5"
  type: "Pooling"
  bottom: "conv5"
  top: "pool5"
  pooling_param {
    pool: MAX
    kernel_size: 3
    stride: 2
  }
}
layer {
  name: "fc6"
  type: "InnerProduct"
  bottom: "pool5"
  top: "fc6"
  param {
    lr_mult: 1
    decay_mult: 1
  }
  param {
    lr_mult: 2
    decay_mult: 0
  }
  inner_product_param {
    num_output: 4096
    weight_filler {
      type: "gaussian"
      std: 0.01
    }
    bias_filler {
      type: "constant"
      value: 0.1
    }
  }
}
layer {
  name: "relu6"
  type: "ReLU"
  bottom: "fc6"
  top: "fc6"
}
layer {
  name: "drop6"
  type: "Dropout"
  bottom: "fc6"
  top: "fc6"
  dropout_param {
    dropout_ratio: 0.5
  }
}
layer {
  name: "fc7"
  type: "InnerProduct"
  bottom: "fc6"
  top: "fc7"
  param {
    lr_mult: 1
    decay_mult: 1
  }
  param {
    lr_mult: 2
    decay_mult: 0
  }
  inner_product_param {
    num_output: 4096
    weight_filler {
      type: "gaussian"
      std: 0.01
    }
    bias_filler {
      type: "constant"
      value: 0.1
    }
  }
}
layer {
  name: "relu7"
  type: "ReLU"
  bottom: "fc7"
  top: "fc7"
}
layer {
  name: "drop7"
  type: "Dropout"
  bottom: "fc7"
  top: "fc7"
  dropout_param {
    dropout_ratio: 0.5
  }
}
layer {
  name: "triplets"
  type: "Python"
  bottom: "fc7"
  bottom: "label"
  top: "anchor"
  top: "positive"
  top: "negative"
  python_param {
    module: "mylayers"
    layer: "TripletLayer"
  }
}
layer {
  name: "loss"
  type: "Python"
  bottom: "anchor"
  bottom: "positive"
  bottom: "negative"
  top: "loss"
  loss_weight: 1
  python_param {
    module: "mylayers"
    layer: "TripletLossLayer"
  }
}
I0930 13:47:55.658555 22542 layer_factory.hpp:74] Creating layer data
I0930 13:47:55.658584 22542 net.cpp:84] Creating Layer data
I0930 13:47:55.658598 22542 net.cpp:339] data -> data
I0930 13:47:55.658640 22542 net.cpp:339] data -> label
I0930 13:47:55.658658 22542 net.cpp:113] Setting up data
I0930 13:47:55.658670 22542 image_data_layer.cpp:41] Opening file /cs/vml2/xla193/cluster_video/output/UCF-101/list_frm-20with0ftlabel.txt
I0930 13:47:56.125005 22542 image_data_layer.cpp:52] Shuffling data
I0930 13:47:56.241312 22542 image_data_layer.cpp:57] A total of 461393 images.
I0930 13:47:56.245179 22542 image_data_layer.cpp:87] output data size: 50,3,227,227
I0930 13:47:56.260448 22542 net.cpp:120] Top shape: 50 3 227 227 (7729350)
I0930 13:47:56.260463 22542 net.cpp:120] Top shape: 50 (50)
I0930 13:47:56.260478 22542 layer_factory.hpp:74] Creating layer conv1
I0930 13:47:56.260507 22542 net.cpp:84] Creating Layer conv1
I0930 13:47:56.260519 22542 net.cpp:381] conv1 <- data
I0930 13:47:56.260540 22542 net.cpp:339] conv1 -> conv1
I0930 13:47:56.260562 22542 net.cpp:113] Setting up conv1
I0930 13:47:56.260977 22542 net.cpp:120] Top shape: 50 96 111 111 (59140800)
I0930 13:47:56.261003 22542 layer_factory.hpp:74] Creating layer relu1
I0930 13:47:56.261020 22542 net.cpp:84] Creating Layer relu1
I0930 13:47:56.261029 22542 net.cpp:381] relu1 <- conv1
I0930 13:47:56.261035 22542 net.cpp:328] relu1 -> conv1 (in-place)
I0930 13:47:56.261044 22542 net.cpp:113] Setting up relu1
I0930 13:47:56.261054 22542 net.cpp:120] Top shape: 50 96 111 111 (59140800)
I0930 13:47:56.261061 22542 layer_factory.hpp:74] Creating layer pool1
I0930 13:47:56.261070 22542 net.cpp:84] Creating Layer pool1
I0930 13:47:56.261077 22542 net.cpp:381] pool1 <- conv1
I0930 13:47:56.261086 22542 net.cpp:339] pool1 -> pool1
I0930 13:47:56.261103 22542 net.cpp:113] Setting up pool1
I0930 13:47:56.261131 22542 net.cpp:120] Top shape: 50 96 55 55 (14520000)
I0930 13:47:56.261137 22542 layer_factory.hpp:74] Creating layer norm1
I0930 13:47:56.261148 22542 net.cpp:84] Creating Layer norm1
I0930 13:47:56.261157 22542 net.cpp:381] norm1 <- pool1
I0930 13:47:56.261164 22542 net.cpp:339] norm1 -> norm1
I0930 13:47:56.261175 22542 net.cpp:113] Setting up norm1
I0930 13:47:56.261188 22542 net.cpp:120] Top shape: 50 96 55 55 (14520000)
I0930 13:47:56.261191 22542 layer_factory.hpp:74] Creating layer conv2
I0930 13:47:56.261204 22542 net.cpp:84] Creating Layer conv2
I0930 13:47:56.261209 22542 net.cpp:381] conv2 <- norm1
I0930 13:47:56.261215 22542 net.cpp:339] conv2 -> conv2
I0930 13:47:56.261224 22542 net.cpp:113] Setting up conv2
I0930 13:47:56.271673 22542 net.cpp:120] Top shape: 50 384 26 26 (12979200)
I0930 13:47:56.271693 22542 layer_factory.hpp:74] Creating layer relu2
I0930 13:47:56.271706 22542 net.cpp:84] Creating Layer relu2
I0930 13:47:56.271714 22542 net.cpp:381] relu2 <- conv2
I0930 13:47:56.271725 22542 net.cpp:328] relu2 -> conv2 (in-place)
I0930 13:47:56.271734 22542 net.cpp:113] Setting up relu2
I0930 13:47:56.271742 22542 net.cpp:120] Top shape: 50 384 26 26 (12979200)
I0930 13:47:56.271749 22542 layer_factory.hpp:74] Creating layer pool2
I0930 13:47:56.271756 22542 net.cpp:84] Creating Layer pool2
I0930 13:47:56.271764 22542 net.cpp:381] pool2 <- conv2
I0930 13:47:56.271771 22542 net.cpp:339] pool2 -> pool2
I0930 13:47:56.271778 22542 net.cpp:113] Setting up pool2
I0930 13:47:56.271790 22542 net.cpp:120] Top shape: 50 384 13 13 (3244800)
I0930 13:47:56.271796 22542 layer_factory.hpp:74] Creating layer norm2
I0930 13:47:56.271808 22542 net.cpp:84] Creating Layer norm2
I0930 13:47:56.271816 22542 net.cpp:381] norm2 <- pool2
I0930 13:47:56.271821 22542 net.cpp:339] norm2 -> norm2
I0930 13:47:56.271833 22542 net.cpp:113] Setting up norm2
I0930 13:47:56.271842 22542 net.cpp:120] Top shape: 50 384 13 13 (3244800)
I0930 13:47:56.271847 22542 layer_factory.hpp:74] Creating layer conv3
I0930 13:47:56.271857 22542 net.cpp:84] Creating Layer conv3
I0930 13:47:56.271863 22542 net.cpp:381] conv3 <- norm2
I0930 13:47:56.271873 22542 net.cpp:339] conv3 -> conv3
I0930 13:47:56.271883 22542 net.cpp:113] Setting up conv3
I0930 13:47:56.309022 22542 net.cpp:120] Top shape: 50 512 13 13 (4326400)
I0930 13:47:56.309043 22542 layer_factory.hpp:74] Creating layer relu3
I0930 13:47:56.309056 22542 net.cpp:84] Creating Layer relu3
I0930 13:47:56.309061 22542 net.cpp:381] relu3 <- conv3
I0930 13:47:56.309067 22542 net.cpp:328] relu3 -> conv3 (in-place)
I0930 13:47:56.309074 22542 net.cpp:113] Setting up relu3
I0930 13:47:56.309082 22542 net.cpp:120] Top shape: 50 512 13 13 (4326400)
I0930 13:47:56.309085 22542 layer_factory.hpp:74] Creating layer conv4
I0930 13:47:56.309113 22542 net.cpp:84] Creating Layer conv4
I0930 13:47:56.309119 22542 net.cpp:381] conv4 <- conv3
I0930 13:47:56.309128 22542 net.cpp:339] conv4 -> conv4
I0930 13:47:56.309135 22542 net.cpp:113] Setting up conv4
I0930 13:47:56.333487 22542 net.cpp:120] Top shape: 50 512 13 13 (4326400)
I0930 13:47:56.333503 22542 layer_factory.hpp:74] Creating layer relu4
I0930 13:47:56.333511 22542 net.cpp:84] Creating Layer relu4
I0930 13:47:56.333516 22542 net.cpp:381] relu4 <- conv4
I0930 13:47:56.333525 22542 net.cpp:328] relu4 -> conv4 (in-place)
I0930 13:47:56.333534 22542 net.cpp:113] Setting up relu4
I0930 13:47:56.333539 22542 net.cpp:120] Top shape: 50 512 13 13 (4326400)
I0930 13:47:56.333544 22542 layer_factory.hpp:74] Creating layer conv5
I0930 13:47:56.333554 22542 net.cpp:84] Creating Layer conv5
I0930 13:47:56.333559 22542 net.cpp:381] conv5 <- conv4
I0930 13:47:56.333569 22542 net.cpp:339] conv5 -> conv5
I0930 13:47:56.333578 22542 net.cpp:113] Setting up conv5
I0930 13:47:56.352674 22542 net.cpp:120] Top shape: 50 384 13 13 (3244800)
I0930 13:47:56.352697 22542 layer_factory.hpp:74] Creating layer relu5
I0930 13:47:56.352705 22542 net.cpp:84] Creating Layer relu5
I0930 13:47:56.352710 22542 net.cpp:381] relu5 <- conv5
I0930 13:47:56.352717 22542 net.cpp:328] relu5 -> conv5 (in-place)
I0930 13:47:56.352725 22542 net.cpp:113] Setting up relu5
I0930 13:47:56.352732 22542 net.cpp:120] Top shape: 50 384 13 13 (3244800)
I0930 13:47:56.352736 22542 layer_factory.hpp:74] Creating layer pool5
I0930 13:47:56.352746 22542 net.cpp:84] Creating Layer pool5
I0930 13:47:56.352752 22542 net.cpp:381] pool5 <- conv5
I0930 13:47:56.352762 22542 net.cpp:339] pool5 -> pool5
I0930 13:47:56.352771 22542 net.cpp:113] Setting up pool5
I0930 13:47:56.352782 22542 net.cpp:120] Top shape: 50 384 6 6 (691200)
I0930 13:47:56.352788 22542 layer_factory.hpp:74] Creating layer fc6
I0930 13:47:56.352805 22542 net.cpp:84] Creating Layer fc6
I0930 13:47:56.352813 22542 net.cpp:381] fc6 <- pool5
I0930 13:47:56.352819 22542 net.cpp:339] fc6 -> fc6
I0930 13:47:56.352834 22542 net.cpp:113] Setting up fc6
I0930 13:47:57.511610 22542 net.cpp:120] Top shape: 50 4096 (204800)
I0930 13:47:57.511651 22542 layer_factory.hpp:74] Creating layer relu6
I0930 13:47:57.511670 22542 net.cpp:84] Creating Layer relu6
I0930 13:47:57.511677 22542 net.cpp:381] relu6 <- fc6
I0930 13:47:57.511687 22542 net.cpp:328] relu6 -> fc6 (in-place)
I0930 13:47:57.511698 22542 net.cpp:113] Setting up relu6
I0930 13:47:57.511704 22542 net.cpp:120] Top shape: 50 4096 (204800)
I0930 13:47:57.511709 22542 layer_factory.hpp:74] Creating layer drop6
I0930 13:47:57.511744 22542 net.cpp:84] Creating Layer drop6
I0930 13:47:57.511749 22542 net.cpp:381] drop6 <- fc6
I0930 13:47:57.511756 22542 net.cpp:328] drop6 -> fc6 (in-place)
I0930 13:47:57.511773 22542 net.cpp:113] Setting up drop6
I0930 13:47:57.511790 22542 net.cpp:120] Top shape: 50 4096 (204800)
I0930 13:47:57.511797 22542 layer_factory.hpp:74] Creating layer fc7
I0930 13:47:57.511809 22542 net.cpp:84] Creating Layer fc7
I0930 13:47:57.511816 22542 net.cpp:381] fc7 <- fc6
I0930 13:47:57.511826 22542 net.cpp:339] fc7 -> fc7
I0930 13:47:57.511838 22542 net.cpp:113] Setting up fc7
I0930 13:47:57.871307 22542 net.cpp:120] Top shape: 50 4096 (204800)
I0930 13:47:57.871345 22542 layer_factory.hpp:74] Creating layer relu7
I0930 13:47:57.871362 22542 net.cpp:84] Creating Layer relu7
I0930 13:47:57.871368 22542 net.cpp:381] relu7 <- fc7
I0930 13:47:57.871378 22542 net.cpp:328] relu7 -> fc7 (in-place)
I0930 13:47:57.871387 22542 net.cpp:113] Setting up relu7
I0930 13:47:57.871394 22542 net.cpp:120] Top shape: 50 4096 (204800)
I0930 13:47:57.871399 22542 layer_factory.hpp:74] Creating layer drop7
I0930 13:47:57.871408 22542 net.cpp:84] Creating Layer drop7
I0930 13:47:57.871413 22542 net.cpp:381] drop7 <- fc7
I0930 13:47:57.871419 22542 net.cpp:328] drop7 -> fc7 (in-place)
I0930 13:47:57.871425 22542 net.cpp:113] Setting up drop7
I0930 13:47:57.871434 22542 net.cpp:120] Top shape: 50 4096 (204800)
I0930 13:47:57.871438 22542 layer_factory.hpp:74] Creating layer triplets
I0930 13:48:00.442556 22542 net.cpp:84] Creating Layer triplets
I0930 13:48:00.442596 22542 net.cpp:381] triplets <- fc7
I0930 13:48:00.442612 22542 net.cpp:381] triplets <- label
I0930 13:48:00.442629 22542 net.cpp:339] triplets -> anchor
I0930 13:48:00.442647 22542 net.cpp:339] triplets -> positive
I0930 13:48:00.442662 22542 net.cpp:339] triplets -> negative
I0930 13:48:00.442682 22542 net.cpp:113] Setting up triplets
I0930 13:48:00.443351 22542 net.cpp:120] Top shape: (0)
I0930 13:48:00.443370 22542 net.cpp:120] Top shape: (0)
I0930 13:48:00.443379 22542 net.cpp:120] Top shape: (0)
I0930 13:48:00.443389 22542 layer_factory.hpp:74] Creating layer loss
I0930 13:48:00.443451 22542 net.cpp:84] Creating Layer loss
I0930 13:48:00.443465 22542 net.cpp:381] loss <- anchor
I0930 13:48:00.443476 22542 net.cpp:381] loss <- positive
I0930 13:48:00.443487 22542 net.cpp:381] loss <- negative
I0930 13:48:00.443501 22542 net.cpp:339] loss -> loss
I0930 13:48:00.443516 22542 net.cpp:113] Setting up loss
I0930 13:48:00.443562 22542 net.cpp:120] Top shape: 1 (1)
I0930 13:48:00.443572 22542 net.cpp:122]     with loss weight 1
I0930 13:48:00.443619 22542 net.cpp:167] loss needs backward computation.
I0930 13:48:00.443629 22542 net.cpp:167] triplets needs backward computation.
I0930 13:48:00.443639 22542 net.cpp:167] drop7 needs backward computation.
I0930 13:48:00.443645 22542 net.cpp:167] relu7 needs backward computation.
I0930 13:48:00.443652 22542 net.cpp:167] fc7 needs backward computation.
…
