…
I1003 21:17:28.009841  1390 net.cpp:42] Initializing net from parameters: 
name: "singleFrame_RGB"
state {
  phase: TRAIN
}
layer {
  name: "data"
  type: "ImageData"
  top: "data"
  top: "label"
  include {
    phase: TRAIN
  }
  transform_param {
    mirror: true
    crop_size: 227
    mean_value: 103.939
    mean_value: 116.779
    mean_value: 123.68
    flow: false
  }
  image_data_param {
    source: "/cs/vml2/xla193/cluster_video/output/UCF-101/list_frm-20with0ftlabel.txt"
    batch_size: 50
    shuffle: true
    new_height: 240
    new_width: 320
    root_folder: "frames/"
  }
}
layer {
  name: "conv1"
  type: "Convolution"
  bottom: "data"
  top: "conv1"
  param {
    lr_mult: 1
    decay_mult: 1
  }
  param {
    lr_mult: 2
    decay_mult: 0
  }
  convolution_param {
    num_output: 96
    kernel_size: 7
    stride: 2
    weight_filler {
      type: "gaussian"
      std: 0.01
    }
    bias_filler {
      type: "constant"
      value: 0.1
    }
  }
}
layer {
  name: "relu1"
  type: "ReLU"
  bottom: "conv1"
  top: "conv1"
}
layer {
  name: "pool1"
  type: "Pooling"
  bottom: "conv1"
  top: "pool1"
  pooling_param {
    pool: MAX
    kernel_size: 3
    stride: 2
  }
}
layer {
  name: "norm1"
  type: "LRN"
  bottom: "pool1"
  top: "norm1"
  lrn_param {
    local_size: 5
    alpha: 0.0001
    beta: 0.75
  }
}
layer {
  name: "conv2"
  type: "Convolution"
  bottom: "norm1"
  top: "conv2"
  param {
    lr_mult: 1
    decay_mult: 1
  }
  param {
    lr_mult: 2
    decay_mult: 0
  }
  convolution_param {
    num_output: 384
    kernel_size: 5
    group: 2
    stride: 2
    weight_filler {
      type: "gaussian"
      std: 0.01
    }
    bias_filler {
      type: "constant"
      value: 0.1
    }
  }
}
layer {
  name: "relu2"
  type: "ReLU"
  bottom: "conv2"
  top: "conv2"
}
layer {
  name: "pool2"
  type: "Pooling"
  bottom: "conv2"
  top: "pool2"
  pooling_param {
    pool: MAX
    kernel_size: 3
    stride: 2
  }
}
layer {
  name: "norm2"
  type: "LRN"
  bottom: "pool2"
  top: "norm2"
  lrn_param {
    local_size: 5
    alpha: 0.0001
    beta: 0.75
  }
}
layer {
  name: "conv3"
  type: "Convolution"
  bottom: "norm2"
  top: "conv3"
  param {
    lr_mult: 1
    decay_mult: 1
  }
  param {
    lr_mult: 2
    decay_mult: 0
  }
  convolution_param {
    num_output: 512
    pad: 1
    kernel_size: 3
    weight_filler {
      type: "gaussian"
      std: 0.01
    }
    bias_filler {
      type: "constant"
      value: 0.1
    }
  }
}
layer {
  name: "relu3"
  type: "ReLU"
  bottom: "conv3"
  top: "conv3"
}
layer {
  name: "conv4"
  type: "Convolution"
  bottom: "conv3"
  top: "conv4"
  param {
    lr_mult: 1
    decay_mult: 1
  }
  param {
    lr_mult: 2
    decay_mult: 0
  }
  convolution_param {
    num_output: 512
    pad: 1
    kernel_size: 3
    group: 2
    weight_filler {
      type: "gaussian"
      std: 0.01
    }
    bias_filler {
      type: "constant"
      value: 0.1
    }
  }
}
layer {
  name: "relu4"
  type: "ReLU"
  bottom: "conv4"
  top: "conv4"
}
layer {
  name: "conv5"
  type: "Convolution"
  bottom: "conv4"
  top: "conv5"
  param {
    lr_mult: 1
    decay_mult: 1
  }
  param {
    lr_mult: 2
    decay_mult: 0
  }
  convolution_param {
    num_output: 384
    pad: 1
    kernel_size: 3
    group: 2
    weight_filler {
      type: "gaussian"
      std: 0.01
    }
    bias_filler {
      type: "constant"
      value: 0.1
    }
  }
}
layer {
  name: "relu5"
  type: "ReLU"
  bottom: "conv5"
  top: "conv5"
}
layer {
  name: "pool5"
  type: "Pooling"
  bottom: "conv5"
  top: "pool5"
  pooling_param {
    pool: MAX
    kernel_size: 3
    stride: 2
  }
}
layer {
  name: "fc6"
  type: "InnerProduct"
  bottom: "pool5"
  top: "fc6"
  param {
    lr_mult: 1
    decay_mult: 1
  }
  param {
    lr_mult: 2
    decay_mult: 0
  }
  inner_product_param {
    num_output: 4096
    weight_filler {
      type: "gaussian"
      std: 0.01
    }
    bias_filler {
      type: "constant"
      value: 0.1
    }
  }
}
layer {
  name: "relu6"
  type: "ReLU"
  bottom: "fc6"
  top: "fc6"
}
layer {
  name: "drop6"
  type: "Dropout"
  bottom: "fc6"
  top: "fc6"
  dropout_param {
    dropout_ratio: 0.5
  }
}
layer {
  name: "fc7"
  type: "InnerProduct"
  bottom: "fc6"
  top: "fc7"
  param {
    lr_mult: 1
    decay_mult: 1
  }
  param {
    lr_mult: 2
    decay_mult: 0
  }
  inner_product_param {
    num_output: 4096
    weight_filler {
      type: "gaussian"
      std: 0.01
    }
    bias_filler {
      type: "constant"
      value: 0.1
    }
  }
}
layer {
  name: "relu7"
  type: "ReLU"
  bottom: "fc7"
  top: "fc7"
}
layer {
  name: "drop7"
  type: "Dropout"
  bottom: "fc7"
  top: "fc7"
  dropout_param {
    dropout_ratio: 0.5
  }
}
layer {
  name: "loss"
  type: "Python"
  bottom: "fc7"
  bottom: "label"
  top: "loss"
  loss_weight: 1
  python_param {
    module: "mylayers"
    layer: "TripletLossLayer"
  }
}
I1003 21:17:28.010107  1390 layer_factory.hpp:74] Creating layer data
I1003 21:17:28.010140  1390 net.cpp:84] Creating Layer data
I1003 21:17:28.010157  1390 net.cpp:339] data -> data
I1003 21:17:28.010207  1390 net.cpp:339] data -> label
I1003 21:17:28.010229  1390 net.cpp:113] Setting up data
I1003 21:17:28.010246  1390 image_data_layer.cpp:41] Opening file /cs/vml2/xla193/cluster_video/output/UCF-101/list_frm-20with0ftlabel.txt
I1003 21:17:28.388218  1390 image_data_layer.cpp:52] Shuffling data
I1003 21:17:28.506281  1390 image_data_layer.cpp:57] A total of 461393 images.
I1003 21:17:28.509562  1390 image_data_layer.cpp:87] output data size: 50,3,227,227
I1003 21:17:28.523856  1390 net.cpp:120] Top shape: 50 3 227 227 (7729350)
I1003 21:17:28.523872  1390 net.cpp:120] Top shape: 50 (50)
I1003 21:17:28.523886  1390 layer_factory.hpp:74] Creating layer conv1
I1003 21:17:28.523916  1390 net.cpp:84] Creating Layer conv1
I1003 21:17:28.523926  1390 net.cpp:381] conv1 <- data
I1003 21:17:28.523946  1390 net.cpp:339] conv1 -> conv1
I1003 21:17:28.523967  1390 net.cpp:113] Setting up conv1
I1003 21:17:28.524379  1390 net.cpp:120] Top shape: 50 96 111 111 (59140800)
I1003 21:17:28.524404  1390 layer_factory.hpp:74] Creating layer relu1
I1003 21:17:28.524413  1390 net.cpp:84] Creating Layer relu1
I1003 21:17:28.524418  1390 net.cpp:381] relu1 <- conv1
I1003 21:17:28.524425  1390 net.cpp:328] relu1 -> conv1 (in-place)
I1003 21:17:28.524431  1390 net.cpp:113] Setting up relu1
I1003 21:17:28.524441  1390 net.cpp:120] Top shape: 50 96 111 111 (59140800)
I1003 21:17:28.524444  1390 layer_factory.hpp:74] Creating layer pool1
I1003 21:17:28.524453  1390 net.cpp:84] Creating Layer pool1
I1003 21:17:28.524461  1390 net.cpp:381] pool1 <- conv1
I1003 21:17:28.524466  1390 net.cpp:339] pool1 -> pool1
I1003 21:17:28.524477  1390 net.cpp:113] Setting up pool1
I1003 21:17:28.524503  1390 net.cpp:120] Top shape: 50 96 55 55 (14520000)
I1003 21:17:28.524510  1390 layer_factory.hpp:74] Creating layer norm1
I1003 21:17:28.524523  1390 net.cpp:84] Creating Layer norm1
I1003 21:17:28.524528  1390 net.cpp:381] norm1 <- pool1
I1003 21:17:28.524533  1390 net.cpp:339] norm1 -> norm1
I1003 21:17:28.524545  1390 net.cpp:113] Setting up norm1
I1003 21:17:28.524559  1390 net.cpp:120] Top shape: 50 96 55 55 (14520000)
I1003 21:17:28.524564  1390 layer_factory.hpp:74] Creating layer conv2
I1003 21:17:28.524572  1390 net.cpp:84] Creating Layer conv2
I1003 21:17:28.524576  1390 net.cpp:381] conv2 <- norm1
I1003 21:17:28.524582  1390 net.cpp:339] conv2 -> conv2
I1003 21:17:28.524590  1390 net.cpp:113] Setting up conv2
I1003 21:17:28.534729  1390 net.cpp:120] Top shape: 50 384 26 26 (12979200)
I1003 21:17:28.534747  1390 layer_factory.hpp:74] Creating layer relu2
I1003 21:17:28.534755  1390 net.cpp:84] Creating Layer relu2
I1003 21:17:28.534759  1390 net.cpp:381] relu2 <- conv2
I1003 21:17:28.534765  1390 net.cpp:328] relu2 -> conv2 (in-place)
I1003 21:17:28.534773  1390 net.cpp:113] Setting up relu2
I1003 21:17:28.534780  1390 net.cpp:120] Top shape: 50 384 26 26 (12979200)
I1003 21:17:28.534785  1390 layer_factory.hpp:74] Creating layer pool2
I1003 21:17:28.534792  1390 net.cpp:84] Creating Layer pool2
I1003 21:17:28.534796  1390 net.cpp:381] pool2 <- conv2
I1003 21:17:28.534806  1390 net.cpp:339] pool2 -> pool2
I1003 21:17:28.534816  1390 net.cpp:113] Setting up pool2
I1003 21:17:28.534826  1390 net.cpp:120] Top shape: 50 384 13 13 (3244800)
I1003 21:17:28.534832  1390 layer_factory.hpp:74] Creating layer norm2
I1003 21:17:28.534852  1390 net.cpp:84] Creating Layer norm2
I1003 21:17:28.534859  1390 net.cpp:381] norm2 <- pool2
I1003 21:17:28.534867  1390 net.cpp:339] norm2 -> norm2
I1003 21:17:28.534873  1390 net.cpp:113] Setting up norm2
I1003 21:17:28.534885  1390 net.cpp:120] Top shape: 50 384 13 13 (3244800)
I1003 21:17:28.534889  1390 layer_factory.hpp:74] Creating layer conv3
I1003 21:17:28.534906  1390 net.cpp:84] Creating Layer conv3
I1003 21:17:28.534914  1390 net.cpp:381] conv3 <- norm2
I1003 21:17:28.534921  1390 net.cpp:339] conv3 -> conv3
I1003 21:17:28.534935  1390 net.cpp:113] Setting up conv3
I1003 21:17:28.573583  1390 net.cpp:120] Top shape: 50 512 13 13 (4326400)
I1003 21:17:28.573603  1390 layer_factory.hpp:74] Creating layer relu3
I1003 21:17:28.573618  1390 net.cpp:84] Creating Layer relu3
I1003 21:17:28.573622  1390 net.cpp:381] relu3 <- conv3
I1003 21:17:28.573628  1390 net.cpp:328] relu3 -> conv3 (in-place)
I1003 21:17:28.573635  1390 net.cpp:113] Setting up relu3
I1003 21:17:28.573642  1390 net.cpp:120] Top shape: 50 512 13 13 (4326400)
I1003 21:17:28.573647  1390 layer_factory.hpp:74] Creating layer conv4
I1003 21:17:28.573655  1390 net.cpp:84] Creating Layer conv4
I1003 21:17:28.573660  1390 net.cpp:381] conv4 <- conv3
I1003 21:17:28.573669  1390 net.cpp:339] conv4 -> conv4
I1003 21:17:28.573678  1390 net.cpp:113] Setting up conv4
I1003 21:17:28.599256  1390 net.cpp:120] Top shape: 50 512 13 13 (4326400)
I1003 21:17:28.599273  1390 layer_factory.hpp:74] Creating layer relu4
I1003 21:17:28.599282  1390 net.cpp:84] Creating Layer relu4
I1003 21:17:28.599285  1390 net.cpp:381] relu4 <- conv4
I1003 21:17:28.599292  1390 net.cpp:328] relu4 -> conv4 (in-place)
I1003 21:17:28.599301  1390 net.cpp:113] Setting up relu4
I1003 21:17:28.599308  1390 net.cpp:120] Top shape: 50 512 13 13 (4326400)
I1003 21:17:28.599311  1390 layer_factory.hpp:74] Creating layer conv5
I1003 21:17:28.599320  1390 net.cpp:84] Creating Layer conv5
I1003 21:17:28.599324  1390 net.cpp:381] conv5 <- conv4
I1003 21:17:28.599330  1390 net.cpp:339] conv5 -> conv5
I1003 21:17:28.599337  1390 net.cpp:113] Setting up conv5
I1003 21:17:28.618247  1390 net.cpp:120] Top shape: 50 384 13 13 (3244800)
I1003 21:17:28.618265  1390 layer_factory.hpp:74] Creating layer relu5
I1003 21:17:28.618273  1390 net.cpp:84] Creating Layer relu5
I1003 21:17:28.618276  1390 net.cpp:381] relu5 <- conv5
I1003 21:17:28.618286  1390 net.cpp:328] relu5 -> conv5 (in-place)
I1003 21:17:28.618293  1390 net.cpp:113] Setting up relu5
I1003 21:17:28.618299  1390 net.cpp:120] Top shape: 50 384 13 13 (3244800)
I1003 21:17:28.618304  1390 layer_factory.hpp:74] Creating layer pool5
I1003 21:17:28.618310  1390 net.cpp:84] Creating Layer pool5
I1003 21:17:28.618314  1390 net.cpp:381] pool5 <- conv5
I1003 21:17:28.618324  1390 net.cpp:339] pool5 -> pool5
I1003 21:17:28.618333  1390 net.cpp:113] Setting up pool5
I1003 21:17:28.618343  1390 net.cpp:120] Top shape: 50 384 6 6 (691200)
I1003 21:17:28.618350  1390 layer_factory.hpp:74] Creating layer fc6
I1003 21:17:28.618362  1390 net.cpp:84] Creating Layer fc6
I1003 21:17:28.618366  1390 net.cpp:381] fc6 <- pool5
I1003 21:17:28.618379  1390 net.cpp:339] fc6 -> fc6
I1003 21:17:28.618393  1390 net.cpp:113] Setting up fc6
I1003 21:17:29.755614  1390 net.cpp:120] Top shape: 50 4096 (204800)
I1003 21:17:29.755647  1390 layer_factory.hpp:74] Creating layer relu6
I1003 21:17:29.755664  1390 net.cpp:84] Creating Layer relu6
I1003 21:17:29.755671  1390 net.cpp:381] relu6 <- fc6
I1003 21:17:29.755679  1390 net.cpp:328] relu6 -> fc6 (in-place)
I1003 21:17:29.755689  1390 net.cpp:113] Setting up relu6
I1003 21:17:29.755697  1390 net.cpp:120] Top shape: 50 4096 (204800)
I1003 21:17:29.755702  1390 layer_factory.hpp:74] Creating layer drop6
I1003 21:17:29.755717  1390 net.cpp:84] Creating Layer drop6
I1003 21:17:29.755722  1390 net.cpp:381] drop6 <- fc6
I1003 21:17:29.755726  1390 net.cpp:328] drop6 -> fc6 (in-place)
I1003 21:17:29.755738  1390 net.cpp:113] Setting up drop6
I1003 21:17:29.755755  1390 net.cpp:120] Top shape: 50 4096 (204800)
I1003 21:17:29.755761  1390 layer_factory.hpp:74] Creating layer fc7
I1003 21:17:29.755774  1390 net.cpp:84] Creating Layer fc7
I1003 21:17:29.755779  1390 net.cpp:381] fc7 <- fc6
I1003 21:17:29.755786  1390 net.cpp:339] fc7 -> fc7
I1003 21:17:29.755795  1390 net.cpp:113] Setting up fc7
I1003 21:17:30.093772  1390 net.cpp:120] Top shape: 50 4096 (204800)
I1003 21:17:30.093804  1390 layer_factory.hpp:74] Creating layer relu7
I1003 21:17:30.093817  1390 net.cpp:84] Creating Layer relu7
I1003 21:17:30.093825  1390 net.cpp:381] relu7 <- fc7
I1003 21:17:30.093833  1390 net.cpp:328] relu7 -> fc7 (in-place)
I1003 21:17:30.093844  1390 net.cpp:113] Setting up relu7
I1003 21:17:30.093852  1390 net.cpp:120] Top shape: 50 4096 (204800)
I1003 21:17:30.093855  1390 layer_factory.hpp:74] Creating layer drop7
I1003 21:17:30.093868  1390 net.cpp:84] Creating Layer drop7
I1003 21:17:30.093871  1390 net.cpp:381] drop7 <- fc7
I1003 21:17:30.093878  1390 net.cpp:328] drop7 -> fc7 (in-place)
I1003 21:17:30.093883  1390 net.cpp:113] Setting up drop7
I1003 21:17:30.093891  1390 net.cpp:120] Top shape: 50 4096 (204800)
I1003 21:17:30.093895  1390 layer_factory.hpp:74] Creating layer loss
I1003 21:17:33.811158  1390 net.cpp:84] Creating Layer loss
I1003 21:17:33.811194  1390 net.cpp:381] loss <- fc7
I1003 21:17:33.811208  1390 net.cpp:381] loss <- label
I1003 21:17:33.811224  1390 net.cpp:339] loss -> loss
I1003 21:17:33.811240  1390 net.cpp:113] Setting up loss
I1003 21:17:33.811322  1390 net.cpp:120] Top shape: 1 (1)
I1003 21:17:33.811333  1390 net.cpp:122]     with loss weight 1
I1003 21:17:33.811378  1390 net.cpp:167] loss needs backward computation.
I1003 21:17:33.811388  1390 net.cpp:167] drop7 needs backward computation.
I1003 21:17:33.811393  1390 net.cpp:167] relu7 needs backward computation.
I1003 21:17:33.811398  1390 net.cpp:167] fc7 needs backward computation.
I1003 21:17:33.811404  1390 net.cpp:167] drop6 needs backward computation.
…
