…
I1015 13:04:12.748824 26225 net.cpp:42] Initializing net from parameters: 
name: "singleFrame_RGB"
state {
  phase: TRAIN
}
layer {
  name: "data"
  type: "ImageData"
  top: "data"
  top: "label"
  include {
    phase: TRAIN
  }
  transform_param {
    mirror: true
    crop_size: 227
    mean_value: 103.939
    mean_value: 116.779
    mean_value: 123.68
    flow: false
  }
  image_data_param {
    source: "/cs/vml2/xla193/cluster_video/output/UCF-101/list_frm-10withgtlabel.txt"
    batch_size: 50
    shuffle: true
    new_height: 240
    new_width: 320
    root_folder: "frames/"
  }
}
layer {
  name: "conv1"
  type: "Convolution"
  bottom: "data"
  top: "conv1"
  param {
    lr_mult: 1
    decay_mult: 1
  }
  param {
    lr_mult: 2
    decay_mult: 0
  }
  convolution_param {
    num_output: 96
    kernel_size: 7
    stride: 2
    weight_filler {
      type: "gaussian"
      std: 0.01
    }
    bias_filler {
      type: "constant"
      value: 0.1
    }
  }
}
layer {
  name: "relu1"
  type: "ReLU"
  bottom: "conv1"
  top: "conv1"
}
layer {
  name: "pool1"
  type: "Pooling"
  bottom: "conv1"
  top: "pool1"
  pooling_param {
    pool: MAX
    kernel_size: 3
    stride: 2
  }
}
layer {
  name: "norm1"
  type: "LRN"
  bottom: "pool1"
  top: "norm1"
  lrn_param {
    local_size: 5
    alpha: 0.0001
    beta: 0.75
  }
}
layer {
  name: "conv2"
  type: "Convolution"
  bottom: "norm1"
  top: "conv2"
  param {
    lr_mult: 1
    decay_mult: 1
  }
  param {
    lr_mult: 2
    decay_mult: 0
  }
  convolution_param {
    num_output: 384
    kernel_size: 5
    group: 2
    stride: 2
    weight_filler {
      type: "gaussian"
      std: 0.01
    }
    bias_filler {
      type: "constant"
      value: 0.1
    }
  }
}
layer {
  name: "relu2"
  type: "ReLU"
  bottom: "conv2"
  top: "conv2"
}
layer {
  name: "pool2"
  type: "Pooling"
  bottom: "conv2"
  top: "pool2"
  pooling_param {
    pool: MAX
    kernel_size: 3
    stride: 2
  }
}
layer {
  name: "norm2"
  type: "LRN"
  bottom: "pool2"
  top: "norm2"
  lrn_param {
    local_size: 5
    alpha: 0.0001
    beta: 0.75
  }
}
layer {
  name: "conv3"
  type: "Convolution"
  bottom: "norm2"
  top: "conv3"
  param {
    lr_mult: 1
    decay_mult: 1
  }
  param {
    lr_mult: 2
    decay_mult: 0
  }
  convolution_param {
    num_output: 512
    pad: 1
    kernel_size: 3
    weight_filler {
      type: "gaussian"
      std: 0.01
    }
    bias_filler {
      type: "constant"
      value: 0.1
    }
  }
}
layer {
  name: "relu3"
  type: "ReLU"
  bottom: "conv3"
  top: "conv3"
}
layer {
  name: "conv4"
  type: "Convolution"
  bottom: "conv3"
  top: "conv4"
  param {
    lr_mult: 1
    decay_mult: 1
  }
  param {
    lr_mult: 2
    decay_mult: 0
  }
  convolution_param {
    num_output: 512
    pad: 1
    kernel_size: 3
    group: 2
    weight_filler {
      type: "gaussian"
      std: 0.01
    }
    bias_filler {
      type: "constant"
      value: 0.1
    }
  }
}
layer {
  name: "relu4"
  type: "ReLU"
  bottom: "conv4"
  top: "conv4"
}
layer {
  name: "conv5"
  type: "Convolution"
  bottom: "conv4"
  top: "conv5"
  param {
    lr_mult: 1
    decay_mult: 1
  }
  param {
    lr_mult: 2
    decay_mult: 0
  }
  convolution_param {
    num_output: 384
    pad: 1
    kernel_size: 3
    group: 2
    weight_filler {
      type: "gaussian"
      std: 0.01
    }
    bias_filler {
      type: "constant"
      value: 0.1
    }
  }
}
layer {
  name: "relu5"
  type: "ReLU"
  bottom: "conv5"
  top: "conv5"
}
layer {
  name: "pool5"
  type: "Pooling"
  bottom: "conv5"
  top: "pool5"
  pooling_param {
    pool: MAX
    kernel_size: 3
    stride: 2
  }
}
layer {
  name: "fc6"
  type: "InnerProduct"
  bottom: "pool5"
  top: "fc6"
  param {
    lr_mult: 1
    decay_mult: 1
  }
  param {
    lr_mult: 2
    decay_mult: 0
  }
  inner_product_param {
    num_output: 4096
    weight_filler {
      type: "gaussian"
      std: 0.01
    }
    bias_filler {
      type: "constant"
      value: 0.1
    }
  }
}
layer {
  name: "relu6"
  type: "ReLU"
  bottom: "fc6"
  top: "fc6"
}
layer {
  name: "drop6"
  type: "Dropout"
  bottom: "fc6"
  top: "fc6"
  dropout_param {
    dropout_ratio: 0.5
  }
}
layer {
  name: "fc7"
  type: "InnerProduct"
  bottom: "fc6"
  top: "fc7"
  param {
    lr_mult: 1
    decay_mult: 1
  }
  param {
    lr_mult: 2
    decay_mult: 0
  }
  inner_product_param {
    num_output: 4096
    weight_filler {
      type: "gaussian"
      std: 0.01
    }
    bias_filler {
      type: "constant"
      value: 0.1
    }
  }
}
layer {
  name: "relu7"
  type: "ReLU"
  bottom: "fc7"
  top: "fc7"
}
layer {
  name: "drop7"
  type: "Dropout"
  bottom: "fc7"
  top: "fc7"
  dropout_param {
    dropout_ratio: 0.5
  }
}
layer {
  name: "fc8-ucf"
  type: "InnerProduct"
  bottom: "fc7"
  top: "fc8-ucf"
  param {
    lr_mult: 10
    decay_mult: 1
  }
  param {
    lr_mult: 20
    decay_mult: 0
  }
  inner_product_param {
    num_output: 101
    weight_filler {
      type: "gaussian"
      std: 0.01
    }
    bias_filler {
      type: "constant"
      value: 0
    }
  }
}
layer {
  name: "loss"
  type: "SoftmaxWithLoss"
  bottom: "fc8-ucf"
  bottom: "label"
  top: "loss"
}
layer {
  name: "accuracy"
  type: "Accuracy"
  bottom: "fc8-ucf"
  bottom: "label"
  top: "accuracy"
}
I1015 13:04:12.748982 26225 layer_factory.hpp:74] Creating layer data
I1015 13:04:12.748999 26225 net.cpp:84] Creating Layer data
I1015 13:04:12.749006 26225 net.cpp:339] data -> data
I1015 13:04:12.749030 26225 net.cpp:339] data -> label
I1015 13:04:12.749042 26225 net.cpp:113] Setting up data
I1015 13:04:12.749047 26225 image_data_layer.cpp:41] Opening file /cs/vml2/xla193/cluster_video/output/UCF-101/list_frm-10withgtlabel.txt
I1015 13:04:12.813961 26225 image_data_layer.cpp:51] Shuffling data
I1015 13:04:12.838634 26225 image_data_layer.cpp:56] A total of 197941 images.
I1015 13:04:12.842224 26225 image_data_layer.cpp:86] output data size: 50,3,227,227
I1015 13:04:12.846222 26225 net.cpp:120] Top shape: 50 3 227 227 (7729350)
I1015 13:04:12.846230 26225 net.cpp:120] Top shape: 50 (50)
I1015 13:04:12.846238 26225 layer_factory.hpp:74] Creating layer label_data_1_split
I1015 13:04:12.846249 26225 net.cpp:84] Creating Layer label_data_1_split
I1015 13:04:12.846256 26225 net.cpp:381] label_data_1_split <- label
I1015 13:04:12.846269 26225 net.cpp:339] label_data_1_split -> label_data_1_split_0
I1015 13:04:12.846278 26225 net.cpp:339] label_data_1_split -> label_data_1_split_1
I1015 13:04:12.846283 26225 net.cpp:113] Setting up label_data_1_split
I1015 13:04:12.846292 26225 net.cpp:120] Top shape: 50 (50)
I1015 13:04:12.846295 26225 net.cpp:120] Top shape: 50 (50)
I1015 13:04:12.846298 26225 layer_factory.hpp:74] Creating layer conv1
I1015 13:04:12.846309 26225 net.cpp:84] Creating Layer conv1
I1015 13:04:12.846312 26225 net.cpp:381] conv1 <- data
I1015 13:04:12.846319 26225 net.cpp:339] conv1 -> conv1
I1015 13:04:12.846328 26225 net.cpp:113] Setting up conv1
I1015 13:04:12.846477 26225 net.cpp:120] Top shape: 50 96 111 111 (59140800)
I1015 13:04:12.846488 26225 layer_factory.hpp:74] Creating layer relu1
I1015 13:04:12.846493 26225 net.cpp:84] Creating Layer relu1
I1015 13:04:12.846498 26225 net.cpp:381] relu1 <- conv1
I1015 13:04:12.846503 26225 net.cpp:328] relu1 -> conv1 (in-place)
I1015 13:04:12.846506 26225 net.cpp:113] Setting up relu1
I1015 13:04:12.846511 26225 net.cpp:120] Top shape: 50 96 111 111 (59140800)
I1015 13:04:12.846514 26225 layer_factory.hpp:74] Creating layer pool1
I1015 13:04:12.846520 26225 net.cpp:84] Creating Layer pool1
I1015 13:04:12.846524 26225 net.cpp:381] pool1 <- conv1
I1015 13:04:12.846527 26225 net.cpp:339] pool1 -> pool1
I1015 13:04:12.846534 26225 net.cpp:113] Setting up pool1
I1015 13:04:12.846545 26225 net.cpp:120] Top shape: 50 96 55 55 (14520000)
I1015 13:04:12.846549 26225 layer_factory.hpp:74] Creating layer norm1
I1015 13:04:12.846555 26225 net.cpp:84] Creating Layer norm1
I1015 13:04:12.846557 26225 net.cpp:381] norm1 <- pool1
I1015 13:04:12.846562 26225 net.cpp:339] norm1 -> norm1
I1015 13:04:12.846568 26225 net.cpp:113] Setting up norm1
I1015 13:04:12.846575 26225 net.cpp:120] Top shape: 50 96 55 55 (14520000)
I1015 13:04:12.846577 26225 layer_factory.hpp:74] Creating layer conv2
I1015 13:04:12.846585 26225 net.cpp:84] Creating Layer conv2
I1015 13:04:12.846587 26225 net.cpp:381] conv2 <- norm1
I1015 13:04:12.846591 26225 net.cpp:339] conv2 -> conv2
I1015 13:04:12.846597 26225 net.cpp:113] Setting up conv2
I1015 13:04:12.850744 26225 net.cpp:120] Top shape: 50 384 26 26 (12979200)
I1015 13:04:12.850755 26225 layer_factory.hpp:74] Creating layer relu2
I1015 13:04:12.850762 26225 net.cpp:84] Creating Layer relu2
I1015 13:04:12.850765 26225 net.cpp:381] relu2 <- conv2
I1015 13:04:12.850771 26225 net.cpp:328] relu2 -> conv2 (in-place)
I1015 13:04:12.850776 26225 net.cpp:113] Setting up relu2
I1015 13:04:12.850781 26225 net.cpp:120] Top shape: 50 384 26 26 (12979200)
I1015 13:04:12.850785 26225 layer_factory.hpp:74] Creating layer pool2
I1015 13:04:12.850792 26225 net.cpp:84] Creating Layer pool2
I1015 13:04:12.850795 26225 net.cpp:381] pool2 <- conv2
I1015 13:04:12.850801 26225 net.cpp:339] pool2 -> pool2
I1015 13:04:12.850807 26225 net.cpp:113] Setting up pool2
I1015 13:04:12.850813 26225 net.cpp:120] Top shape: 50 384 13 13 (3244800)
I1015 13:04:12.850816 26225 layer_factory.hpp:74] Creating layer norm2
I1015 13:04:12.850824 26225 net.cpp:84] Creating Layer norm2
I1015 13:04:12.850826 26225 net.cpp:381] norm2 <- pool2
I1015 13:04:12.850831 26225 net.cpp:339] norm2 -> norm2
I1015 13:04:12.850836 26225 net.cpp:113] Setting up norm2
I1015 13:04:12.850842 26225 net.cpp:120] Top shape: 50 384 13 13 (3244800)
I1015 13:04:12.850846 26225 layer_factory.hpp:74] Creating layer conv3
I1015 13:04:12.850852 26225 net.cpp:84] Creating Layer conv3
I1015 13:04:12.850855 26225 net.cpp:381] conv3 <- norm2
I1015 13:04:12.850862 26225 net.cpp:339] conv3 -> conv3
I1015 13:04:12.850867 26225 net.cpp:113] Setting up conv3
I1015 13:04:12.869129 26225 net.cpp:120] Top shape: 50 512 13 13 (4326400)
I1015 13:04:12.869148 26225 layer_factory.hpp:74] Creating layer relu3
I1015 13:04:12.869159 26225 net.cpp:84] Creating Layer relu3
I1015 13:04:12.869163 26225 net.cpp:381] relu3 <- conv3
I1015 13:04:12.869170 26225 net.cpp:328] relu3 -> conv3 (in-place)
I1015 13:04:12.869176 26225 net.cpp:113] Setting up relu3
I1015 13:04:12.869181 26225 net.cpp:120] Top shape: 50 512 13 13 (4326400)
I1015 13:04:12.869184 26225 layer_factory.hpp:74] Creating layer conv4
I1015 13:04:12.869192 26225 net.cpp:84] Creating Layer conv4
I1015 13:04:12.869195 26225 net.cpp:381] conv4 <- conv3
I1015 13:04:12.869201 26225 net.cpp:339] conv4 -> conv4
I1015 13:04:12.869207 26225 net.cpp:113] Setting up conv4
I1015 13:04:12.880457 26225 net.cpp:120] Top shape: 50 512 13 13 (4326400)
I1015 13:04:12.880491 26225 layer_factory.hpp:74] Creating layer relu4
I1015 13:04:12.880504 26225 net.cpp:84] Creating Layer relu4
I1015 13:04:12.880514 26225 net.cpp:381] relu4 <- conv4
I1015 13:04:12.880525 26225 net.cpp:328] relu4 -> conv4 (in-place)
I1015 13:04:12.880539 26225 net.cpp:113] Setting up relu4
I1015 13:04:12.880550 26225 net.cpp:120] Top shape: 50 512 13 13 (4326400)
I1015 13:04:12.880559 26225 layer_factory.hpp:74] Creating layer conv5
I1015 13:04:12.880571 26225 net.cpp:84] Creating Layer conv5
I1015 13:04:12.880579 26225 net.cpp:381] conv5 <- conv4
I1015 13:04:12.880590 26225 net.cpp:339] conv5 -> conv5
I1015 13:04:12.880607 26225 net.cpp:113] Setting up conv5
I1015 13:04:12.888836 26225 net.cpp:120] Top shape: 50 384 13 13 (3244800)
I1015 13:04:12.888850 26225 layer_factory.hpp:74] Creating layer relu5
I1015 13:04:12.888857 26225 net.cpp:84] Creating Layer relu5
I1015 13:04:12.888860 26225 net.cpp:381] relu5 <- conv5
I1015 13:04:12.888867 26225 net.cpp:328] relu5 -> conv5 (in-place)
I1015 13:04:12.888872 26225 net.cpp:113] Setting up relu5
I1015 13:04:12.888877 26225 net.cpp:120] Top shape: 50 384 13 13 (3244800)
I1015 13:04:12.888880 26225 layer_factory.hpp:74] Creating layer pool5
I1015 13:04:12.888888 26225 net.cpp:84] Creating Layer pool5
I1015 13:04:12.888891 26225 net.cpp:381] pool5 <- conv5
I1015 13:04:12.888896 26225 net.cpp:339] pool5 -> pool5
I1015 13:04:12.888901 26225 net.cpp:113] Setting up pool5
I1015 13:04:12.888909 26225 net.cpp:120] Top shape: 50 384 6 6 (691200)
I1015 13:04:12.888912 26225 layer_factory.hpp:74] Creating layer fc6
I1015 13:04:12.888921 26225 net.cpp:84] Creating Layer fc6
I1015 13:04:12.888924 26225 net.cpp:381] fc6 <- pool5
I1015 13:04:12.888931 26225 net.cpp:339] fc6 -> fc6
I1015 13:04:12.888944 26225 net.cpp:113] Setting up fc6
I1015 13:04:13.354331 26225 net.cpp:120] Top shape: 50 4096 (204800)
I1015 13:04:13.354347 26225 layer_factory.hpp:74] Creating layer relu6
I1015 13:04:13.354354 26225 net.cpp:84] Creating Layer relu6
I1015 13:04:13.354357 26225 net.cpp:381] relu6 <- fc6
I1015 13:04:13.354362 26225 net.cpp:328] relu6 -> fc6 (in-place)
I1015 13:04:13.354365 26225 net.cpp:113] Setting up relu6
I1015 13:04:13.354368 26225 net.cpp:120] Top shape: 50 4096 (204800)
I1015 13:04:13.354370 26225 layer_factory.hpp:74] Creating layer drop6
I1015 13:04:13.354374 26225 net.cpp:84] Creating Layer drop6
I1015 13:04:13.354377 26225 net.cpp:381] drop6 <- fc6
I1015 13:04:13.354379 26225 net.cpp:328] drop6 -> fc6 (in-place)
I1015 13:04:13.354385 26225 net.cpp:113] Setting up drop6
I1015 13:04:13.354392 26225 net.cpp:120] Top shape: 50 4096 (204800)
I1015 13:04:13.354393 26225 layer_factory.hpp:74] Creating layer fc7
I1015 13:04:13.354399 26225 net.cpp:84] Creating Layer fc7
I1015 13:04:13.354401 26225 net.cpp:381] fc7 <- fc6
I1015 13:04:13.354404 26225 net.cpp:339] fc7 -> fc7
I1015 13:04:13.354408 26225 net.cpp:113] Setting up fc7
I1015 13:04:13.496850 26225 net.cpp:120] Top shape: 50 4096 (204800)
I1015 13:04:13.496865 26225 layer_factory.hpp:74] Creating layer relu7
I1015 13:04:13.496870 26225 net.cpp:84] Creating Layer relu7
I1015 13:04:13.496875 26225 net.cpp:381] relu7 <- fc7
I1015 13:04:13.496878 26225 net.cpp:328] relu7 -> fc7 (in-place)
I1015 13:04:13.496882 26225 net.cpp:113] Setting up relu7
I1015 13:04:13.496886 26225 net.cpp:120] Top shape: 50 4096 (204800)
I1015 13:04:13.496887 26225 layer_factory.hpp:74] Creating layer drop7
I1015 13:04:13.496893 26225 net.cpp:84] Creating Layer drop7
I1015 13:04:13.496896 26225 net.cpp:381] drop7 <- fc7
I1015 13:04:13.496897 26225 net.cpp:328] drop7 -> fc7 (in-place)
I1015 13:04:13.496901 26225 net.cpp:113] Setting up drop7
I1015 13:04:13.496904 26225 net.cpp:120] Top shape: 50 4096 (204800)
I1015 13:04:13.496907 26225 layer_factory.hpp:74] Creating layer fc8-ucf
I1015 13:04:13.496912 26225 net.cpp:84] Creating Layer fc8-ucf
I1015 13:04:13.496913 26225 net.cpp:381] fc8-ucf <- fc7
I1015 13:04:13.496917 26225 net.cpp:339] fc8-ucf -> fc8-ucf
I1015 13:04:13.496923 26225 net.cpp:113] Setting up fc8-ucf
I1015 13:04:13.500437 26225 net.cpp:120] Top shape: 50 101 (5050)
I1015 13:04:13.500442 26225 layer_factory.hpp:74] Creating layer fc8-ucf_fc8-ucf_0_split
I1015 13:04:13.500447 26225 net.cpp:84] Creating Layer fc8-ucf_fc8-ucf_0_split
I1015 13:04:13.500449 26225 net.cpp:381] fc8-ucf_fc8-ucf_0_split <- fc8-ucf
I1015 13:04:13.500452 26225 net.cpp:339] fc8-ucf_fc8-ucf_0_split -> fc8-ucf_fc8-ucf_0_split_0
I1015 13:04:13.500457 26225 net.cpp:339] fc8-ucf_fc8-ucf_0_split -> fc8-ucf_fc8-ucf_0_split_1
I1015 13:04:13.500459 26225 net.cpp:113] Setting up fc8-ucf_fc8-ucf_0_split
I1015 13:04:13.500463 26225 net.cpp:120] Top shape: 50 101 (5050)
I1015 13:04:13.500465 26225 net.cpp:120] Top shape: 50 101 (5050)
I1015 13:04:13.500466 26225 layer_factory.hpp:74] Creating layer loss
I1015 13:04:13.500473 26225 net.cpp:84] Creating Layer loss
I1015 13:04:13.500476 26225 net.cpp:381] loss <- fc8-ucf_fc8-ucf_0_split_0
I1015 13:04:13.500478 26225 net.cpp:381] loss <- label_data_1_split_0
I1015 13:04:13.500483 26225 net.cpp:339] loss -> loss
I1015 13:04:13.500485 26225 net.cpp:113] Setting up loss
I1015 13:04:13.500491 26225 layer_factory.hpp:74] Creating layer loss
…
